policy_net_move_select_1.pth (torch, 185935 bytes, 18 tensors)

conv1.weight f4 [16, 1, 3, 3]
0	0x3bdcff84	0.006744327
1	0x3eca8d09	0.39560726
2	0xbc03aa33	-0.008036184
3	0x3baf1ea8	0.0053442307
4	0xbee51886	-0.44745272
5	0xbc2d3267	-0.010571099
6	0xbbe53e2a	-0.006995936
7	0x3e2fe64b	0.17177694
8	0x3a20027c	0.0006103886
9	0x39b69321	0.00034823365
10	0x3a883a43	0.001039334
11	0x3b8cb963	0.0042945608
12	0x3aab9b5d	0.0013092567
13	0x3b37fa35	0.002807272
14	0xbef5265c	-0.47880828
15	0xbb936adc	-0.0044988226
16	0xbb403e86	-0.0029334142
17	0x3ef80929	0.4844449
18	0x3c34beb8	0.011031799
19	0x3e41228a	0.18860832
20	0x3f21a75a	0.63145983
21	0x3d425138	0.047440737
22	0x3d3b529d	0.045733083
23	0xbcba0bd3	-0.022710716
24	0xbd8d0be3	-0.06887033
25	0xbe02eafe	-0.12784955
26	0xbe9e68d0	-0.3093934
27	0xbdc4de84	-0.09612754
28	0xbe0b7923	-0.13620429
29	0xbd0b48c0	-0.034004927
30	0xbd9dbdfc	-0.07702252
31	0xbdc9d550	-0.09855139
32	0x3d8d96cc	0.06913528
33	0xbd30d18f	-0.0431686
34	0xbd38b966	-0.045098685
35	0x3f33688d	0.70081407
36	0xbe15bf88	-0.14623845
37	0xbde02a41	-0.10945559
38	0xbceb6788	-0.028735891
39	0xbee4ab58	-0.44661975
40	0xbd660a10	-0.05616194
41	0xbd2fdf89	-0.04293779
42	0x3eb23909	0.3480914
43	0x3cac27eb	0.021015128
44	0x3c8023c2	0.01564205
45	0xbfdcc274	-1.7246842
46	0xbbc0b3ac	-0.0058807936
47	0xbca09fa4	-0.019607373
48	0x3debaae2	0.11507203
49	0x3dbf391b	0.09337064
50	0xbd025fb9	-0.03182957
51	0xbddae5c2	-0.10688354
52	0x3d08fd57	0.03344473
53	0xbce541f2	-0.027985547
54	0xbd7b4e9d	-0.06135427
55	0x3cd6fad1	0.026242645
56	0x3cf061de	0.029343542
57	0xbf8a414c	-1.0801177
58	0x3d4bfe2c	0.049802944
59	0x3c89aa87	0.016804947
60	0xbfa5cb77	-1.2952718
61	0x3cc66910	0.02422002
62	0x3c22185a	0.009893501
63	0x3d0ab02a	0.03385941
64	0x3d6d8d79	0.057996247
65	0x3d42f6f6	0.0475988
66	0x3d4eb49e	0.05046522
67	0xbc813602	-0.015772823
68	0x3b8dad69	0.0043236506
69	0xbf366c5a	-0.7125908
70	0xbf2aed27	-0.66768116
71	0xbe22c049	-0.15893663
72	0x3e383c89	0.17991842
73	0xbf1157cd	-0.567746
74	0xbd674b7e	-0.05646848
75	0x3d29b73f	0.041434523
76	0xbe8b31c4	-0.27186406
77	0xbda01c58	-0.07817906
78	0x3d3d809e	0.046265237
79	0xbe66044e	-0.2246258
80	0xbe0eee14	-0.13958007
81	0xbd21bd0a	-0.039486922
82	0xbcb239f2	-0.021756146
83	0xbd4d7f1c	-0.05017005
84	0xbd05456a	-0.0325369
85	0x3ca5f8cc	0.020260237
86	0xbe58787a	-0.21139708
87	0xbccdd65d	-0.02512663
88	0xbd0949b6	-0.03351756
89	0xbfb05656	-1.3776348
90	0x3d62117d	0.05519246
91	0x3c5fb669	0.01365433
92	0xbac9d5df	-0.0015398822
93	0x3d581bf9	0.05276105
94	0x3d0358c4	0.032067075
95	0x38dd0d5a	0.00010540588
96	0xc004a64e	-2.0726504
97	0x3c6a6beb	0.014307956
98	0x3c5c7c96	0.013457438
99	0x3e5b67e7	0.21426354
100	0x3e49a19b	0.19690554
101	0xbf1f1c89	-0.62152916
102	0x3d61ca85	0.05512478
103	0x3cf2055b	0.02954357
104	0x3c08c52b	0.00834779
105	0x3c08a267	0.008339501
106	0xbcc03370	-0.023462027
107	0x3d8c38d6	0.06846778
108	0xbedd850d	-0.43265572
109	0xbafc4eac	-0.001924952
110	0x3b1de7c7	0.002409445
111	0x3edea7ed	0.43487492
112	0xb9e638cf	-0.00043911344
113	0x3a613e5e	0.0008592362
114	0xbdd01fe6	-0.10162334
115	0xbbed70f5	-0.0072461315
116	0xbb096c24	-0.0020968998
117	0x3f07622b	0.5288417
118	0x3d81d0c5	0.06338648
119	0x3dafac68	0.08577806
120	0x3e4ce549	0.2000934
121	0x3e24b9e7	0.16086541
122	0x3d7e4fb2	0.062087722
123	0x3d4921ae	0.049104385
124	0x3e3ce58f	0.18446945
125	0xbd8785b3	-0.06617298
126	0x3c4d42c4	0.012528125
127	0x3ce4d601	0.027934076
128	0x3d77c252	0.060488053
129	0xbc09de04	-0.008414749
130	0xbc050334	-0.0081184395
131	0x3dbecd57	0.09316509
132	0x3bcd36a6	0.006262618
133	0x3b39a37a	0.00283262
134	0xbfcdf635	-1.6090761
135	0xbca11d6e	-0.019667353
136	0xbc980d80	-0.018561125
137	0xc0032a7e	-2.0494685
138	0xbcb62276	-0.02223323
139	0x3c48ab7d	0.012247917
140	0xbd80eecb	-0.06295546
141	0xbc9ea38f	-0.0193651
142	0x3b8880e6	0.0041657565
143	0x3d4c3250	0.04985267

conv1.bias f4 [16]
0	0x3e2549a9	0.1614138
1	0x3c9d9d80	0.01924014
2	0xbd52b8ea	-0.05144588
3	0xbe6f55a2	-0.2337251
4	0x3d03a580	0.032140255
5	0xbdbab071	-0.09115685
6	0xbc4da9e6	-0.012552714
7	0x3d1c56d8	0.03816876
8	0xbca85c84	-0.020551927
9	0xbe01eea8	-0.12688696
10	0x3d84d737	0.064863615
11	0x3cbf2bdd	0.023336345
12	0xbd85a881	-0.0652628
13	0x3d75f04a	0.06004361
14	0x3d85638d	0.065131284
15	0x3c809a46	0.015698563

bn1.weight f4 [16]
0	0x3e9df8aa	0.30853778
1	0x3f182ce2	0.59443486
2	0x3eda5919	0.426461
3	0x3e934993	0.2876707
4	0x3f0680de	0.52540386
5	0x3f2f9149	0.6858106
6	0x3fc3e797	1.5305051
7	0x3f0fb0c2	0.56129086
8	0x3f20e1e9	0.6284471
9	0x3fa0c9ba	1.2561562
10	0x3ff14810	1.8850117
11	0x3eaa9e1a	0.33323747
12	0x3ef27a77	0.47359058
13	0x3eabe74b	0.335749
14	0x3fe39e97	1.7782773
15	0x3f8c002b	1.0937551

bn1.bias f4 [16]
0	0xbcee0bde	-0.029058393
1	0xbd8fb2b6	-0.07016508
2	0x3d8c2f3d	0.068449475
3	0xbb378dac	-0.0028008027
4	0xbe9137bd	-0.28362837
5	0xbe0488b9	-0.1294278
6	0xbf2aa189	-0.66652733
7	0xbeae3bff	-0.34030148
8	0xbee6fc40	-0.45114326
9	0xbdafb5a6	-0.085795686
10	0xbeecfab7	-0.4628503
11	0xbcd87e77	-0.02642749
12	0xbe31f130	-0.17377162
13	0x3e1b6b8b	0.15177743
14	0xbf10297f	-0.5631332
15	0xbd0766a6	-0.033056878

bn1.running_mean f4 [16]
0	0x3eec538d	0.46157494
1	0xbd65d086	-0.056107067
2	0x3f7f2083	0.99658984
3	0xbd30fe90	-0.04321152
4	0xbf51042a	-0.8164698
5	0xc04ae0dc	-3.1699743
6	0xc03fd83f	-2.9975736
7	0xbfd64d20	-1.6742287
8	0xbfee4671	-1.8615247
9	0xc02b4ac3	-2.676438
10	0xc00d369a	-2.2064576
11	0xbe5925b5	-0.2120579
12	0xbec17113	-0.3778158
13	0x400be03a	2.1855607
14	0xbfeaae8f	-1.8334521
15	0xc08515fd	-4.158934

bn1.running_var f4 [16]
0	0x3f30a273	0.6899788
1	0x3f6d4624	0.9268515
2	0x3ff428cc	1.907495
3	0x3fcf9193	1.6216301
4	0x3f9d72d9	1.2300674
5	0x41430984	12.189823
6	0x4163ce1a	14.237818
7	0x408745fd	4.2272935
8	0x404d6389	3.2092001
9	0x41149fb6	9.288992
10	0x415c2e32	13.761278
11	0x3fa38498	1.2774839
12	0x3f2f9819	0.6859146
13	0x405a78c1	3.4136202
14	0x410eff49	8.9373255
15	0x4196a8b2	18.83237

conv2.weight f4 [32, 16, 3, 3]
0	0x3e561924	0.20908028
1	0x3e0e4867	0.13894807
2	0xbe3fa067	-0.18713532
3	0x3dc8ed07	0.098108344
4	0x3e52206f	0.20520185
5	0xbdf35192	-0.11880793
6	0x3e5625e7	0.20912896
7	0xbe2f9149	-0.17145266
8	0x3af1bdbf	0.001844339
9	0x3db7fb8b	0.08983525
10	0xbcff8b51	-0.03119436
11	0x3e6361ca	0.22205272
12	0xbf1192cf	-0.5686464
13	0x3e315734	0.17318422
14	0xbe8fee9e	-0.28111738
15	0x3d19451d	0.037419427
16	0x3e2b8057	0.16748177
17	0x3d2a60f4	0.041596368
18	0xbe9d0fe2	-0.3067618
19	0xbdec67f9	-0.11543269
20	0x3e796a95	0.24357064
21	0xbb082267	-0.0020772459
22	0x3e042e70	0.1290834
23	0x3b8e0a6e	0.0043347394
24	0xbd7f3ab0	-0.062311828
25	0x3d7b1302	0.061297424
26	0x3e667726	0.22506389
27	0xbbdd86de	-0.006760462
28	0xbe0e5b6a	-0.13902059
29	0xbe206952	-0.15665177
30	0x3e1a04a8	0.15040839
31	0x3a333b19	0.00068371143
32	0x3d63d2df	0.055621024
33	0xbe8bd2ea	-0.27309352
34	0xbe0934b4	-0.13399011
35	0xbe9b8872	-0.30377537
36	0xbeaa7263	-0.33290395
37	0x3bf84710	0.0075768307
38	0x3f0d2a43	0.5514261
39	0xbe842be0	-0.25814724
40	0xbef20762	-0.47271258
41	0xbe7ff167	-0.24994431
42	0x3c858a57	0.016301317
43	0x3af1c133	0.0018444419
44	0x3d93e32f	0.07221066
45	0x3e6bfd9a	0.2304596
46	0xbce83dd4	-0.028349794
47	0xbe503030	-0.20330882
48	0x3e9f0a90	0.31062746
49	0xbdf13460	-0.11777568
50	0x3d3aeac4	0.045634046
51	0x3c2d72e7	0.010586477
52	0x3e8edc8d	0.27902642
53	0x3e8b5e59	0.2722042
54	0x3e91217c	0.2834586
55	0x3dde09f4	0.10841742
56	0x3e8c1ea5	0.2736713
57	0x3e2f17c2	0.17098907
58	0x3d55fc42	0.052242525
59	0x3e63b298	0.22236097
60	0xbe264f3f	-0.16241167
61	0x3d459321	0.048236016
62	0xbed9530a	-0.42446166
63	0x3e2697c5	0.16268833
64	0xbe5fb249	-0.21845354
65	0x3d84d179	0.06485266
66	0x3f0541a0	0.5205326
67	0x3ded7bdb	0.11595889
68	0xbe229c74	-0.15879995
69	0xbef7770d	-0.48333016
70	0xbe097e6a	-0.1342713
71	0x3d8bf281	0.06833363
72	0x3eab575c	0.33465087
73	0x3cb1f30b	0.021722337
74	0x3d8a2399	0.06745071
75	0x3eb085f7	0.34477207
76	0xbe314dd6	-0.17314848
77	0xbd99540e	-0.07486735
78	0xbdb235cd	-0.08701668
79	0x3d30d7f9	0.043174718
80	0x3ea4386c	0.32074296
81	0x3d206a36	0.03916379
82	0xbe816644	-0.25273335
83	0x3d484415	0.048893053
84	0x3df3c469	0.11902697
85	0xbe8c6c9c	-0.27426612
86	0x3d14d995	0.036340315
87	0xbba0ad6a	-0.004903485
88	0x3dce4eb0	0.10073602
89	0xbe5a0042	-0.21289161
90	0x3caa9b75	0.02082608
91	0x3dc8a824	0.09797695
92	0x3e4ac6ae	0.19802353
93	0x3efe1e93	0.496327
94	0x3cdf9c68	0.02729626
95	0x3e9838cd	0.29730836
96	0x3ec3b20e	0.38221782
97	0x3db466c8	0.088086665
98	0x3e55cefe	0.20879743
99	0x3e8a10cc	0.2696594
100	0x3d5f5e26	0.054533146
101	0xbe24bf7d	-0.16088672
102	0x3eb13ef7	0.3461835
103	0xbcd46834	-0.025928594
104	0xbea5679e	-0.32305616
105	0x3eb8487e	0.35992807
106	0xbb9f093c	-0.0048533957
107	0xbed6fcfd	-0.4198989
108	0x3dcd2877	0.10017484
109	0xbea138b0	-0.31488562
110	0xbddbef23	-0.10738971
111	0xbf147c65	-0.5800231
112	0xbd909ecb	-0.07061537
113	0x3e48df15	0.19616349
114	0xbe9f2453	-0.310824
115	0xbe63702e	-0.22210762
116	0xbeb6b451	-0.35684446
117	0xbf0d77d8	-0.5526099
118	0xbe7db47a	-0.24775878
119	0xbe52a224	-0.20569664
120	0xbdeb1dad	-0.114802696
121	0xbe9080e1	-0.28223327
122	0x3dc0613d	0.09393547
123	0xbe58f848	-0.21188462
124	0xbd8e6385	-0.069525756
125	0x3d667180	0.056260586
126	0xbc5d1fde	-0.013496367
127	0xbcc6da22	-0.024273936
128	0x3dbb49c1	0.09144927
129	0x3e947f52	0.29003388
130	0xbe9573ae	-0.2918982
131	0x3decba95	0.11559025
132	0x3ec3c4b2	0.38236004
133	0xbf05a238	-0.5220065
134	0xbe33d5b7	-0.17561994
135	0x3cd80aa2	0.026372258
136	0xbea6fbb7	-0.32613918
137	0xbe8aa022	-0.27075297
138	0x3c83e100	0.0160985
139	0xbdc52fba	-0.09628244
140	0xbe8a2118	-0.26978374
141	0x3b41effd	0.0029592507
142	0xbe36b2a3	-0.17841582
143	0xbdc9ba9a	-0.098500445
144	0x3eaca605	0.33720413
145	0x3f4a9a05	0.79141265
146	0xbd192bb9	-0.037395213
147	0x3ea77880	0.32709122
148	0x3f02a6dd	0.51035863
149	0x3d4f6854	0.050636604
150	0xbc4b6aa3	-0.012415561
151	0x3ddef10c	0.1088582
152	0xbc67b070	-0.014141187
153	0xbf7b73b3	-0.9822342
154	0xbcdb3290	-0.026757509
155	0x3be0e1c4	0.006862851
156	0x3ea515e4	0.32243264
157	0xbe047a0c	-0.12937182
158	0x3dc5d74c	0.09660205
159	0xbe16c3a7	-0.14723073
160	0xbe2b1ae9	-0.16709484
161	0x3df2e0c2	0.118592754
162	0xbf0bb9fa	-0.5458065
163	0x3c97c4e5	0.018526504
164	0x3d234c7a	0.039867856
165	0x3d90ca9f	0.07069897
166	0xbe6754bc	-0.22590917
167	0xbd41ccde	-0.047314517
168	0xbcc45630	-0.023966879
169	0xbc7268b4	-0.014795471
170	0x3df80fd2	0.121123925
171	0xbe87f1f0	-0.2655177
172	0x3d16fe1e	0.03686344
173	0xbd929282	-0.071568504
174	0xbdb933b4	-0.09043065
175	0x3c9d2b54	0.0191857
176	0xbd79a385	-0.06094696
177	0x3de53df7	0.111934595
178	0x3e43bf00	0.1911583
179	0x3e16adb2	0.14714697
180	0x3ec33301	0.3812485
181	0xbdbc8703	-0.09205439
182	0xbe397b84	-0.18113524
183	0x3d57b44e	0.052662186
184	0x3e803ed3	0.2504793
185	0xbf062ac6	-0.5240902
186	0x3e39a4d6	0.18129286
187	0x3cc45122	0.023964468
188	0xbc9713dc	-0.018442087
189	0xbe66eae4	-0.22550541
190	0xbe96725d	-0.29384127
191	0x3bd8fc25	0.006621855
192	0xbc943dcd	-0.018095875
193	0xbe2d788c	-0.16940516
194	0xbd877016	-0.066131756
195	0xbd11022f	-0.035402473
196	0xbdd36792	-0.10322489
197	0x3d87eba9	0.066367455
198	0x3d30f512	0.043202467
199	0xbc9a2871	-0.018818112
200	0xbd9256ab	-0.07145437
201	0xbe09af8d	-0.13445874
202	0x3e628203	0.22119908
203	0xbcb2a36d	-0.021806443
204	0x3cf8bcee	0.030363526
205	0xbde432ae	-0.11142479
206	0x3d8d9a4a	0.06914194
207	0x3cdd6467	0.027025415
208	0x3b636267	0.0034696104
209	0x3e062656	0.13100561
210	0x3e555164	0.2083183
211	0x3d92e49e	0.071725115
212	0x3c7dc70b	0.01548935
213	0xbe3388d9	-0.17532672
214	0xbe933305	-0.28749862
215	0x3c8b3115	0.016991178
216	0x3f01bf5a	0.50682604
217	0xbdfc2c95	-0.12313191
218	0xbe3ae060	-0.18249655
219	0xbd8640ac	-0.06555304
220	0xbe42e1e0	-0.19031477
221	0xbee8c2d8	-0.45461154
222	0x3e1d7935	0.15378268
223	0x3d9c3a34	0.07628289
224	0xbd5c6bee	-0.053813867
225	0xbeb1979f	-0.3468599
226	0xbd897a1f	-0.06712746
227	0xbd24bb72	-0.040217824
228	0xbcc61bcd	-0.024183178
229	0xbd37209d	-0.044708837
230	0x3dc5e256	0.09662311
231	0x3d9211e0	0.07132316
232	0xbdadffe1	-0.08496071
233	0x3cfd6967	0.030934049
234	0x3e63281c	0.2218327
235	0xbe38301f	-0.17987107
236	0x3cbf9b08	0.023389354
237	0x3d88912a	0.06668313
238	0x3e681ee8	0.2266804
239	0x3e883bb0	0.26608038
240	0x3d7a77a0	0.06114924
241	0x3d94ec5f	0.07271647
242	0xbd67992e	-0.056542568
243	0x3e231349	0.15925325
244	0x3c522f20	0.012828618
245	0x3e96ed8a	0.29478103
246	0xbe18cd50	-0.1492207
247	0x3d5f15f0	0.05446428
248	0xbc9b156e	-0.018931117
249	0x3c7709bb	0.0150780035
250	0xbe1de8f7	-0.154209
251	0xbd0ebb9f	-0.0348469
252	0x3dc5cbb3	0.09657993
253	0xbeab95e6	-0.335128
254	0xbf87c875	-1.060805
255	0xbe66b1c6	-0.22528753

conv2.bias f4 [32]
0	0x3dbad31e	0.09122299
1	0x3ce5274b	0.027972838
2	0x3e2b5f9d	0.16735692
3	0x3e0d5149	0.13800539
4	0xbecd4f04	-0.40099347
5	0x3e5459e2	0.20737413
6	0x3eb476a9	0.3524678
7	0x3cec3c03	0.02883721
8	0x3e882b1e	0.26595396
9	0x3e236d27	0.15959607
10	0x3dbc31d9	0.09189195
11	0xbd1f896b	-0.03894941
12	0xbd969cc6	-0.07354121
13	0xbe76eafe	-0.2411308
14	0x3ca57eab	0.020202002
15	0x3d53ab27	0.051676895
16	0x3e4e6e0c	0.20159167
17	0x3e13e71f	0.14443634
18	0x3e467fb4	0.19384652
19	0x3db21be5	0.08696727
20	0xbc492d5b	-0.01227888
21	0x3d395c2b	0.045253914
22	0xbcd08ddf	-0.025458274
23	0xbe0f08ac	-0.13968152
24	0xbe9968a2	-0.2996264
25	0xbcdd7006	-0.027030956
26	0x3e45c8aa	0.19314829
27	0xbdd56abd	-0.10420749
28	0x3d7d9abe	0.06191515
29	0xbdfc7aae	-0.12328087
30	0x3d6ea0b6	0.058258735
31	0x3d863b9c	0.06554338

bn2.weight f4 [32]
0	0x3f11adfa	0.5690609
1	0x3f038474	0.5137398
2	0x3faf5698	1.3698301
3	0x3fb323e1	1.3995324
4	0x3ef0fa9b	0.47066197
5	0x3f8b88bd	1.0901104
6	0x3eb766b8	0.35820556
7	0x3f3401e3	0.7031538
8	0x3f39017f	0.7226791
9	0x3f73dfe8	0.9526353
10	0x3ed8fa1c	0.42378318
11	0x3fada255	1.3565165
12	0x3f7d2fb0	0.9890089
13	0x3ee38f16	0.44445103
14	0x3f1f3437	0.6218905
15	0x3f0722ea	0.5278765
16	0x3f46667d	0.77500135
17	0x3f08d3b3	0.5344803
18	0x3ef0a96d	0.47004262
19	0x3f1664bd	0.58747464
20	0x3e381b10	0.17979074
21	0x3edf39fa	0.4359892
22	0x3e8cf836	0.2753312
23	0x3ebe40e4	0.37158883
24	0x3ef1e9c1	0.47248653
25	0x3f1a6bcd	0.6032074
26	0x3f799c90	0.9750452
27	0x3f32d44a	0.6985518
28	0x3f1182f2	0.5684043
29	0x3f12e55d	0.5738123
30	0x3f15ba7a	0.58487666
31	0x3e4abee9	0.19799389

bn2.bias f4 [32]
0	0xbf13634e	-0.575734
1	0xbe48aa37	-0.19596182
2	0xbfeea9ef	-1.864561
3	0xbfd047f8	-1.6271963
4	0xbda9a7c0	-0.08283949
5	0xbf3458ef	-0.704482
6	0x3e0fc0d2	0.14038399
7	0xbecda0e5	-0.40161815
8	0xbf46dfa0	-0.77684975
9	0xbebae5d0	-0.36503458
10	0xbe1ce4a2	-0.15321591
11	0xbfb66bfb	-1.4251703
12	0xbf97b99e	-1.1853521
13	0x3d452810	0.04813391
14	0xbe9c21be	-0.30494493
15	0xbe0abb35	-0.13547976
16	0xbfa1f666	-1.265332
17	0xbe89f248	-0.26942658
18	0xbe4939e3	-0.19650988
19	0x3e076704	0.13222891
20	0x3dc58ac1	0.09645606
21	0xbe259a83	-0.16172223
22	0x3d8a1f2d	0.067442276
23	0xbe8db406	-0.2767641
24	0x3e4d4248	0.20044816
25	0xbed49f6d	-0.41527882
26	0xbf6c33b5	-0.922664
27	0x3e03e75d	0.12881227
28	0xbf43ccf5	-0.76484615
29	0xbe74cdb1	-0.2390659
30	0xbed8c100	-0.42334747
31	0x3c2b3c61	0.010451407

bn2.running_mean f4 [32]
0	0x3e4eea74	0.20206624
1	0x3d966e44	0.0734525
2	0xbeb33cf4	-0.3500744
3	0x3f6a056b	0.9141452
4	0x3d62ce5a	0.055372573
5	0x3fada745	1.3566672
6	0xbff42a27	-1.9075364
7	0x3fe8ead1	1.819666
8	0x3ef5fea6	0.48045844
9	0x401b7a77	2.4293497
10	0xbf2d3dec	-0.6767261
11	0xbe41481c	-0.18875164
12	0xbf20c165	-0.62795097
13	0x3f969e04	1.1766973
14	0x3ec8b359	0.3919933
15	0x3fc3cbf4	1.5296617
16	0xbe98d616	-0.29850835
17	0x3fb4672f	1.4093989
18	0xbfa08d89	-1.2543193
19	0x3f991048	1.1958094
20	0xc01fe567	-2.4983766
21	0x3efd444b	0.49466166
22	0xbe221104	-0.15826803
23	0xbf60814f	-0.8769731
24	0x3e3228b1	0.17398335
25	0x3f197987	0.5995106
26	0x3ed97b28	0.42476773
27	0x3fc6e48e	1.5538499
28	0xbeb32c50	-0.34994745
29	0xbbae6265	-0.005321788
30	0x3f5ec29c	0.870157
31	0xbfb0be4a	-1.3808072

bn2.running_var f4 [32]
0	0x3f686d67	0.90791935
1	0x3e9daacc	0.3079437
2	0x3f678377	0.90434974
3	0x3f3516b5	0.70737773
4	0x3e503e13	0.2033618
5	0x403ffce6	2.9998107
6	0x3fd06bda	1.6282914
7	0x3fe090bd	1.7544171
8	0x3f838695	1.0275446
9	0x3fea36e1	1.8297998
10	0x3efcc476	0.49368638
11	0x3e8b59b9	0.2721689
12	0x3e900fcb	0.2813705
13	0x3eede9f5	0.46467558
14	0x3eee51a0	0.4654665
15	0x3f95c7a0	1.1701546
16	0x3ecbf4af	0.39835116
17	0x3fce21be	1.6104047
18	0x3f73db8d	0.9525688
19	0x3fa8d825	1.3190962
20	0x3ef2a9c3	0.47395143
21	0x3ee35b02	0.4440537
22	0x3ed7ce88	0.42149758
23	0x3e9f2cf3	0.3108898
24	0x3f652759	0.89513165
25	0x3e57a48d	0.21058865
26	0x3eb6679d	0.35625926
27	0x3f949019	1.1606475
28	0x3f1deb37	0.61687034
29	0x3e94bbeb	0.2904962
30	0x3efc8763	0.49322042
31	0x3efe90ee	0.49719948

linear1.weight f4 [64, 576]
0	0x3d351d5b	0.04421745
1	0x3ea86016	0.32885808
2	0xbe974741	-0.2954655
3	0xbdf86d7a	-0.12130256
4	0x3c1d9dda	0.009620154
5	0x3e3a86b8	0.18215454
6	0xbd27b90b	-0.040947955
7	0xbe83b788	-0.2572596
8	0x3e7fbe35	0.24974902
9	0xbe86b47b	-0.2630957
10	0xbeab6323	-0.33474073
11	0x3e96dc1c	0.29464805
12	0xbea9753e	-0.3309726
13	0xbda90b7f	-0.08254146
14	0xbd3fb726	-0.046805523
15	0x3e5b9f00	0.21447372
16	0xbea651d3	-0.32484302
17	0xbe3b6464	-0.18300015
18	0x3e695124	0.22784859
19	0x3e6dcab0	0.2322185
20	0x37e7b5bf	2.7621978e-05
21	0xbb6f51e7	-0.0036517323
22	0x3d9e8197	0.07739561
23	0xbe03ba0d	-0.12863941
24	0x3e567610	0.20943475
25	0x3d0e3561	0.034718875
26	0x3d06c620	0.03290379
27	0xbe8cdce4	-0.27512276
28	0xbe20bbf1	-0.15696694
29	0xbb79b78e	-0.0038103792
30	0xbe11f89a	-0.1425499
31	0x3e110c7a	0.14164916
32	0xbe3d02d3	-0.18458109
33	0x3e0e24f5	0.13881285
34	0x3d13677a	0.035987355
35	0x3db8d96d	0.09025846
36	0xbdc3fac9	-0.09569318
37	0xbe79567a	-0.24349394
38	0x3eb2e05f	0.34936807
39	0xbd0a439a	-0.033755876
40	0x3e364aa0	0.17801905
41	0xbd13d330	-0.036090076
42	0xbde58782	-0.11207487
43	0xbea673e0	-0.3251028
44	0xbe50ebd8	-0.20402467
45	0x3df388ff	0.11891364
46	0x3e7d8570	0.24757934
47	0xbdcd2e11	-0.10018552
48	0x3dfc53dd	0.12320683
49	0x3de410c6	0.11136012
50	0x3e06e3e6	0.13172874
51	0x3dbf91bf	0.09353971
52	0x3f456d2d	0.77119714
53	0x3f6899b3	0.90859526
54	0xbef93981	-0.48676684
55	0xbea39380	-0.3194847
56	0x3e146405	0.1449128
57	0x3dc39965	0.09550742
58	0xbdb35972	-0.08757295
59	0xbecd6b9b	-0.4012116
60	0xbe126350	-0.14295697
61	0x3e0d542f	0.13801645
62	0xbeaf4ad4	-0.34236777
63	0xbe0d62d6	-0.13807234
64	0x3e194f8c	0.14971751
65	0xbe4d1e53	-0.20031099
66	0x3ead067a	0.33794004
67	0xbe795b48	-0.24351227
68	0x3cfa3232	0.030541513
69	0xbf1a8e14	-0.60373044
70	0xbed43172	-0.41443974
71	0x3f8f38c1	1.1189195
72	0xbe1eef3c	-0.15520948
73	0x3d7599ba	0.05996106
74	0x3e08c77c	0.13357347
75	0x3e1a048c	0.15040797
76	0x3d9a513f	0.07535028
77	0x3d441bb6	0.04787799
78	0xbdb72a8a	-0.089436606
79	0x3d0c2de1	0.03422344
80	0xbdff0c62	-0.12453534
81	0xbc29aeaf	-0.010356589
82	0x3b4f84fc	0.0031664958
83	0xbd143c24	-0.036190167
84	0x3d856cf6	0.06514923
85	0xbd389795	-0.045066435
86	0x3da4042c	0.08008608
87	0xbe120c9e	-0.14262626
88	0xbcab552a	-0.020914633
89	0xbd948dda	-0.072536185
90	0x3ec2db57	0.38057968
91	0xbdd312b5	-0.103063025
92	0xbd9cdff4	-0.07659903
93	0xbd6249db	-0.055246215
94	0x3e54743c	0.20747465
95	0xbd51b807	-0.051200893
96	0x3d8d2e77	0.06893628
97	0xbd50d6c7	-0.050986078
98	0xbbbd08b9	-0.005768862
99	0xbe29c858	-0.16580331
100	0xbdfa4a0e	-0.12221156
101	0x3ee7d570	0.45280027
102	0x3d63abba	0.055583693
103	0xbdb787df	-0.08961462
104	0x3da8296f	0.08211028
105	0xbe99b355	-0.30019632
106	0xbe09814f	-0.13428234
107	0x3eb87223	0.3602458
108	0xbd43b701	-0.047781948
109	0x3dbb2e67	0.0913971
110	0xbdc1de94	-0.094662815
111	0x3ca9a058	0.02070634
112	0x3d4dd048	0.05024746
113	0xbdd83575	-0.10557071
114	0xbc4a4721	-0.01234606
115	0xbde9cbfd	-0.11415861
116	0x3da6d1a7	0.08145457
117	0xbe7a3d16	-0.24437365
118	0xbd9c1afd	-0.07622335
119	0x3e786b05	0.24259575
120	0xbdf4784c	-0.11937007
121	0xbd1901be	-0.037355177
122	0x3e96ddc0	0.29466057
123	0xbe95467f	-0.29155347
124	0xbd8e98e8	-0.06962758
125	0x3d8016d6	0.062543556
126	0xbe17abcf	-0.14811634
127	0x3d8fdcdd	0.07024548
128	0x3e883ccc	0.26608884
129	0xbe1e5075	-0.1546038
130	0xbda91e64	-0.0825775
131	0xbdca3212	-0.098728314
132	0x3cccb055	0.024986425
133	0x3e306f73	0.17230015
134	0xbc97c764	-0.018527694
135	0xbea98e97	-0.331166
136	0xbd94ab60	-0.0725925
137	0x3cf14228	0.029450491
138	0xbe0ce92b	-0.13760822
139	0xbe088b2f	-0.13334344
140	0xbe8270da	-0.25476724
141	0x3ca4a0da	0.020096231
142	0xbce00016	-0.027343791
143	0xbe62b65c	-0.22139877
144	0x3ea929cf	0.3303971
145	0x3d381e92	0.04495103
146	0x3e6aaa3d	0.22916503
147	0x3d3444d9	0.04401097
148	0x3e8fc60c	0.28080785
149	0x3ec3d035	0.38244787
150	0xbe3c2b13	-0.18375807
151	0x3e7d5d7f	0.24742697
152	0x3e7c45d0	0.24636006
153	0xbeac98dd	-0.33710375
154	0xbe4af524	-0.19820076
155	0xbecdea53	-0.40217838
156	0xbc54977e	-0.012975572
157	0x3f038544	0.5137522
158	0xbe1330f2	-0.1437414
159	0xbcf0268e	-0.02931526
160	0x3f0e3496	0.5554899
161	0x3f24757e	0.6424178
162	0xbe7c7553	-0.2465413
163	0x3ea86154	0.32886755
164	0xbe61d3a6	-0.22053394
165	0x3dc9d95a	0.0985591
166	0xbdaefc4d	-0.08544216
167	0x3e885461	0.26626876
168	0x3d0093eb	0.031391066
169	0xbccf9c6f	-0.025343148
170	0xbe82d438	-0.25552535
171	0xbeaedbab	-0.34151968
172	0x3d27e378	0.040988415
173	0x3dfe96a2	0.12431075
174	0x3d0511c2	0.03248764
175	0x3e0590cf	0.13043521
176	0xbd199a45	-0.03750064
177	0x3dd50d97	0.10402983
178	0xbe48c5e1	-0.19606735
179	0x3df18cb5	0.11794416
180	0xbd081297	-0.033220854
181	0x3ea330fb	0.31873307
182	0xbe808bd2	-0.25106674
183	0x3cf07f39	0.02935754
184	0xbe8ff0ed	-0.281135
185	0x3c06d57b	0.008229609
186	0xbc8e9e2d	-0.017409408
187	0xbd996922	-0.074907556
188	0xbe6533c1	-0.22383024
189	0x3dc20942	0.09474422
190	0x3e68ebff	0.22746275
191	0x3c91074e	0.017703678
192	0x3e351820	0.17684984
193	0xbde9c5f1	-0.114147075
194	0xbdbfb299	-0.09360237
195	0xbd217557	-0.039418545
196	0x3e74439d	0.23853917
197	0x3d4b70ca	0.04966811
198	0x3e477d99	0.19481505
199	0x3e044ef0	0.12920737
200	0x3e596745	0.212308
201	0xbdb4f347	-0.08835464
202	0xbd17bdc6	-0.037046216
203	0x3dba0be9	0.09084303
204	0x3d6710c3	0.05641247
205	0x3d918dde	0.07107137
206	0xbe04bf0f	-0.12963508
207	0xbd7547f7	-0.059883084
208	0x3d203bef	0.039119657
209	0xbe6c1753	-0.23055772
210	0xbe234a6b	-0.15946357
211	0xbe4cc7e7	-0.19998132
212	0x3a004e23	0.0004894456
213	0x3f057750	0.5213518
214	0xbc4f94e0	-0.012669772
215	0xbed5a034	-0.41723788
216	0xbd9d304d	-0.07675228
217	0x3e51fa67	0.20505677
218	0xbe91e26a	-0.28493053
219	0x3db365b3	0.08759632
220	0xbe3f85ca	-0.1870338
221	0x3e81bd8e	0.2533993
222	0x3e15c662	0.14626458
223	0x3dda1025	0.106476106
224	0xbe38708d	-0.18011685
225	0x3dc39c3e	0.09551285
226	0x3d4cd89d	0.050011266
227	0xbe27c341	-0.16383077
228	0x3ebb0e62	0.3653441
229	0x3e8dad9d	0.2767152
230	0xbeb15fa9	-0.34643295
231	0x3ed157bc	0.4088725
232	0x3dc51506	0.096231505
233	0xbd63503a	-0.055496432
234	0xbecacf06	-0.3961107
235	0xbc3154e6	-0.010823464
236	0x3e6c300d	0.23065205
237	0xbece52d7	-0.40297577
238	0x3dbb4669	0.09144289
239	0xbe13124d	-0.1436245
240	0xbe622249	-0.22083391
241	0x3e35d29b	0.17756121
242	0x3e0c181a	0.13681069
243	0x3c93175f	0.01795548
244	0x3d5dba9b	0.05413304
245	0x3e8e31b1	0.27772287
246	0x3bce2176	0.00629061
247	0xbddce7d9	-0.10786409
248	0xbe5240ac	-0.20532483
249	0xbd9878b4	-0.07444897
250	0xbe8ecf9a	-0.27892762
251	0x3c133798	0.008985423
252	0xbe0f6260	-0.14002371
253	0x3e0d361c	0.13790172
254	0xbc4b2b58	-0.012400471
255	0xbd47111d	-0.048600305

linear1.bias f4 [64]
0	0xbd027235	-0.031847198
1	0xbe8ec653	-0.27885684
2	0xbcd728d5	-0.026264587
3	0x3eca4bff	0.39511105
4	0x3e24609a	0.16052476
5	0x3e917b18	0.28414226
6	0x3e65f2a1	0.22455837
7	0xbd40fc36	-0.047115527
8	0x3d0710ff	0.032975193
9	0x3e89b21e	0.26893705
10	0xbea71477	-0.326328
11	0x3de00e93	0.1094028
12	0x3eb501c6	0.35352916
13	0xbe094d84	-0.13408476
14	0x3e4bf4d0	0.19917607
15	0x3eb636a3	0.3558856
16	0x3e3118ab	0.17294566
17	0x3e9b8e6f	0.30382106
18	0xbddb70c7	-0.1071487
19	0x3e9f078d	0.31060448
20	0x3ea4786d	0.32123128
21	0x3e164494	0.14674598
22	0x3ca3fd03	0.020018106
23	0xbd4e4848	-0.0503619
24	0x3e2622c6	0.16224203
25	0xbe22370c	-0.15841311
26	0x3c2d32bc	0.010571178
27	0xbd4341b0	-0.047670066
28	0x3e38269d	0.1798348
29	0x3e17907c	0.1480121
30	0x3da1d744	0.07902387
31	0x3ee7933b	0.45229515
32	0xbe15bee4	-0.146236
33	0x3ecaf1ea	0.3963769
34	0xbd1adada	-0.03780637
35	0x3e0d042a	0.1377112
36	0xbe4cbe99	-0.19994582
37	0xbe206440	-0.15663242
38	0x3beea659	0.007283014
39	0x3e4993a2	0.19685224
40	0xbe1baf29	-0.15203537
41	0x3eb36fc8	0.3504622
42	0x3de96dcb	0.113978945
43	0x3e334012	0.1750491
44	0xbeaa85ff	-0.33305356
45	0x3e8bc384	0.27297604
46	0x3e310e75	0.17290671
47	0xbe1c1a30	-0.15244365
48	0x3e7381ab	0.23779933
49	0xbe4b0200	-0.19824982
50	0xbecd4e25	-0.40098682
51	0xbe40bf87	-0.18823062
52	0x3eaa0ff1	0.33215287
53	0x3e869991	0.26289037
54	0x3eb490d5	0.35266748
55	0xbe471f0e	-0.1944544
56	0xbe46081d	-0.19339032
57	0xbe227dd4	-0.15868312
58	0x3e50ac57	0.20378242
59	0x3e7f436a	0.2492806
60	0x3e93a2ee	0.28835243
61	0x3eb46339	0.3523195
62	0xbe97821a	-0.29591447
63	0xbd9924bf	-0.07477712

linear2.weight f4 [16, 64]
0	0xbd5a6f40	-0.053328753
1	0x3d272cd1	0.040814225
2	0xbdc43e59	-0.09582204
3	0x3d77cbee	0.060497217
4	0x3d7d4fa2	0.061843522
5	0xbdbb3b47	-0.09142166
6	0xbdf71faa	-0.12066586
7	0x3daa97bd	0.08329723
8	0xbda2d5a5	-0.07950906
9	0x3d98a779	0.07453818
10	0x3e6566bd	0.22402473
11	0xbc6440b4	-0.013931442
12	0xbe9b95e9	-0.3038781
13	0x3da4ebf1	0.08052815
14	0x3e013c66	0.12620696
15	0x3e2f877d	0.17141528
16	0xbd018be6	-0.03162756
17	0x3d112c72	0.035442777
18	0x3ea6393a	0.32465535
19	0xbe16830e	-0.14698431
20	0xbe2289f3	-0.15872936
21	0xbd8b491a	-0.068010524
22	0xbb66956a	-0.0035184273
23	0x3dc308f0	0.09523189
24	0xbddcf024	-0.10787991
25	0x3dd1b3c0	0.10239363
26	0xbe3ed099	-0.18634261
27	0x3e3b1fd2	0.18273857
28	0x3c8c4142	0.017120961
29	0xbc29e9d8	-0.010370694
30	0x3cd0a981	0.02547145
31	0x3daf77fb	0.08567806
32	0x3ddd4df1	0.10805882
33	0xbd3c4ca5	-0.04597153
34	0x3e51a194	0.20471793
35	0x3c6bed77	0.014399878
36	0x3d079358	0.033099502
37	0xbd907fcd	-0.07055626
38	0xbd31c14c	-0.043397233
39	0x3c05d6b8	0.008168869
40	0x3d98a05c	0.07452461
41	0xbe84c16b	-0.25928816
42	0x3d53d1de	0.051713817
43	0x3dc38885	0.095475234
44	0xbe2fef39	-0.171811
45	0x3deb371d	0.114851214
46	0x3d98debc	0.07464358
47	0x3e13a99e	0.14420173
48	0xbc6832fd	-0.014172313
49	0x3e27c091	0.16382052
50	0xbd7d279a	-0.061805345
51	0x3e48f45a	0.19624463
52	0x3e44f5d6	0.19234404
53	0x3e25d119	0.16193046
54	0xbdaff3c7	-0.08591419
55	0xbe34ba7a	-0.1764926
56	0x3da116fd	0.07865713
57	0x3c9dd3ad	0.019265974
58	0x3e5548bb	0.20828526
59	0x3daf080a	0.08546455
60	0xbe769b2a	-0.24082628
61	0x3dae478c	0.0850974
62	0xbe51b2bd	-0.2047834
63	0xbe25aa34	-0.16178209
64	0x3cbcab83	0.023031002
65	0xbe1e2785	-0.15444763
66	0xbc6247db	-0.013811077
67	0xbd67ef14	-0.056624487
68	0xbe28524a	-0.16437641
69	0x3beab683	0.0071628704
70	0xbcd0343f	-0.025415538
71	0xbcb0e417	-0.021593137
72	0x3e14dea3	0.14538054
73	0x3c9503d3	0.0181903
74	0x3db3c486	0.08777718
75	0xbb943c7d	-0.0045238123
76	0xbe4fe566	-0.20302352
77	0x3de23d3b	0.11046835
78	0xbe524acc	-0.20536345
79	0xbd3a73de	-0.045520656
80	0x3d9b605c	0.075867385
81	0x3d007e8f	0.031370696
82	0xbdf08d0e	-0.11745654
83	0xbd6dcc22	-0.058056004
84	0x3e274a69	0.16336979
85	0x3d419b45	0.047267217
86	0x3d817637	0.06321376
87	0xbd778af1	-0.06043524
88	0xbe3bb816	-0.18331942
89	0x3d2e0313	0.0424834
90	0xbe3a17cd	-0.18173142
91	0x3da640e2	0.08117844
92	0x3e04846a	0.12941137
93	0xbd8c799c	-0.06859133
94	0x3db5489c	0.0885174
95	0x3e43d539	0.19124307
96	0x3db70e53	0.08938279
97	0x3df30a3a	0.11867185
98	0x3d440f45	0.047866125
99	0x3e740569	0.23830189
100	0x3d93f535	0.07224504
101	0x3b9168db	0.0044375486
102	0x3d9b0d43	0.07570889
103	0xbdaaa0f4	-0.083314806
104	0xbc858209	-0.016297357
105	0x3dc02081	0.093812
106	0x3e01b8e0	0.1266818
107	0xbe45cad5	-0.19315656
108	0xbe05d228	-0.1306845
109	0x3d1ae1a4	0.037812844
110	0x3df8651d	0.12128661
111	0xbdb3b1d3	-0.08774152
112	0x3cc1947d	0.023630375
113	0xbcddc402	-0.027071003
114	0xbe20ef09	-0.15716185
115	0xbd8bd8da	-0.068284705
116	0xbc02a4a4	-0.007973824
117	0xbdb0d9bf	-0.08635282
118	0xbd1554ec	-0.03645794
119	0x3dbc00f9	0.09179873
120	0xbd683805	-0.05669405
121	0xbd7a23e5	-0.061069388
122	0xbbd85f9a	-0.0066031935
123	0x3d1e0357	0.038577404
124	0xbe610c69	-0.2197739
125	0xbc4d55f9	-0.0125327045
126	0x3e8b6c77	0.2723119
127	0xbd061f05	-0.032744426
128	0x3da7e27d	0.08197496
129	0x3eb20754	0.34771216
130	0x37c50a72	2.3489094e-05
131	0xbd66b60c	-0.056325957
132	0xbe86f25a	-0.26356775
133	0xbe36b2cd	-0.17841645
134	0xbd82bbfa	-0.0638351
135	0xbe334f99	-0.17510833
136	0xbdb13d09	-0.0865422
137	0xbdc9cdcb	-0.09853705
138	0xbe6bd96f	-0.23032163
139	0xbe1089d0	-0.14115071
140	0x3d7d6218	0.061861128
141	0xbd9df15f	-0.077120535
142	0x3db52deb	0.08846649
143	0xbe0f72b7	-0.14008604
144	0x3e22c98a	0.15897194
145	0xbde75467	-0.11295395
146	0x3d0f01bd	0.034913767
147	0x3e78507d	0.24249454
148	0x3dc164c8	0.094430506
149	0x3de02008	0.109436095
150	0xbe59c7cc	-0.21267623
151	0x3c8c05ee	0.017092671
152	0x3d7b9118	0.06141767
153	0xbcadf78b	-0.021236202
154	0xbdc65b82	-0.096854225
155	0x3d9f6bee	0.07784258
156	0x3e4ae1c6	0.19812688
157	0xbdad51f6	-0.084628984
158	0xbdeadaf8	-0.11467546
159	0x3d1870e4	0.037217036
160	0xbde79bc0	-0.11309004
161	0x3cd9eb8e	0.026601579
162	0x3d10f53b	0.03539012
163	0xbc7a25e0	-0.015267819
164	0x3c2ef534	0.010678578
165	0xbdfd035c	-0.123541564
166	0xbe2d1d39	-0.16905679
167	0xbcddbbf8	-0.02706717
168	0x3c912449	0.017717497
169	0xbe71eb93	-0.2362502
170	0xbd4b6977	-0.049661126
171	0x3af1799d	0.0018423084
172	0xbe0e9770	-0.13924956
173	0xbdc14441	-0.094368465
174	0xbe5b29a7	-0.21402608
175	0xbd64c48d	-0.055851508
176	0x3e13a6c3	0.14419083
177	0xbc3bef92	-0.011470692
178	0x3e262fc0	0.16229153
179	0x3d8e50a1	0.069489725
180	0x3e756284	0.23963362
181	0xbc2fbaf6	-0.010725727
182	0x3e5448d2	0.20730904
183	0x3db9a4fc	0.090646714
184	0x3e168526	0.1469923
185	0x3c84ec90	0.016226083
186	0x3e122edc	0.14275688
187	0xbb989f96	-0.004657696
188	0xbdcd8408	-0.100349486
189	0xbe59f717	-0.21285664
190	0xbe2acacf	-0.16678928
191	0x3caf1c3c	0.021375768
192	0x3d42dd37	0.04757425
193	0x3d9745f9	0.07386393
194	0xbd54a10f	-0.05191141
195	0x3e4205f3	0.18947582
196	0x3d2cc02b	0.042175453
197	0xbd27af28	-0.040938526
198	0x3ba84457	0.0051351
199	0xbd21fd1a	-0.039548017
200	0xbd240a06	-0.04004862
201	0xbe90a61a	-0.28251725
202	0xbe0074c8	-0.12544549
203	0x3d943ad8	0.07237786
204	0x3e4193d2	0.18904045
205	0xbdc1464b	-0.094372354
206	0xbc83d950	-0.016094834
207	0xbe5d80f8	-0.21631229
208	0xbb86dd47	-0.004115734
209	0xbd4498c1	-0.04799724
210	0x3db3c7f9	0.08778376
211	0xbccad3bb	-0.024759164
212	0xbb55a2b7	-0.0032598206
213	0xbc71d15c	-0.014759388
214	0xbd80116e	-0.062533244
215	0xbc760e5a	-0.01501807
216	0x3d41d4a2	0.047321923
217	0x3ce1de55	0.027571836
218	0xbce4cb34	-0.027928926
219	0xbcc88dd8	-0.024481699
220	0xbca7928e	-0.020455625
221	0xbc0b7718	-0.008512281
222	0xbc488034	-0.012237597
223	0x3e721738	0.2364167
224	0xbcf8b5e6	-0.030360173
225	0xbc832265	-0.016007612
226	0x3d7e8ed0	0.062147915
227	0x3dcee15f	0.1010158
228	0x3cf40879	0.029789196
229	0xbd9631da	-0.07333727
230	0xbdd0c191	-0.1019317
231	0x3d6008b9	0.05469582
232	0xbe80963b	-0.25114617
233	0x3ce0ecfe	0.027456757
234	0xbd1fc3bf	-0.039005037
235	0xbe67fc00	-0.22654724
236	0xbd83f296	-0.06442754
237	0xbbfdec9b	-0.007749153
238	0xbe33ca04	-0.17557532
239	0x3d812d80	0.063075066
240	0xbd56f5e9	-0.052480612
241	0xbd561b27	-0.05227199
242	0xbe20bafa	-0.15696326
243	0xbc889c62	-0.016676132
244	0x3dbf72f9	0.09348101
245	0x3e1c9599	0.15291442
246	0xbd2c13c3	-0.042011034
247	0xbe0642ee	-0.13111469
248	0xbc44e229	-0.012016811
249	0x3d01cf08	0.03169158
250	0xbdd233da	-0.10263796
251	0x3e01d4be	0.12678811
252	0x3e66cb4a	0.22538486
253	0xbdbfb1d0	-0.09360087
254	0xbd83eae5	-0.06441287
255	0xbe688487	-0.22706805

linear2.bias f4 [16]
0	0x3d1e78eb	0.038689535
1	0x3e9aae81	0.3021126
2	0xbe27d465	-0.16389616
3	0x3eaea28f	0.34108397
4	0xbea8886e	-0.32916588
5	0x3eb4039a	0.35158998
6	0xbe702a02	-0.23453525
7	0x3eac48c8	0.33649278
8	0xbed35a6e	-0.4127993
9	0xbe81652b	-0.25272498
10	0x3eb3720e	0.35047954
11	0x3eaa0201	0.33204654
12	0xbef06862	-0.46954638
13	0xbd047854	-0.032341316
14	0xbeef9581	-0.4679375
15	0xbed2459b	-0.4106873

linear3.weight f4 [110, 16]
0	0x3e270f0c	0.16314334
1	0x3e143b0a	0.14475647
2	0xbd9a1861	-0.07524181
3	0x3e58a94e	0.21158335
4	0xbe6c334d	-0.23066445
5	0x3e837f15	0.25682893
6	0xbe588fcb	-0.21148603
7	0x3e1a4275	0.15064414
8	0xbe480291	-0.19532229
9	0xbe28eb61	-0.1649604
10	0x3d7cda6a	0.061731733
11	0x3e2fb79d	0.17159887
12	0xbe281fb6	-0.16418347
13	0xbb205403	-0.0024464137
14	0xbe6e461d	-0.23268934
15	0xbe330571	-0.17482544
16	0x3d346afd	0.044047344
17	0x3e68f187	0.22748385
18	0xbe499272	-0.1968477
19	0x3e33ac3a	0.17546168
20	0xbe527b50	-0.20554852
21	0x3e1fe146	0.15613279
22	0xbd87a5d6	-0.066234276
23	0x3e70da6d	0.23520823
24	0xbe168405	-0.14698799
25	0xbe6de8df	-0.23233365
26	0x3e159402	0.14607242
27	0x3e41de13	0.18932371
28	0xbe4a2df8	-0.19744098
29	0xbb9d8000	-0.0048065186
30	0xbe97cdc3	-0.2964917
31	0xbe578b75	-0.21049292
32	0x3d4d076e	0.050055914
33	0x3e856b1d	0.26058283
34	0xbd7a8c42	-0.061168917
35	0x3eabc8ee	0.33551735
36	0xbe8bc530	-0.2729888
37	0x3df2cf44	0.11855939
38	0xbd92b4db	-0.07163402
39	0x3e406c45	0.18791302
40	0xbe35f097	-0.17767559
41	0xbc899d11	-0.016798528
42	0x3cdca50d	0.026934171
43	0x3e0751b3	0.1321476
44	0xbea60da5	-0.32432285
45	0xbd08fce5	-0.033444304
46	0xbe1c990d	-0.15292759
47	0xbd8df092	-0.06930651
48	0xbe02733b	-0.1273927
49	0x3e3cb830	0.18429637
50	0xbd766082	-0.06015063
51	0x3e892d6b	0.26792464
52	0xbe6beb99	-0.23039092
53	0x3db6d323	0.0892699
54	0xbdd28fea	-0.10281356
55	0x3df07091	0.1174022
56	0xbe2ee866	-0.1708084
57	0xbd9bff96	-0.076171085
58	0x3de934c6	0.11387019
59	0x3e2f76b2	0.17135122
60	0xbe9b004b	-0.3027366
61	0x3d934764	0.07191351
62	0xbe3ad22a	-0.18244234
63	0xbe323458	-0.1740278
64	0xbc7b41a5	-0.015335475
65	0x3e9e325a	0.3089779
66	0xbd8c176d	-0.068404056
67	0x3e6a2dba	0.22869006
68	0xbd688301	-0.05676556
69	0x3e8aeca4	0.27133667
70	0xbc558365	-0.013031815
71	0x3de8bed1	0.1136452
72	0xbe966daa	-0.29380542
73	0x3c9a46ae	0.01883253
74	0x3df5f5b2	0.12009753
75	0x3e4ee920	0.20206118
76	0xbe3cd8cc	-0.18442076
77	0xbe0e7203	-0.1391068
78	0xbb2e3630	-0.0026582591
79	0xbe68d5ee	-0.22737858
80	0xbd457b08	-0.048213035
81	0x3e1fdd59	0.15611781
82	0xbdeb00f4	-0.11474791
83	0x3e733b09	0.23752989
84	0xbe3cd03b	-0.18438809
85	0x3e1fb032	0.15594557
86	0x3d6fd307	0.05855086
87	0x3e61526e	0.220041
88	0xbde917eb	-0.11381515
89	0x3dc5b9d2	0.09654583
90	0x3e513bed	0.20433016
91	0x3e7ba81b	0.24575846
92	0xbe4eec78	-0.20207393
93	0x3d210b15	0.03931721
94	0xbe926985	-0.2859613
95	0xbe5428f2	-0.20718744
96	0xbd936715	-0.07197396
97	0x3e9fad3a	0.3118685
98	0xbdcb394e	-0.099230394
99	0x3e76fa21	0.24118854
100	0xbea5dd2d	-0.32395306
101	0x3d97ee70	0.07418525
102	0x3d30b218	0.043138593
103	0x3df4ffb5	0.11962835
104	0xbe3376d1	-0.17525794
105	0xbcb64fa5	-0.022254774
106	0x3e351906	0.17685327
107	0x3e90340b	0.28164706
108	0xbe1eabdb	-0.15495245
109	0x3c6c5c23	0.014426264
110	0xbe52945a	-0.20564404
111	0xbe0c250b	-0.13686006
112	0x3c1de704	0.009637598
113	0x3d87684b	0.06611689
114	0xbe79ed98	-0.24407041
115	0x3da3abee	0.07991777
116	0xbe5472c8	-0.2074691
117	0x3e88da9b	0.26729283
118	0xbd49eb9b	-0.049296957
119	0x3e81669d	0.252736
120	0xbe682fbe	-0.22674462
121	0x3d4e02cc	0.050295636
122	0x3d94485b	0.07240363
123	0x3e427a69	0.18992008
124	0xbe2f6d88	-0.17131627
125	0xbe362123	-0.17786078
126	0xbe38abe5	-0.18034323
127	0xbe5457ea	-0.20736662
128	0x3cd73908	0.026272312
129	0x3dc92047	0.098206095
130	0x3d8df5a2	0.06931616
131	0x3e98c54b	0.29838023
132	0xbe16de64	-0.14733273
133	0x3e5f6a17	0.21817814
134	0x3dde1d61	0.10845447
135	0x3e1e13d9	0.15437259
136	0xbe8ae59d	-0.27128306
137	0xbe654270	-0.22388625
138	0x3e355f4d	0.17712136
139	0x3d9adb86	0.07561402
140	0xbe1baf31	-0.15203549
141	0x3d813a19	0.063099094
142	0xbeb3809d	-0.35059062
143	0xbe2e3c18	-0.17015111
144	0x3e05fc5b	0.13084547
145	0x3e32ec2f	0.1747291
146	0xbd0d1058	-0.034439415
147	0x3e91db7a	0.2848776
148	0xbdb88db2	-0.09011401
149	0x3e4005cd	0.18752213
150	0xbddb9418	-0.10721606
151	0x3e14cba1	0.14530803
152	0xbe4b1082	-0.19830516
153	0xbe6180f6	-0.22021851
154	0x3cc55a35	0.024090866
155	0x3e138a5e	0.14408252
156	0xbe70bad5	-0.23508771
157	0xbcb5afcb	-0.022178551
158	0xbea84bc8	-0.32870317
159	0xbe1a9bae	-0.1509845
160	0xbdaf8c81	-0.08571721
161	0x3ec68d9a	0.38779908
162	0x3c86affb	0.016441336
163	0x3db6b1e3	0.08920648
164	0xbe963b26	-0.29342002
165	0x3e45cc6a	0.19316259
166	0xbd9788f7	-0.07399171
167	0x3e802cf9	0.2503431
168	0xbf169a10	-0.5882883
169	0x3ccc286a	0.024921615
170	0x3df3d993	0.11906733
171	0x3e03b090	0.12860322
172	0xbd1c79c4	-0.038202062
173	0x3d9a33a7	0.07529383
174	0xbc26ad35	-0.010173132
175	0xbd5d2faf	-0.054000553
176	0xbdc756ad	-0.09733329
177	0x3e49b31a	0.19697228
178	0xbc8412b6	-0.016122203
179	0x3e88e4d6	0.26737088
180	0xbe4f34c7	-0.20234977
181	0x3e63a724	0.22231728
182	0xbe261f31	-0.16222836
183	0x3e1545fa	0.14577475
184	0xbe2151b0	-0.15753818
185	0x3e5b84dd	0.21437402
186	0xbe2b7bd0	-0.1674645
187	0x3e8bd2dc	0.2730931
188	0xbe42ecff	-0.1903572
189	0x3e0bac9e	0.13640067
190	0xbe772e5a	-0.24138775
191	0xbe157cc8	-0.14598382
192	0xbdc8a406	-0.0979691
193	0x3eab2683	0.3342782
194	0xbda32de7	-0.079677396
195	0x3e7fdaed	0.24985857
196	0xbe6373ec	-0.2221219
197	0x3e234c5b	0.15947096
198	0x3d243a40	0.040094614
199	0x3ebb5eef	0.36595866
200	0xbed94dcf	-0.42442176
201	0xbdc1252f	-0.0943092
202	0xbb6a6204	-0.0035763988
203	0x3e5e1fe5	0.21691854
204	0x3d1b49a2	0.03791202
205	0x3c6376ef	0.013883336
206	0x3d4aea63	0.049539935
207	0xbe553dac	-0.20824307
208	0x3d0dfba3	0.034663808
209	0x3e4a2200	0.19739532
210	0xbcb9525e	-0.022622284
211	0x3e3b3dac	0.18285245
212	0xbe819706	-0.25310534
213	0x3e190b4b	0.14945714
214	0xbe4846c6	-0.19558248
215	0x3e1ce036	0.15319905
216	0xbe4947fe	-0.19656369
217	0x3d84746b	0.064675175
218	0x3e71d664	0.2361694
219	0x3dd62426	0.104561135
220	0xbe8192c7	-0.25307295
221	0x3cc32809	0.023822801
222	0xbe1c8774	-0.15286046
223	0xbe589e50	-0.21154141
224	0x3b958fe0	0.0045642704
225	0x3ec949be	0.39314073
226	0x3d9e15c4	0.07718995
227	0x3ea23211	0.31678823
228	0xbe6c38a9	-0.23068489
229	0x3c3d3a08	0.01154948
230	0x3da2d206	0.07950215
231	0x3e68f8cc	0.22751158
232	0xbe1b402c	-0.15161198
233	0x3e4aa9b5	0.197913
234	0x3e298596	0.16554865
235	0x3e16a2be	0.14710519
236	0x3c234b7b	0.009966726
237	0x3ea975df	0.3309774
238	0xbe6f8ca1	-0.2339349
239	0xbeb954d3	-0.36197528
240	0x3e5a956d	0.21346064
241	0x3e741f9d	0.23840185
242	0xbdba368b	-0.090924345
243	0x3dc1c8c2	0.0946212
244	0xbdf054ea	-0.11734946
245	0x3e8e48dd	0.27789965
246	0xbe6850af	-0.22687028
247	0x3e3d3941	0.18478872
248	0xbe03ec1f	-0.12883042
249	0xbe9bca9c	-0.30428016
250	0xbb6e736d	-0.0036384717
251	0x3e9e1ca3	0.30881223
252	0xbd94bccf	-0.07262575
253	0x3e666bb6	0.22502026
254	0xbe84b392	-0.2591825
255	0xbe6abfae	-0.22924682

linear3.bias f4 [110]
0	0x3eb3542b	0.35025153
1	0x3e53f4b4	0.20698816
2	0x3e925683	0.28581628
3	0x3e807696	0.25090474
4	0x3ea8b3c0	0.32949638
5	0x3e2c3144	0.16815668
6	0x3ed9a48b	0.4250835
7	0x3e9569e7	0.2918236
8	0x3ee15301	0.4400864
9	0x3e6db246	0.23212537
10	0x3ec03a15	0.37544313
11	0x3e46050b	0.19337861
12	0x3ec2c9a5	0.38044468
13	0x3e689977	0.22714792
14	0x3f05f4ff	0.5232696
15	0x3ebcfe50	0.36912775
16	0x3ef27f3b	0.47362694
17	0x3e655884	0.22397047
18	0x3ec8159e	0.39078993
19	0x3e86208e	0.26196712
20	0x3eba377d	0.3637046
21	0x3e455b41	0.19273092
22	0x3ed37dcb	0.4130691
23	0x3ea8a9df	0.329421
24	0x3e5a84b1	0.2133968
25	0x3ea39f03	0.31957254
26	0x3e335600	0.17513275
27	0x3f01a61a	0.50644076
28	0x3ec91018	0.3927009
29	0x3e9fb11c	0.3118981
30	0x3e765271	0.24054886
31	0x3ecb1898	0.396672
32	0x3e8c041c	0.27346885
33	0x3ea6999d	0.32539073
34	0x3ead664c	0.3386711
35	0x3e82c8c6	0.25543803
36	0x3e7f1954	0.24912006
37	0x3ec133fc	0.37734973
38	0x3eb39776	0.35076493
39	0x3ee12711	0.43975118
40	0x3ec8c4d2	0.39212662
41	0x3e69be65	0.22826536
42	0x3ed0f9b1	0.408155
43	0x3e90daf4	0.28292048
44	0x3ec580b0	0.38574743
45	0x3ef0b8cd	0.47015992
46	0x3ed15310	0.40883684
47	0x3eb97bf1	0.36227372
48	0x3eb74363	0.357936
49	0x3e8a1aa6	0.26973456
50	0x3ec371a2	0.38172632
51	0x3e809552	0.25113922
52	0x3ead197b	0.33808503
53	0x3e910b24	0.28328812
54	0x3e8b7cc0	0.27243614
55	0x3e8313aa	0.2560094
56	0x3ef2b4d4	0.47403586
57	0x3ec7c72d	0.39019147
58	0x3ee6da23	0.450883
59	0x3ed2de6c	0.4118532
60	0x3e72a9ba	0.23697558
61	0x3ef7253b	0.48270592
62	0x3e901b90	0.2814603
63	0x3ec1e9ea	0.37873775
64	0x3ea4ca3d	0.32185546
65	0x3ed7e49d	0.42166606
66	0x3e79c3c0	0.24391079
67	0x3edec41c	0.43508995
68	0x3ea4e69f	0.322072
69	0x3e96ca14	0.29451048
70	0x3ea207a7	0.31646463
71	0x3e998dde	0.2999105
72	0x3ead2224	0.3381511
73	0x3eac783e	0.33685488
74	0x3e6815dc	0.22664589
75	0x3eb7dadc	0.35909164
76	0x3ef465ed	0.47734013
77	0x3e5256cb	0.20540921
78	0x3ee35f84	0.4440881
79	0x3e840037	0.25781414
80	0x3ed782f2	0.4209209
81	0x3e11f83d	0.14254852
82	0x3f014152	0.50490296
83	0x3e8aa43b	0.27078423
84	0x3ee66293	0.4499708
85	0x3e38b9ee	0.18039677
86	0x3eaeb44d	0.34121934
87	0x3ebdcec9	0.37071827
88	0x3eb81535	0.3595368
89	0x3e920f7e	0.28527445
90	0x3f08c593	0.53426474
91	0x3ee8b1dc	0.45448196
92	0x3ed36b57	0.4129283
93	0x3ecbeff7	0.39831516
94	0x3eead374	0.4586445
95	0x3f019969	0.5062471
96	0x3e8938f9	0.2680128
97	0x3f0e33c2	0.55547726
98	0x3ed3f4ca	0.41397697
99	0x3f078758	0.52940893
100	0x3e809d08	0.25119805
101	0x3ef8557f	0.48502728
102	0x3eb09f91	0.3449674
103	0x3e7c9939	0.24667825
104	0x3ec2b971	0.38032106
105	0x3e5928a1	0.21206905
106	0x3eaf512f	0.34241626
107	0x3de69d13	0.11260428
108	0x3e7c62da	0.24647084
109	0x3eda714e	0.4266457
