policy_net_move_select3.pth (torch, 185999 bytes, 18 tensors)

conv1.weight f4 [16, 1, 3, 3]
-0.0089447545 -5.103981 -5.2993827 -0.32147434 -0.07302322 -0.15876555 -3.3155935 -0.088298626
-0.082806274 -1.4970518 0.20178927 0.046989374 -4.4538517 -0.021114608 -0.05296562 1.1574739
-0.11994781 0.2290514 -0.26953873 -0.14350563 -0.07882714 -0.1853407 0.08166288 -0.17153278
-8.875028 -0.38461155 -10.549701 -10.896331 -0.88101107 -0.3187451 -0.67569447 -0.7193332
-0.5167835 -0.011294789 -0.55746067 -0.37427956 -1.6535738 -1.4467611 -1.6411511 -0.032153666
0.054158643 -0.005832385 -1.1064634 0.041214585 -1.6859969 -0.8500007 0.111321494 -0.35533985
-0.41088006 0.14359173 -0.3916878 -3.9179375 -3.6685245 -0.8357552 0.3443044 -0.0010592743
-0.22830382 0.7291842 -0.25318918 -0.24630319 -8.697183 0.11820263 0.12505914 -0.119845696
-0.20029438 -12.464083 -0.21804672 -0.32758805 -3.1776533 -0.090037495 -0.12806298 0.4188118
0.9836914 1.132941 -1.2015074 -0.86111844 0.36145216 -0.42195755 -0.7015929 -0.6819798
-2.7752159 0.29147166 -0.057603296 -0.12943329 0.2105685 -0.37095556 -0.05098159 0.40161303
0.061360028 -8.967014 -0.5226001 -0.15522969 0.49631408 -1.796713 -0.13765462 0.40249905
0.04997521 0.039382096 -7.047246 0.026089134 -4.4407473 0.094349004 -0.10842145 -0.3404769
0.06477428 -0.0026535348 -2.8202534 0.2384658 0.47767594 -0.33416033 0.056402955 0.079399124
-0.016330168 0.19405061 0.5751043 -0.00854319 0.80161697 -1.3647016 -1.7231679 1.6211476
0.35940763 0.6571304 -0.08441733 -0.22597085 -0.9275275 0.546971 -1.240558 -1.4084978
-1.1809099 -0.02574437 0.120054156 -0.05901668 -0.52802014 -0.63468546 -0.5523167 -0.14243707
0.2876656 -0.17330529 -7.771993 0.21792091 0.1303641 -0.42977077 0.46350542 0.054329917
00000000: 058d 12bc d053 a3c0 8b94 a9c0 4998 a4be
00000010: 338d 95bd 7093 22be af32 54c0 e9d5 b4bd
00000020: 5696 a9bd 659f bfbf d9a1 4e3e ee77 403d
00000030: f485 8ec0 8bf8 acbc 7af2 58bd 1b28 943f
00000040: 33a7 f5bd 738c 6a3e fb00 8abe 24f3 12be
00000050: 2070 a1bd f4c9 3dbe de3e a73d 4aa6 2fbe
00000060: 1d00 0ec1 ceeb c4be 93cb 28c1 5f57 2ec1
00000070: f189 61bf 8f32 a3be 50fa 2cbf 3826 38bf
00000080: ec4b 04bf c70d 39bc beb5 0ebf 92a1 bfbe
00000090: 4ea8 d3bf 782f b9bf 3d11 d2bf 90b3 03bd
000000a0: 74d5 5d3d 971d bfbb 98a0 8dbf a0d0 283d
000000b0: bfce d7bf a599 59bf 86fc e33d 1bef b5be
000000c0: df5e d2be b609 133e 4e8b c8be 7dbf 7ac0
000000d0: 1bc9 6ac0 0ef4 55bf ab48 b03e 59d7 8aba
000000e0: 7ac8 69be d1ab 3a3f 03a2 81be e736 7cbe
000000f0: a927 0bc1 3814 f23d 810f 003e a971 f5bd
00000100: f819 4dbe e26c 47c1 a447 5fbe 9fb9 a7be
00000110: ac5e 4bc0 9465 b8bd f122 03be 806e d63e
00000120: 33d3 7b3f 3604 913f ffca 99bf 4272 5cbf
00000130: 4210 b93e d20a d8be 989b 33bf 3a96 2ebf
00000140: 239d 31c0 c63b 953e 6ff1 6bbd 298a 04be
00000150: 459f 573e e3ed bdbe 12d2 50bd 39a0 cd3e
00000160: a754 7b3d e478 0fc1 1fc9 05bf 88f4 1ebe
00000170: e11c fe3e b1fa e5bf 55f5 0cbe 5b14 ce3e
00000180: ceb2 4c3d 1f4f 213d 0a83 e1c0 e1b8 d53c
00000190: 9a1a 8ec0 0d3a c13d 110c debd fd52 aebe
000001a0: 61a8 843d ede6 2dbb 087f 34c0 6130 743e
000001b0: f191 f43e 1017 abbe c906 673d 029c a23d
000001c0: d8c6 85bc 34b5 463e 093a 133f bcf8 0bbc
000001d0: c536 4d3f 8bae aebf c490 dcbf c481 cf3f
000001e0: 4704 b83e b339 283f fee2 acbd e764 67be
000001f0: 7172 6dbf 4b06 0c3f 9bca 9ebf a849 b4bf
00000200: 0e28 97bf dbe5 d2bc f4de f53d 79bb 71bd
00000210: 542c 07bf bf7a 22bf a164 0dbf 06db 11be
00000220: e848 933e f176 31be 2bb4 f8c0 a926 5f3e
00000230: 2b7e 053e ea0a dcbe 9550 ed3e 0c89 5e3d

conv1.bias f4 [16]
-1.4200057 1.2995766 -0.16650677 -0.17923737 -0.4698735 -0.09568532 1.2844168 -0.40607795
0.6273812 -1.3479818 1.0336505 0.5139048 -0.09397391 0.34507817 -2.7311847 0.04727816
00000000: bfc2 b5bf 8758 a63f c080 2abe 008a 37be
00000010: 4293 f0be aaf6 c3bd c567 a43f 73e9 cfbe
00000020: 0e9c 203f ab8a acbf a94e 843f 448f 033f
00000030: 6575 c0bd 16ae b03e bbcb 2ec0 bea6 413d

bn1.weight f4 [16]
1.9009042 0.75693786 1.9077467 1.8209429 2.7849123 1.3734144 1.5782416 1.4467123
0.33788466 0.8694454 1.7348976 1.2937151 -0.0219872 0.01531968 1.4756141 0.9579378
00000000: d450 f33f aec6 413f 0b31 f43f a814 e93f
00000010: 013c 3240 0bcc af3f d203 ca3f de2d b93f
00000020: 38ff ac3e f993 5e3f 2011 de3f 7598 a53f
00000030: 801e b4bc 65ff 7a3c ece0 bc3f 693b 753f

bn1.bias f4 [16]
-1.3582069 -0.36687028 -0.78156984 -0.88139206 -2.2611454 -0.95282906 -0.60434437 -0.721533
-0.15488721 -0.09367355 -1.0174971 -0.65491307 -0.07991824 -0.11839103 -1.1483474 -0.24539973
00000000: b9d9 adbf 6cd6 bbbe f614 48bf e9a2 61bf
00000010: 9bb6 10c0 9bec 73bf 50b6 1abf 63b6 38bf
00000020: c19a 1ebe ebd7 bfbd 583d 82bf 62a8 27bf
00000030: 2dac a3bd ff76 f2bd 0cfd 92bf 114a 7bbe

bn1.running_mean f4 [16]
-28.764715 -5.6120524 -30.785686 -27.419403 -14.134204 -15.077044 -9.426164 -34.02692
-5.5802937 -15.4358835 -12.448317 -12.597639 2.6992068 -1.5814891 -12.927404 -10.084759
00000000: 231e e6c1 ef95 b3c0 1649 f6c1 f05a dbc1
00000010: b325 62c1 923b 71c1 91d1 16c1 911b 08c2
00000020: c491 b2c0 61f9 76c1 4e2c 47c1 ee8f 49c1
00000030: cebf 2c40 3c6e cabf a6d6 4ec1 2c5b 21c1

bn1.running_var f4 [16]
445.54495 93.91189 945.94806 679.8049 92.97715 203.37521 268.43237 900.1311
60.362354 345.67755 226.16977 170.23566 7.2731028 32.724213 52.7606 229.36864
00000000: c1c5 de43 e3d2 bb42 ad7c 6c44 83f3 2944
00000010: 4df4 b942 0e60 4b43 5837 8643 6408 6144
00000020: 0d73 7142 bad6 ac43 762b 6243 543c 2a43
00000030: 42bd e840 98e5 0242 db0a 5342 5f5e 6543

conv2.weight f4 [32, 16, 3, 3]
-0.39698648 -1.4597857 1.5492846 0.7632798 0.0025773565 -0.18183741 0.25842252 0.0028387052
-0.37877893 0.9025225 0.9573263 0.48561624 -0.6104883 -0.3202609 -0.055094045 -0.20012161
-0.25998235 -0.3146125 -0.8015293 -0.031635214 -0.14360017 -0.16792825 -0.043748327 0.5886997
0.1566603 0.2027545 0.60929346 2.0999966 1.2370203 -2.577261 -0.3893863 -0.40712294
0.58884645 0.46316785 -0.7542442 -0.51336896 0.09071547 0.1819812 0.116504535 0.3617804
-0.10422858 -0.49605313 -0.4272444 0.5895333 -0.43012694 0.6741398 0.47219357 1.0080866
-1.8242464 -1.8336442 -0.405154 1.566138 -0.2698444 -0.44700766 -0.3587039 -0.036908697
0.76686996 0.25377053 -0.40170562 -0.7298778 0.017853972 0.6820892 0.6193567 -1.3394958
1.5181539 2.101712 0.55100983 0.23922907 0.6832882 -1.2142079 -0.26181853 -0.35558474
0.5316934 0.24776225 0.257857 0.42505902 1.0381627 0.69142735 -0.123770855 -0.76232684
-0.34736618 -0.99550235 -0.050297484 -0.619618 0.48225343 -0.7279432 0.043667328 0.91394186
-0.12079249 -0.19610165 0.81177855 -0.9459474 0.9901445 -0.14470017 0.8630923 -0.3159925
-0.0068667294 -0.6181261 0.49427703 1.3268173 1.6231467 0.33312675 -0.39902806 0.38362235
-0.5815852 -0.47685006 -0.07460952 0.5049187 -0.765137 0.28128418 -0.12896334 0.61452705
-0.04159296 -0.027867952 0.9140202 -0.61681867 0.09692828 0.8845799 0.7344081 0.6366652
-0.39945444 0.9297567 -1.6614982 -0.26636946 -0.7787242 0.37077236 -0.8378557 0.12176996
-1.3079283 -0.019741457 0.5994538 0.17309324 -0.16050774 0.4881612 -0.113331154 -0.008700196
-0.6710322 0.37868938 0.38673043 -0.3094419 0.30826235 -0.18606563 0.8853791 -1.2532793
0.44934496 1.2108636 0.65892637 0.17038397 -1.1926126 0.51314205 -0.1632822 0.41305447
-0.33147427 1.0784749 -0.2274562 -0.91799396 0.28522122 -0.18193512 -1.8593653 0.0921324
-0.3687819 -0.3485958 -0.3650631 0.07535152 -0.027057795 -0.024561228 -0.34072945 -0.2441143
0.59924084 0.2620685 -0.15653414 -0.42784598 -0.20306996 0.21884912 0.42111287 0.3604871
-0.4011971 -0.35833666 -0.18915169 -0.03297156 -5.7614193 1.9811918 1.8455482 1.970256
-0.5060021 0.78151155 -0.377067 -0.56444323 -0.69990516 0.7342231 0.84495825 -0.58079904
0.8066063 -0.9272235 0.75654167 0.2883961 -0.5605447 -0.23599179 0.24385437 0.044865977
-0.074925 -0.127488 0.1980639 -0.13215622 -0.0013349064 -0.20145349 -0.26541153 0.097369485
0.055246774 0.32245082 -0.07509763 0.0011542088 0.094158456 -0.105689 -0.20872732 0.009960392
-0.25395173 0.20118468 0.013520998 0.10817814 -0.043723267 0.042772163 -0.24391401 -0.076211974
0.15336058 -0.092329435 0.24647495 0.029255765 0.04772345 0.047477167 -0.098691754 0.03292792
0.13175817 0.06069503 -0.12486943 -0.019476015 0.0025717125 0.08497385 -0.05387912 -0.039387863
-0.16650331 -0.21487883 -0.4477773 0.43593034 -0.26238275 -0.029277707 0.10623156 -0.15680166
-0.11581436 0.38771105 -0.17721596 0.04593413 -0.28928512 0.04032766 -0.13197538 -0.49107492
00000000: d041 cbbe 42da babf f54e c63f 4e66 433f
00000010: dee8 283b 9633 3abe f54f 843e 9209 3a3b
00000020: 50ef c1be b70b 673f 5613 753f b1a2 f83e
00000030: f648 1cbf 3df9 a3be 4baa 61bd aeec 4cbe
00000040: 681c 85be e414 a1be 0631 4dbf ed93 01bd
00000050: ec0b 13be 62f5 2bbe 7231 33bd 06b5 163f
00000060: 8f6b 203e e09e 4f3e a8fa 1b3f 5866 0640
00000070: ae56 9e3f d8f1 24c0 a45d c7be 6b72 d0be
00000080: a4be 163f 5624 ed3e 2616 41bf 266c 03bf
00000090: 08c9 b93d 4859 3a3e ee99 ee3d 483b b93e
000000a0: cb75 d5bd adfa fdbe c7bf dabe a8eb 163f
000000b0: 9939 dcbe 6d94 2c3f 5bc3 f13e fb08 813f
000000c0: e880 e9bf dab4 eabf 5870 cfbe 3677 c83f
000000d0: 0c29 8abe 30de e4be 0aa8 b7be 932d 17bd
000000e0: 9751 443f 36ee 813e 5cac cdbe 46d9 3abf
000000f0: 7e42 923c 669d 2e3f 298e 1e3f 9974 abbf
00000100: de52 c23f 7382 0640 fb0e 0d3f 77f8 743e
00000110: faeb 2e3f 2a6b 9bbf 140d 86be 340f b6be
00000120: 0f1d 083f 63b5 7d3e d505 843e 56a1 d93e
00000130: 84e2 843f 6201 313f 937b fdbd da27 43bf
00000140: fbd9 b1be 3ed9 7ebf bc04 4ebd 499f 1ebf
00000150: ece9 f63e 7c5a 3abf 83dc 323d 18f8 693f
00000160: 0e62 f7bd dfce 48be b8d0 4f3f 9c29 72bf
00000170: 1c7a 7d3f 482c 14be 9ef3 5c3f c5c9 a1be
00000180: 4d02 e1bb 833d 1ebf e111 fd3e 26d5 a93f
00000190: 45c3 cf3f 978f aa3e 684d ccbe 266a c43e
000001a0: c5e2 14bf b125 f4be e0cc 98bd 5a42 013f
000001b0: 05e0 43bf 7b04 903e f70e 04be a551 1d3f
000001c0: 615d 2abd 554b e4bc 3afd 693f d4e7 1dbf
000001d0: 5682 c63d d473 623f 2b02 3c3f 7efc 223f
000001e0: 4b85 ccbe 8904 6e3f f9ab d4bf 9461 88be
000001f0: 785a 47bf e0d5 bd3e b67d 56bf 8762 f93d
00000200: 326a a7bf d6b8 a1bc ce75 193f 5b3f 313e
00000210: 245c 24be 44f0 f93e 2a1a e8bd 448b 0ebc
00000220: c4c8 2bbf 93e3 c13e 8801 c63e 2b6f 9ebe
00000230: 90d4 9d3e fd87 3ebe 34a8 623f 756b a0bf
00000240: 8b10 e63e 94fd 9a3f 66af 283f 2379 2e3e
00000250: 88a7 98bf 475d 033f 7333 27be e07b d33e
00000260: ffb6 a9be 770b 8a3f 47ea 68be a701 6bbf
00000270: 8408 923e 334d 3abe afff edbf e9af bc3d
00000280: fbd0 bcbe 267b b2be 8de9 babe e651 9a3d
00000290: 4fa8 ddbc a134 c9bc 1774 aebe 19f9 79be
000002a0: d967 193f d82d 863e 7c4a 20be a10e dbbe
000002b0: 92f1 4fbe fc19 603e 1b9c d73e c491 b83e
000002c0: b569 cdbe e777 b7be fbb0 41be 300d 07bd
000002d0: 8c5d b8c0 b197 fd3f ec3a ec3f 5931 fc3f
000002e0: 5b89 01bf 2411 483f ed0e c1be 5a7f 10bf
000002f0: fc2c 33bf 0cf6 3b3f 2f4f 583f 3faf 14bf
00000300: c07d 4e3f 855e 6dbf b7ac 413f a7a8 933e
00000310: dc7f 0fbf d5a7 71be f6b4 793e 63c5 373d
00000320: 4772 99bd 378c 02be 43d1 4a3e f653 07be
00000330: 07f8 aeba d349 4ebe 05e4 87be a769 c73d
00000340: 714a 623d 4618 a53e c9cc 99bd d248 973a
00000350: 26d6 c03d 7973 d8bd 9dbc 55be e930 233c
00000360: f605 82be 5b03 4e3e 2d87 5d3c 808c dd3d
00000370: 2b17 33bd dd31 2f3d 98c4 79be 0615 9cbd
00000380: 8e0a 1d3e 3717 bdbd ee63 7c3e c9a9 ef3c
00000390: aa79 433d 6b77 423d e71e cabd 6ddf 063d
000003a0: 9deb 063e 5a9b 783d 8bbb ffbd 2a8c 9fbc
000003b0: 2d8a 283b c506 ae3d 5ab0 5cbd 2b55 21bd
000003c0: d87f 2abe 3209 5cbe 1143 e5be 4332 df3e
000003d0: 0857 86be cdd7 efbc ef8f d93d 9d90 20be
000003e0: 1430 edbd 1082 c63e 1a78 35be 6d25 3c3d
000003f0: 2e1d 94be 9e2e 253d 8e24 07be 2c6e fbbe

conv2.bias f4 [32]
-0.32354867 -2.6794631 -4.4165864 -1.0117478 0.67466074 -0.23366928 0.55072975 0.02195602
0.33197248 0.8697161 -0.2807415 2.575038 -1.094616 -0.9555177 2.4237995 0.5787756
2.1777122 0.25733763 -2.0998814 0.786723 -0.9707025 -3.4153488 0.051322617 -0.8179213
1.087433 2.1516573 -0.32896882 1.5078555 3.1109736 0.36835754 1.1276067 1.5269442
00000000: 2ca8 a5be 537c 2bc0 ad54 8dc0 f480 81bf
00000010: 91b6 2c3f 0047 6fbe a0fc 0c3f 1cdd b33c
00000020: 4cf8 a93e b7a5 5e3f 5abd 8fbe 6ccd 2440
00000030: 611c 8cbf cf9c 74bf 881f 1b40 a32a 143f
00000040: a35f 0b40 c2c1 833e 7564 06c0 ae66 493f
00000050: f67f 78bf 1395 5ac0 aa37 523d 4a63 51bf
00000060: 0131 8b3f c1b4 0940 9a6e a8be 6901 c13f
00000070: 311a 4740 5c99 bc3e 6b55 903f e872 c33f

bn2.weight f4 [32]
0.16586761 0.018904706 0.08855861 0.16262399 0.09301046 0.06979266 0.052637715 0.02279755
0.11096309 0.29409274 0.36531577 0.104681656 0.10307342 0.087892696 0.08039194 0.11781226
0.09825535 0.56511414 0.061706737 0.020009845 0.14556956 0.07115844 0.6969632 0.25670332
0.12933081 0.12350015 0.09588572 0.11772613 0.105142504 0.69007796 0.09100631 0.06616479
00000000: 33d9 293e 0bde 9a3c 375e b53d e786 263e
00000010: 457c be3d 74ef 8e3d a59a 573d edc1 ba3c
00000020: 9e40 e33d 5393 963e ab0a bb3e 5663 d63d
00000030: 2818 d33d 1601 b43d 88a4 a43d 8e47 f13d
00000040: 1a3a c93d 52ab 103f 34c0 7c3d b0eb a33c
00000050: 3010 153e 84bb 913d 2e6c 323f 9e6e 833e
00000060: 4c6f 043e a6ed fc3d bb5f c43d 661a f13d
00000070: f454 d73d f3a8 303f 8461 ba3d 6881 873d

bn2.bias f4 [32]
-0.42236245 -0.13390328 -0.025138631 -0.09626495 -0.10126672 -0.050322704 -0.0025059285 -0.19412553
-0.11241504 -0.34067938 -0.35971376 -0.19573648 -0.13485107 -0.033893038 -0.11748934 -0.098156296
-0.06763384 -0.53474706 -0.038707476 -0.088599496 -0.10552062 -0.038494695 -0.882102 -0.47800028
-0.031717904 -0.29197088 -0.08047961 0.060459077 -0.06410919 -0.08021861 -0.099204205 -0.079691134
00000000: e43f d8be f11d 09be 88ef cdbc 8f26 c5bd
00000010: ed64 cfbd 2e1f 4ebd 813a 24bb d8c8 46be
00000020: db39 e6bd 876d aebe 672c b8be 256f 48be
00000030: 6616 0abe 6dd3 0abd 409e f0bd 2b06 c9bd
00000040: 9c83 8abd 2fe5 08bf bb8b 1ebd a773 b5bd
00000050: 321b d8bd 9dac 1dbd 70d1 61bf 74bc f4be
00000060: a2ea 01bd 357d 95be 7ed2 a4bd f0a3 773d
00000070: ae4b 83bd a849 a4bd 932b cbbd 1b35 a3bd

bn2.running_mean f4 [32]
0.004410993 -3.673644 -3.0315177 -3.0928648 -0.6721482 4.193762 -3.1705337 1.589731
5.9618783 5.079351 6.587698 2.2178428 3.0077279 -1.5722502 -0.28395295 -2.0470796
1.8011692 10.250002 3.3379064 3.1892564 7.4504976 -4.497365 -1.3390597 -4.1959815
6.805602 2.5806496 6.760335 -7.5634227 4.513138 7.7814054 0.6496269 1.6689118
00000000: 178a 903b fc1c 6bc0 6304 42c0 7ff1 45c0
00000010: e811 2cbf 4c33 8640 06ea 4ac0 4e7c cb3f
00000020: b5c7 be40 0b8a a240 6cce d240 23f1 0d40
00000030: 9d7e 4040 7f3f c9bf 4862 91be 5a03 03c0
00000040: b68c e63f 0200 2441 42a0 5540 c71c 4c40
00000050: 7a6a ee40 6aea 8fc0 4f66 abbf 7b45 86c0
00000060: 7ec7 d940 5d29 2540 aa54 d840 8f07 f2c0
00000070: a06b 9040 4601 f940 f34d 263f e79e d53f

bn2.running_var f4 [32]
2.6347582 9.445147 7.3963504 9.003228 3.2903855 15.547468 20.090446 10.019348
19.316336 42.275967 29.132818 5.596117 12.493983 14.930303 9.83893 15.941007
10.867035 52.596363 15.0571575 14.37374 39.475857 8.370662 12.464927 15.692107
25.314741 4.2734857 14.606114 78.155785 20.751272 47.301483 14.824511 9.705328
00000000: e19f 2840 521f 1741 e7ae ec40 390d 1041
00000010: ad95 5240 6ec2 7841 3cb9 a041 404f 2041
00000020: db87 9a41 971a 2942 0310 e941 6413 b340
00000030: 5be7 4741 85e2 6e41 426c 1d41 5d0e 7f41
00000040: 60df 2d41 ad62 5242 1eea 7041 d7fa 6541
00000050: 47e7 1d42 3bee 0541 5770 4741 df12 7b41
00000060: 9784 ca41 65c0 8840 a5b2 6941 c34f 9c42
00000070: 9b02 a641 b834 3d42 3231 6d41 0649 1b41

linear1.weight f4 [64, 576]
-0.53948 -0.71512175 -0.7666427 0.51794034 -0.45070642 0.08697752 0.9378617 0.07136401
-0.71373636 -0.6700419 -0.10435774 0.81139976 -0.33992273 -0.05117062 0.10441836 0.56913996
0.2842611 -0.24193455 1.8598727 0.8414105 0.8843727 -0.5245198 0.9554512 -1.4644947
0.16864066 -1.7934653 -0.9521249 0.3454285 0.56618977 -0.04345872 0.1905069 -0.15289894
0.13336878 0.31902927 0.2546138 0.28474048 -1.9846557 -1.1476403 -4.047523 -4.184008
-4.4024076 -3.226589 0.0018940278 0.4273698 1.067763 -0.38763148 0.21851364 -0.64826524
0.9286214 1.2616103 0.18403465 0.95417285 -0.0027414472 -0.090827905 -2.9319787 -1.30653
0.47447476 2.3816507 1.2326193 -0.7363572 0.55064476 -0.25563496 -2.745699 0.8273029
1.4731404 -0.5977354 -1.4740434 1.1148429 -0.07107846 -0.2694993 -0.035315525 -0.47829044
0.41254216 -0.042135395 0.79786 -0.026043676 -1.1062422 -3.7812448 -0.88462734 0.13445857
-0.3457432 1.9757547 -0.49592078 -0.55616575 0.21791524 0.3623034 -0.37337312 0.34171492
-0.036980215 0.118792206 0.041419685 -1.7819971 -1.0201869 -0.706286 0.002977054 -0.011661771
-0.6040434 0.067814894 -0.1172506 -1.2074513 0.2988836 -0.45968547 0.2578878 -0.28990105
-0.5424912 -0.37457538 0.08063689 0.46317452 1.0460869 0.4762203 0.1361433 -0.32805136
-0.017470842 1.2068176 -0.24012053 -0.79701984 -1.1716894 0.9573784 -0.09193614 -0.41163564
-0.039023962 0.12030702 -0.81656134 -1.0757416 -0.60585403 -1.0743314 -0.15209812 -0.8982967
-0.12875716 -1.0574036 1.1436039 -0.7858575 -0.21290435 -0.4233577 0.16893137 -0.08171161
-0.16132055 0.15069318 -0.15104748 -0.82826227 0.28045473 -0.07093783 0.016686419 0.017638626
-0.8888919 -0.77441484 0.41179883 -1.0053802 -2.9028418 0.28878155 0.6931473 1.2760472
0.57270646 0.7684354 0.5567633 -0.12114612 0.36738712 -0.251071 0.26357266 -1.3055028
0.19091073 -0.11456632 -0.1473277 -0.7273646 1.2559284 0.18470043 0.47284034 -0.4903448
0.70713454 0.45355704 -0.31742197 -0.37584743 -0.77571 0.7987477 0.084861 0.8106352
0.24288626 0.29571232 1.6960778 1.4411558 -1.4307697 0.1781174 0.6111866 0.5734561
-1.3950653 1.8664261 -0.34261143 -0.850791 1.3202754 0.3822161 -0.083612666 -0.91153765
-0.83978045 0.141626 0.2130071 0.48171258 -0.11483344 0.11353965 -1.1705875 -4.390703
-5.4002614 -3.005427 -2.6741667 -3.0017285 -2.4797733 -1.2844145 -0.22368453 0.27884045
-0.005782356 -0.25229764 0.36222178 1.2356696 -0.5110557 -0.3068256 -0.23222366 -0.44304058
0.9489195 0.68137115 1.4574835 -0.6481957 0.108539045 -0.07467586 -0.19747892 -1.1736786
0.05643404 -1.2379661 -0.028686564 1.350515 -0.8908806 -0.2792376 0.35623765 0.5714463
-0.50753593 -0.017226111 -0.26950496 0.2631004 0.23655747 -0.42870936 0.2954171 0.4519128
0.23667988 -0.13166292 0.2755669 0.66091806 0.36910322 0.03529414 0.1384772 -0.56933707
-0.76802176 0.37368464 -0.25663164 0.064502135 1.3181419 0.47629315 -0.7793159 -1.8158016
00000000: 5c1b 0abf 3812 37bf b242 44bf bd97 043f
00000010: fec2 e6be 4521 b23d b417 703f 4b27 923d
00000020: 6db7 36bf de87 2bbf 83b9 d5bd e5b7 4f3f
00000030: 5a0a aebe 4998 51bd 4bd9 d53d 28b3 113f
00000040: ac8a 913e b1bd 77be 4f10 ee3f ae66 573f
00000050: 4066 623f ee46 06bf 7398 743f 9074 bbbf
00000060: 23b0 2c3e 4590 e5bf 75be 73bf 01dc b03e
00000070: d0f1 103f c501 32bd 3e14 433e 8a91 1cbe
00000080: d391 083e ce57 a33e bd5c 823e 81c9 913e
00000090: 3309 febf e1e5 92bf 4f85 81c0 65e3 85c0
000000a0: 86e0 8cc0 6f80 4ec0 0741 f83a 37d0 da3e
000000b0: 75ac 883f a277 c6be 0ac2 5f3e b6f4 25bf
000000c0: 22ba 6d3f 727c a13f 9473 3c3e ac44 743f
000000d0: daa9 33bb fb03 babd 8aa5 3bc0 603c a7bf
000000e0: 5bee f23e f76c 1840 78c6 9d3f e881 3cbf
000000f0: 0ef7 0c3f 96e2 82be 88b9 2fc0 1fca 533f
00000100: dd8f bc3f 3005 19bf 74ad bcbf 2cb3 8e3f
00000110: 9591 91bd d0fb 89be 03a7 10bd 7ce2 f4be
00000120: ba38 d33e 2a96 2cbd 8e40 4c3f 8c59 d5bc
00000130: 5899 8dbf eaff 71c0 f076 62bf 82af 093e
00000140: 4105 b1be 88e5 fc3f 54e9 fdbe e160 0ebf
00000150: 2c25 5f3e d57f b93e c32a bfbe 42f5 ae3e
00000160: 9178 17bd 5449 f33d b0a7 293d 7b18 e4bf
00000170: 7c95 82bf 29cf 34bf ae1a 433b 0311 3fbc
00000180: 97a2 1abf 89e2 8a3d 1521 f0bd c48d 9abf
00000190: 4507 993e e55b ebbe df09 843e e96d 94be
000001a0: b4e0 0abf 58c8 bfbe f424 a53d 3625 ed3e
000001b0: 2de6 853f 26d3 f33e 2669 0b3e 59f6 a7be
000001c0: 031f 8fbc 0079 9a3f 28e2 75be 7e09 4cbf
000001d0: ebf9 95bf c016 753f 0449 bcbd e8c1 d2be
000001e0: 97d7 1fbd 8763 f63d 2a0a 51bf e7b1 89bf
000001f0: 4019 1bbf b183 89bf 9cbf 1bbe c6f6 65bf
00000200: ebd8 03be 0059 87bf 9d61 923f f52d 49bf
00000210: 9903 5abe 57c2 d8be 58fc 2c3e 6b58 a7bd
00000220: 3731 25be 504f 1a3e 31ac 1abe ff08 54bf
00000230: c397 8f3e da47 91bd f5b1 883c e17e 903c
00000240: 6b8e 63bf 0d40 46bf 4cd7 d23e 4cb0 80bf
00000250: 29c8 39c0 2ddb 933e 1a72 313f 8455 a33f
00000260: e49c 123f 2fb8 443f 0a88 0e3f 751b f8bd
00000270: 2a1a bc3e 618c 80be fff2 863e b71a a7bf
00000280: 1a7e 433e bfa1 eabd 13dd 16be 9134 3abf
00000290: 43c2 a03f 1c22 3d3e 2118 f23e 790e fbbe
000002a0: c506 353f a138 e83e 2285 a2be 136f c0be
000002b0: ee94 46bf bb7a 4c3f 9bcb ad3d ca85 4f3f
000002c0: 2db7 783e 9b67 973e 1419 d93f cb77 b83f
000002d0: 7623 b7bf 6864 363e ba76 1c3f 05ce 123f
000002e0: 8091 b2bf 0de7 ee3f c46a afbe 70cd 59bf
000002f0: c9fe a83f d4b1 c33e 1e3d abbd 885a 69bf
00000300: dafb 56bf 6806 113e 891e 5a3e 08a3 f63e
00000310: cb2d ebbd 7a87 e83d d0d5 95bf a480 8cc0
00000320: f1ce acc0 ea58 40c0 8c25 2bc0 521c 40c0
00000330: 9bb4 1ec0 b267 a4bf 8f0d 65be 2dc4 8e3e
00000340: eb79 bdbb 282d 81be 2275 b93e 6c2a 9e3f
00000350: 8cd4 02bf 3f18 9dbe 0acc 6dbe 37d6 e2be
00000360: 63ec 723f 576e 2e3f d28e ba3f 27f0 25bf
00000370: b849 de3d a8ef 98bd ea37 4abe 1a3b 96bf
00000380: 6127 673d ac75 9ebf 1600 ebbc addd ac3f
00000390: c010 64bf 3bf8 8ebe c864 b63e 4e4a 123f
000003a0: e0ed 01bf c61d 8dbc 8efc 89be 18b5 863e
000003b0: 1f3c 723e cb7f dbbe e940 973e 1d61 e73e
000003c0: 365c 723e a5d2 06be 1b17 8d3e ed31 293f
000003d0: 19fb bc3e 9790 103d f8cc 0d3e 13c0 11bf
000003e0: 139d 44bf 9853 bf3e 3965 83be b219 843d
000003f0: e0b8 a83f b2dc f33e 3f81 47bf 306c e8bf

linear1.bias f4 [64]
-0.7189566 -0.65907043 0.6089375 0.6624001 1.5388246 -2.0789962 -1.5144197 0.7075547
-0.39607823 -1.0468831 -1.1340843 1.2756927 -0.59345776 0.6956029 -1.252178 1.2110053
1.4744008 -0.30738756 0.881455 -1.2228072 -0.74413633 -1.3919593 -0.9601319 0.07657974
-0.81800115 -0.8343344 -0.23745517 -1.0844653 -0.14561155 -0.5442831 -1.0089756 0.798944
-0.5883094 -0.1512435 1.4496034 -1.4705178 -0.867368 -1.3474354 1.1926062 -1.1836116
0.62071025 1.0874158 -1.0694224 0.9460204 -0.106369235 -0.40376315 -0.14554338 0.9278815
-1.450447 -1.1171132 0.2706017 -1.7861809 -0.7990732 -0.6832887 -1.0744687 -0.09908967
-1.029292 -0.97988856 -0.79794437 0.9453765 -0.5905161 -0.7177275 1.4352363 -0.50281316
00000000: 8a0d 38bf d7b8 28bf 54e3 1b3f 0e93 293f
00000010: 34f8 c43f 460e 05c0 81d8 c1bf 4e22 353f
00000020: c4ca cabe 4400 86bf ad29 91bf e649 a33f
00000030: d9ec 17bf 0813 323f 5e47 a0bf 3902 9b3f
00000040: 2ab9 bc3f e761 9dbe 09a7 613f f284 9cbf
00000050: b87f 3ebf b92b b2bf 34cb 75bf d7d5 9c3d
00000060: 8668 51bf f096 55bf 7327 73be c2cf 8abf
00000070: 321b 15be 2356 0bbf 1d26 81bf 9887 4c3f
00000080: 729b 16bf 93df 1abe 9b8c b93f ed39 bcbf
00000090: d40b 5ebf c378 acbf 52a7 983f 9680 97bf
000000a0: dee6 1e3f 7130 8b3f d5e2 88bf 652e 723f
000000b0: 1dd8 d9bd 0bba cebe 5309 15be a489 6d3f
000000c0: 3fa8 b9bf 91fd 8ebf 4e8c 8a3e 93a1 e4bf
000000d0: 1090 4cbf 02ec 2ebf 3188 89bf 86ef cabd
000000e0: d7bf 83bf fad9 7abf 1546 4cbf 3204 723f
000000f0: 102c 17bf fdbc 37bf d3b5 b73f 5db8 00bf

linear2.weight f4 [16, 64]
0.5959081 0.076229535 0.66676354 -0.11279748 0.18837422 0.8944562 -0.6732143 0.37330928
0.19316207 0.6971746 1.0784335 0.30553758 -0.42268232 0.35538977 -1.1209798 -0.6037064
1.051358 -0.04240273 -0.18588574 0.58425623 0.102059826 -0.809264 -0.061252415 -0.45803222
-0.25684282 -0.33594412 -0.41383672 0.8416009 -0.42958555 -0.19101188 1.270522 0.83097076
0.68872446 0.2514396 0.15259022 0.14099745 -0.09277261 -0.18070446 0.16981629 0.33203173
0.8774954 -0.0750789 0.8178792 -0.9777675 0.24904314 -0.2860648 0.30601093 -0.1736055
-0.35777304 -0.33601314 0.4826122 -0.1962725 -0.49121913 0.08042129 0.1607908 -0.38774776
0.9352549 -0.87078923 0.78394103 -0.39229396 -0.22541982 0.65884286 0.26842088 0.20385653
0.5072064 -0.75513864 0.2644988 0.35152912 0.3417715 1.1859136 0.55186206 -0.7377408
-0.54852486 1.2319554 -0.35603553 -0.21619888 1.002157 0.6748403 0.25908536 -0.43691903
0.39278662 -0.87987375 0.12518306 -0.0035461476 0.9117563 -0.044239294 -0.55283463 1.1749765
-0.1567195 0.031888925 0.2746771 0.47898793 0.28012776 0.050756995 0.33073524 -0.35607922
-0.70922196 0.725017 -0.23538767 0.36074162 -0.65503967 0.314576 -0.1622916 -0.36266914
-0.5105958 0.63207495 0.74541014 -0.35869774 -0.114311665 0.40316996 -0.40936866 0.61844605
0.70005995 -1.1699134 -0.48820308 0.8280023 -0.4243197 -0.79416317 0.3938968 0.432945
-0.53665334 -0.19131601 0.21273361 -0.2855684 0.39059833 -0.26086313 0.1409406 0.50205684
0.4107379 0.27172852 -0.37959182 0.18686743 -0.48966753 0.19222467 -0.5410944 -1.2189041
-0.49569708 0.49282697 -0.70737994 1.3011103 -0.983851 0.07064455 -0.19221535 0.9148252
0.842813 0.336644 -0.98819363 0.8391503 0.6095659 0.10459715 0.5329873 -0.50655746
0.30119565 0.2756219 0.15213661 -0.001454982 0.17025131 -0.6116695 -0.7390538 -1.1096668
0.85328096 -0.056491766 0.17679808 -0.23503086 0.6711721 -0.09518696 0.37475848 -0.00029286396
0.12829117 -0.100774586 -0.37761483 0.27567074 0.6610856 -1.3044441 0.85173076 -0.22269495
-1.1692011 0.2547663 -0.12766005 -0.008717244 0.6122024 0.12231608 -0.9455033 0.58394784
-0.2750622 -0.028094426 0.6300978 0.40809605 -0.18629196 0.12528904 -0.58278716 -0.39146197
0.072037905 -0.46968022 0.101490535 0.16931422 0.365637 -0.092947036 0.36901715 0.39572024
0.5063308 0.55945116 -0.092446394 -0.5785646 0.3697974 -0.2122738 1.3166518 -0.65429556
0.32085827 -0.81866133 -0.5829369 1.2632328 -0.5043164 -0.43252307 -0.7830755 -0.13052526
0.3407917 -0.02946015 -1.1471368 -0.4304838 0.079586625 -0.593461 -0.9721757 -0.1998284
-0.3774784 0.013768459 0.29440922 -0.09207876 0.1814795 -0.11784901 -1.0061243 -0.53805447
0.54739916 0.09613357 -0.21829762 0.22648679 0.32921374 0.5287193 0.18205681 0.34825563
-9.649696e-06 -0.47869772 -0.10792848 -0.74329114 0.017122334 0.75418276 0.07043809 -0.0055922857
-0.31065133 0.37987813 0.5106593 0.14709873 -0.53465015 -0.024599703 -0.13693573 -0.63014305
00000000: 6f8d 183f 3b1e 9c3d 04b1 2a3f 5d02 e7bd
00000010: 2ce5 403e 15fb 643f c657 2cbf 6522 bf3e
00000020: 47cc 453e 097a 323f 1c0a 8a3f 6c6f 9c3e
00000030: d169 d8be a6f5 b53e 447c 8fbf 818c 1abf
00000040: e692 863f 7cae 2dbd d558 3ebe d191 153f
00000050: be04 d13d ed2b 4fbf d0e3 7abd 3383 eabe
00000060: e780 83be de00 acbe 68e2 d3be 2873 573f
00000070: a3f2 dbbe 9e98 43be 77a0 a23f 80ba 543f
00000080: 3f50 303f b1bc 803e 9c40 1c3e a361 103e
00000090: 91ff bdbd 970a 39be 52e4 2d3e 1000 aa3e
000000a0: 8aa3 603f f7c2 99bd 8860 513f f94e 7abf
000000b0: 2a05 7f3e 1677 92be 77ad 9c3e a4c5 31be
000000c0: 072e b7be ea09 acbe f218 f73e a9fb 48be
000000d0: 1381 fbbe ebb3 a43d 58a6 243e e086 c6be
000000e0: dd6c 6f3f 0bec 5ebf 5cb0 483f c1da c8be
000000f0: 74d4 66be eda9 283f 766e 893e c4bf 503e
00000100: 47d8 013f c450 41bf 636c 873e a0fb b33e
00000110: adfc ae3e 04cc 973f d546 0d3f 95dc 3cbf
00000120: 206c 0cbf b7b0 9d3f 4a4a b6be 3d63 5dbe
00000130: ae46 803f 55c2 2c3f d6a6 843e dab3 dfbe
00000140: 541b c93e 683f 61bf fd2f 003e 7c66 68bb
00000150: dc68 693f 4334 35bd 9286 0dbf a165 963f
00000160: 147b 20be f69d 023d 7aa2 8c3e e83d f53e
00000170: e86c 8f3e 91e6 4f3d 2156 a93e 0450 b6be
00000180: 928f 35bf b79a 393f 7709 71be 20b3 b83e
00000190: aeb0 27bf 1b10 a13e c52f 26be c5af b9be
000001a0: 68b6 02bf aacf 213f 33d3 3e3f 3ba7 b7be
000001b0: 3c1c eabd 4b6c ce3e c598 d1be 7b52 1e3f
000001c0: 2137 333f b9bf 95bf c1f5 f9be f5f7 533f
000001d0: 6f40 d9be 474e 4bbf d7ac c93e f8aa dd3e
000001e0: 1d62 09bf 58e8 43be d7d6 593e 0536 92be
000001f0: 81fc c73e da8f 85be bc52 103e cc86 003f
00000200: 3d4c d23e 0020 8b3e dc59 c2be 2d5a 3f3e
00000210: b4b5 fabe 8bd6 443e 2a85 0abf 0d05 9cbf
00000220: 02cc fdbe d153 fc3e da16 35bf c88a a63f
00000230: a9dd 7bbf 17ae 903d 1ad4 44be fc31 6a3f
00000240: 98c2 573f 9a5c ac3e 42fa 7cbf 8ed2 563f
00000250: 830c 1c3f 0837 d63d db71 083f c0ad 01bf
00000260: 5136 9a3e 501e 8d3e b3c9 1b3e 18b5 beba
00000270: 5c56 2e3e 5f96 1cbf a132 3dbf 9009 8ebf
00000280: 9f70 5a3f e963 67bd 8e0a 353e eeab 70be
00000290: efd1 2b3f 62f1 c2bd 58e0 bf3e 898b 99b9
000002a0: c35e 033e e862 cebd bb56 c1be b724 8d3e
000002b0: e83c 293f 06f8 a6bf 070b 5a3f 250a 64be
000002c0: 62a8 95bf ba70 823e 51b9 02be c5d2 0ebc
000002d0: 4cb9 1c3f da80 fa3d 810c 72bf 9b7d 153f
000002e0: f4d4 8cbe 4826 e6bc 174e 213f f7f1 d03e
000002f0: 52c3 3ebe c54b 003e 8a31 15bf b46d c8be
00000300: 9c88 933d ed79 f0be 45da cf3d b560 2d3e
00000310: c634 bb3e 045b bebd d1ef bc3e d89b ca3e
00000320: e59e 013f 3138 0f3f 8954 bdbd cf1c 14bf
00000330: 1656 bd3e 4e5e 59be 0c88 a83f ea7f 27bf
00000340: 8947 a43e ca93 51bf 5a3b 15bf 9db1 a13f
00000350: e11a 01bf aa73 ddbe a377 48bf 6aa8 05be
00000360: 407c ae3e 6a56 f1bc 61d5 92bf 5f68 dcbe
00000370: 50fe a23d 0fed 17bf 82e0 78bf d19f 4cbe
00000380: d944 c1be 1a95 613c cebc 963e ca93 bcbd
00000390: c3d5 393e d25a f1bd aec8 80bf f0bd 09bf
000003a0: 5a22 0c3f ade1 c43d 6989 5fbe 27ec 673e
000003b0: b48e a83e 265a 073f 1a6d 3a3e 904e b23e
000003c0: 21e5 21b7 de17 f5be 9b09 ddbd 5448 3ebf
000003d0: 2344 8c3c 1f12 413f d841 903d 7e3f b7bb
000003e0: b10d 9fbe 637f c23e 91ba 023f 0da1 163e
000003f0: d5de 08bf 5185 c9bc e138 0cbe 0e51 21bf

linear2.bias f4 [16]
-2.4187021 -3.9883103 -3.0545654 2.8507154 2.9844546 3.1786642 3.1998816 -3.8168159
-2.7742665 -4.4202833 -1.401033 2.8763611 -2.598748 0.14872168 5.10774 -2.8653345
00000000: 04cc 1ac0 7a40 7fc0 007e 43c0 1f72 3640
00000010: 4e01 3f40 3c6f 4b40 dcca 4c40 b646 74c0
00000020: 958d 31c0 f672 8dc0 0d55 b3bf 4d16 3840
00000030: e351 26c0 7f4a 183e 9b72 a340 a461 37c0

linear3.weight f4 [111, 16]
-1.1205491 -1.3127369 -0.40982425 0.79165244 1.6087712 0.67609596 -0.66905814 -0.7996256
-0.71405333 -1.3456788 -0.34736034 -0.48771042 0.12508562 0.67322844 1.8070499 -0.589032
-0.39034352 -0.8139832 -0.6254946 -0.38180238 -0.07182831 0.418724 1.2432125 -0.09065727
-0.031436313 -2.0806923 0.14964025 0.45729765 -0.22748774 0.6004382 0.3168174 -1.7249933
-0.9121831 -1.4941834 0.06319705 -0.9123147 0.053474624 0.539332 1.2047203 0.7378949
-0.2182988 -2.6603935 0.41756696 0.5553604 -0.38163725 0.40199402 0.30216467 -1.8245684
0.0233404 0.46705845 -1.8057803 1.030316 -0.24304941 -0.14237055 1.098973 -1.385089
-0.091520116 -0.7136437 0.09067778 0.09026948 -0.23750342 0.299743 0.56047505 -1.3591216
-0.0321876 1.0707777 -2.7130651 0.79294384 -0.06915423 -0.19040227 1.2156087 -1.510567
-0.2716177 -0.9874618 -0.23389903 0.15164863 0.03819504 0.40949208 0.7409187 -1.3982928
0.34305325 -1.0852083 0.6588129 1.9038843 -0.23164055 -0.30538538 0.4020143 -0.9314838
0.6928112 0.37076768 0.84192055 0.08253549 -0.9471755 0.18463565 -0.3526674 -1.6124345
-0.87090474 -1.0460894 -0.3899603 1.1524725 -1.2710817 0.2735302 0.7500378 -0.5861246
0.4303747 -0.42373845 -1.5540124 0.006203051 -1.2438451 -0.48760372 0.28845212 0.11202146
0.4118178 -0.99516803 0.69304776 1.2306546 -0.022110313 -0.050021272 0.27245 -0.855667
0.3302089 0.5897309 0.39952374 0.088823125 -0.67827976 1.0447829 -0.69947356 -1.4487951
0.3270286 -1.2191569 0.75126207 2.0519497 -0.47681564 -0.47728997 0.25145385 -0.8741066
0.7697626 0.48063526 0.83448607 0.019420797 -1.1916202 0.1672253 -0.30042773 -1.5963678
0.025675638 -0.07030532 -0.012685346 0.007735007 -0.008176367 -0.05299292 0.010940216 -0.016714143
0.00741941 0.020772986 -0.0029555904 -0.0123765115 -0.009879191 -0.029775608 -0.045628294 -0.03516402
0.15131499 -1.9846172 -0.8066241 -0.17829092 0.28617227 -1.4870712 0.4915426 -0.6222792
0.5938486 0.20639807 -0.32272917 -0.34917995 -0.098031744 -1.3305668 -0.3597572 -0.37477398
-0.0009794376 0.008999229 0.017298153 -0.010662069 0.0017880035 -0.0063720974 0.010437848 0.0044709262
3.0653937e-05 0.007895273 -0.0020442759 -0.002926073 0.009555853 -0.0088736415 0.00018402503 0.011676197
0.05844815 -0.12655325 -0.0633728 -0.11196433 -0.03319226 -0.13886394 0.0033337544 0.0038106334
0.02143952 0.09371014 -0.027472652 -0.021766867 0.023875216 -0.022807803 -0.037415676 -0.0002158499
0.007902451 -0.012198446 0.0022806292 0.0010010371 -0.012955706 -0.002800402 -0.0018745 0.010756506
0.005930015 0.0024416582 0.0021766243 -0.0056362622 0.009181139 -0.0034717687 -0.0035553316 -0.008111444
0.0018260676 0.006255582 0.00019763576 -0.009649349 -0.008728368 -0.0035627936 -0.0017748483 0.006087567
0.0058317846 0.0100029735 0.00021734866 -0.0063951756 0.0032729632 -0.0003693448 -0.00024036593 -0.0028000902
8.677933e-05 -0.0031159155 0.00575516 -0.0036669467 -0.007468153 0.005603512 -0.010503426 -0.0015883091
0.011505472 0.0030363463 -0.0023426446 -0.0071815373 0.0040319 -0.00089598563 -0.0025499223 0.00039430792
00000000: 276e 8fbf c307 a8bf 7cd4 d1be bca9 4a3f
00000010: 37ec cd3f a014 2d3f 6547 2bbf 43b4 4cbf
00000020: 33cc 36bf 343f acbf 37d9 b1be 2eb5 f9be
00000030: 7216 003e b358 2c3f 694d e73f cdca 16bf
00000040: 1bdb c7be 3461 50bf 6a20 20bf 9a7b c3be
00000050: b91a 93bd fe62 d63e 9621 9f3f 85aa b9bd
00000060: 5dc3 00bd 102a 05c0 4b3b 193e eb22 ea3e
00000070: 8cf2 68be 51b6 193f e435 a23e 95cc dcbf
00000080: d584 69bf 6741 bfbf 746d 813d 758d 69bf
00000090: 3508 5b3d a911 0a3f 4634 9a3f aee6 3c3f
000000a0: b889 5fbe e343 2ac0 56cb d53e 192c 0e3f
000000b0: f565 c3be 29d2 cd3e 54b5 9a3e 758b e9bf
000000c0: 5e34 bf3c 4922 ef3e cf23 e7bf 65e1 833f
000000d0: f2e1 78be 96c9 11be 26ab 8c3f 994a b1bf
000000e0: e66e bbbd 5bb1 36bf 46b5 b93d 35df b83d
000000f0: 1934 73be ea77 993e 4b7b 0f3f b2f7 adbf
00000100: 25d7 03bd 3e0f 893f dca2 2dc0 5efe 4a3f
00000110: bca0 8dbd d0f8 42be 1199 9b3f 425a c1bf
00000120: 7a11 8bbe 4cca 7cbf 3a83 6fbe c749 1b3e
00000130: 6772 1c3d f2a8 d13e d9ac 3d3f 42fb b2bf
00000140: ada4 af3e 1be8 8abf f6a7 283f 7bb2 f33f
00000150: 2e33 6dbe 795b 9cbe d1d4 cd3e b975 6ebf
00000160: 135c 313f 43d5 bd3e 1b88 573f 5e08 a93d
00000170: 187a 72bf 2111 3d3e d290 b4be 4164 cebf
00000180: 9df3 5ebf 42e6 85bf e0a8 c7be 3884 933f
00000190: ceb2 a2bf 260c 8c3e 7a02 403f 430c 16bf
000001a0: 135a dc3e 3ff4 d8be e1e9 c6bf f742 cb3b
000001b0: 5136 9fbf 32a7 f9be ffaf 933e 826b e53d
000001c0: c8d9 d23e 55c3 7ebf 946b 313f 1786 9d3f
000001d0: b020 b5bc 1be3 4cbd 917e 8b3e fe0c 5bbf
000001e0: 2411 a93e 9bf8 163f 608e cc3e e6e8 b53d
000001f0: bea3 2dbf 72bb 853f b310 33bf 1e72 b9bf
00000200: 4b70 a73e 550d 9cbf b652 403f 2553 0340
00000210: 2e21 f4be 5a5f f4be 8fbe 803e 73c5 5fbf
00000220: 290f 453f d315 f63e e1a0 553f 5d18 9f3c
00000230: 0387 98bf 1c3d 2b3e aad1 99be c855 ccbf
00000240: b755 d23c 3cfc 8fbd 33d6 4fbc f175 fd3b
00000250: 2bf6 05bc 1b0f 59bd 973e 333c 19ec 88bc
00000260: 861e f33b 1c2c aa3c 94b2 41bb dac6 4abc
00000270: 55dc 21bc faeb f3bc bce4 3abd 2608 10bd
00000280: 51f2 1a3e f007 febf eb7e 4ebf e591 36be
00000290: 2c85 923e 5958 bebf 79ab fb3e b14d 1fbf
000002a0: 7606 183f 045a 533e c23c a5be b7c7 b2be
000002b0: dec4 c8bd 0350 aabf 1932 b8be 60e2 bfbe
000002c0: 7960 80ba 8171 133c dbb4 8d3c f5af 2ebc
000002d0: 715b ea3a 07cd d0bb 8203 2b3c d980 923b
000002e0: 6a92 0038 2d5b 013c 42f9 05bb 5cc3 3fbb
000002f0: 2790 1c3c c062 11bc d8f6 4039 854d 3f3c
00000300: 5467 6f3d 2d97 01be 99c9 81bd 8e4d e5bd
00000310: 9bf4 07bd 5932 0ebe 1e7b 5a3b d2bb 793b
00000320: efa1 af3c 1aeb bf3d 540e e1bc 6e50 b2bc
00000330: f595 c33c 6ed7 babc 2e41 19bd c455 62b9
00000340: 4879 013c fedb 47bc 9c76 153b 3b35 833a
00000350: 2b44 54bc f386 37bb c8b1 f5ba 0e3c 303c
00000360: 9250 c23b 3a04 203b b2a5 0e3b 65b0 b8bb
00000370: 7d6c 163c 9d86 63bb 9100 69bb dde5 04bc
00000380: a958 ef3a a0fb cc3b 723c 4f39 4e18 1ebc
00000390: 6e01 0fbc c27d 69bb 07a2 e8ba 377a c73b
000003a0: 8e18 bf3b 83e3 233c 16e8 6339 9f8e d1bb
000003b0: 367f 563b 9fa4 c1b9 bd0a 7cb9 b881 37bb
000003c0: 4cfd b538 6334 4cbb c895 bc3b 2851 70bb
000003d0: 68b7 f4bb aa9d b73b 9016 2cbc cf2e d0ba
000003e0: 7281 3c3c 70fd 463b 0e87 19bb 1a53 ebbb
000003f0: 071e 843b 94e0 6aba 991c 27bb 1dbb ce39

linear3.bias f4 [111]
2.9029846 1.2686018 1.7929788 0.7250213 0.44806278 1.3677267 0.6075673 1.1032933
0.76033914 -0.61066777 0.10958261 -0.81351775 1.9721408 -0.898047 -0.4471716 -0.8741685
-0.90583086 3.0378742 1.0262539 1.88764 0.74631554 0.96154994 1.3783655 0.19683674
1.6627659 0.3892479 0.55920935 1.6424135 -0.69235456 0.40791863 -0.96605104 -0.4756686
-1.0078639 -0.67111474 2.5906692 3.6582801 2.0523212 2.141668 2.5838056 1.939491
1.5294262 1.0640423 -0.49496093 -0.7263705 2.9701364 -0.8277066 -0.4905489 -0.8599069
-0.56781626 -0.98212594 -0.5916678 3.6663523 2.176393 1.8108412 0.09852982 0.83094853
1.5138525 0.6731214 2.2008395 1.6805519 -0.6524932 1.5027045 -0.6712895 -0.3258886
-0.7858293 -0.36937752 -0.9563081 -0.8465114 3.3256574 2.9384608 2.8419874 1.7115904
0.84643525 1.5712514 1.201484 1.2857373 0.92760396 -0.6676149 0.51139694 -0.6584677
3.9311569 -0.90275794 -0.012641358 -1.0028034 -0.60479623 3.2519057 2.4744287 2.5724502
1.4035567 0.6431289 0.7342059 0.929854 0.5602631 0.71064264 1.2542193 2.1757932
-0.66534686 4.4069757 -0.8701976 0.059232127 -0.87670916 -0.8004965 2.718215 0.85761446
2.0917943 1.1145664 -0.5703997 -0.8294558 -0.9393629 -0.9853462 -1.019171
00000000: 80ca 3940 8b61 a23f 5480 e53f ff9a 393f
00000010: 7c68 e53e ab11 af3f 8889 1b3f b738 8d3f
00000020: 96a5 423f b954 1cbf d96c e03d b342 50bf
00000030: 1c6f fc3f 68e6 65bf adf3 e4be 82c9 5fbf
00000040: 88e4 67bf 886c 4240 4a5c 833f 309e f13f
00000050: 890e 3f3f 2328 763f 486e b03f 928f 493e
00000060: 83d5 d43f 804b c73e 5828 0f3f 9b3a d23f
00000070: 263e 31bf b6da d03e 1f4f 77bf d68a f3be
00000080: af01 81bf 2dce 2bbf 86cd 2540 4321 6a40
00000090: 3b59 0340 1711 0940 125d 2540 3e41 f83f
000000a0: 3dc4 c33f 8a32 883f 856b fdbe 6bf3 39bf
000000b0: b716 3e40 94e4 53bf 3a29 fbbe dc22 5cbf
000000c0: 685c 11bf 9b6c 7bbf 8a77 17bf 84a5 6a40
000000d0: 064a 0b40 a5c9 e73f 01ca c93d 0bb9 543f
000000e0: ebc5 c13f af51 2c3f 8eda 0c40 531c d73f
000000f0: cb09 27bf 9f58 c03f a1d9 2bbf dfda a6be
00000100: 1c2c 49bf 0d1f bdbe 9cd0 74bf f9b4 58bf
00000110: 92d7 5440 be0f 3c40 1fe3 3540 6515 db3f
00000120: fbaf 583f c41e c93f 3aca 993f 0a93 a43f
00000130: 7477 6d3f cfe8 2abf e9ea 023f 5791 28bf
00000140: 1398 7b40 251b 67bf b31d 4fbc dd5b 80bf
00000150: edd3 1abf 391f 5040 0a5d 1e40 06a3 2440
00000160: bfa7 b33f 18a4 243f ebf4 3b3f e90a 6e3f
00000170: 676d 0f3f adec 353f 428a a03f 3240 0b40
00000180: 2c54 2abf f205 8d40 45c5 5ebf 639d 723d
00000190: 0370 60bf 57ed 4cbf 3cf7 2d40 9f8c 5b3f
000001a0: f5df 0540 1daa 8e3f b705 12bf 3757 54bf
000001b0: 167a 70bf a63f 7cbf 3274 82bf
