policy_net_move_select.pth (torch, 110511 bytes, 8 tensors)

conv1.weight f4 [8, 1, 3, 3]
-0.07973152 0.007801875 0.12967956 0.07927825 -0.0030128693 0.27883375 -0.015489138 0.02940762
0.24971315 -0.9633177 0.14684318 0.02139094 -0.21145597 0.1194766 0.15310343 0.18522955
0.025805427 0.094842866 -0.035354376 -0.086063564 0.13043545 0.104826815 0.014737929 -0.8622387
-0.9161076 -0.45589364 -0.07599837 0.0015055108 0.03228689 -0.18205227 0.03657142 0.39523554
-0.10736257 -0.17590605 0.098770835 -0.075641766 0.14760573 0.034634843 -0.006555436 0.028807305
0.27487057 0.10104447 0.27469036 0.39380118 0.040448707 -0.031136574 -1.1085825 -0.015849603
-0.28855014 -0.7184675 0.001689681 0.017190017 0.31756622 -0.19032282 0.088185646 -0.04110813
0.26944068 0.03240186 0.024086617 -0.27808544 -0.1777973 0.09334572 0.18184638 0.2264712
0.09599786 -0.051318903 0.30853477 -0.14281683 -0.55107826 0.029340096 -0.038690418 -0.18682909
00000000: 474a a3bd dfa6 ff3b b8ca 043e a35c a23d
00000010: 8f73 45bb 4cc3 8e3e 27c6 7dbc 40e8 f03c
00000020: ceb4 7f3e fd9b 76bf 0f5e 163e 0d3c af3c
00000030: ea87 58be 26b0 f43d 25c7 1c3e d1ac 3d3e
00000040: e765 d33c fa3c c23d c0cf 10bd 1842 b0bd
00000050: df90 053e 71af d63d 5b77 713c adbb 5cbf
00000060: 0786 6abf e46a e9be 09a5 9bbd 8f54 c53a
00000070: 423f 043d e96b 3abe eacb 153d 505c ca3e
00000080: e8e0 dbbd b720 34be 5d48 ca3d 12ea 9abd
00000090: f525 173e 44dd 0d3d fcce d6bb 4cfd eb3c
000000a0: d6bb 8c3e 67f0 ce3d 37a4 8c3e 4fa0 c93e
000000b0: 8bad 253d 2112 ffbc 08e6 8dbf 07d7 81bc
000000c0: d8bc 93be 7ced 37bf 4978 dd3a 14d2 8c3c
000000d0: 0a98 a23e fce3 42be ad9a b43d 0061 28bd
000000e0: 21f4 893e d0b7 043d 4c51 c53c 3761 8ebe
000000f0: 7f10 36be 0a2c bf3d f035 3a3e 11e8 673e
00000100: 879a c43d c533 52bd 45f8 9d3e 933e 12be
00000110: 7713 0dbf a45a f03c d879 1ebd 2050 3fbe

conv1.bias f4 [8]
-0.00016000128 0.14699093 0.32152852 0.16896293 0.0032030307 0.3315239 0.017816285 0.29388556
00000000: 04c6 27b9 ca84 163e 639f a43e 9e04 2d3e
00000010: f0e9 513b 80bd a93e 75f3 913c 2b78 963e

conv2.weight f4 [16, 8, 3, 3]
0.06660816 -0.03217309 0.06288892 0.14065214 -0.0053528035 -0.041382052 0.0049392735 -0.04393631
0.051414587 -0.090957634 0.053778376 -0.14015701 -0.014945254 0.03824727 -0.06927915 0.20598643
-0.031211259 0.13007137 0.06919983 0.012311626 0.051754974 0.02953345 0.15864712 0.18128727
0.034598596 0.11343019 0.039009806 0.10298036 -0.12041484 0.038209066 -0.020624062 -0.068024814
0.056363624 0.0803109 -0.011433164 -0.040183514 0.05353508 0.11239421 0.05048899 -0.122670636
-0.22028625 0.0028545656 -0.09895619 0.09091221 0.1225735 -0.25484374 -0.24970706 -0.46883908
-0.10578513 0.10898617 -0.24364656 0.23553328 -0.08026823 -0.09535509 -0.07093647 0.06719144
-0.05912616 -0.021300104 -0.02338365 -0.060348764 -0.17583732 -0.07541711 0.008486449 0.15167323
-0.07059834 0.07001668 0.03890973 -0.018495802 -0.07237632 -0.122134425 0.03490838 0.03526074
-0.11657967 0.18581024 0.077571906 0.12948129 -0.15763749 0.003678779 -0.03103876 -0.16526967
-0.14952578 -0.13216728 -0.055536088 0.06407247 -0.14501618 -0.0939156 -0.050672416 0.13612248
0.0034811576 -0.0484936 -0.02436313 -0.0006296921 0.028041339 0.29700094 0.0012231545 0.22410303
-0.1095123 -0.043821402 -0.0069042062 0.05522167 0.112606324 -0.09536509 0.2637805 0.037707455
0.104678534 0.16362257 -0.32074553 0.19803803 -0.20400736 -0.03420057 0.09752193 -0.07211313
0.1733574 0.09724606 -0.043457843 -0.15992413 -0.23111781 0.123737805 -0.30961055 -0.2538061
-0.08559824 -0.07046545 0.16560425 0.28955132 0.021992864 0.13604587 0.016639566 -0.09694247
-0.0907149 -0.0784904 0.09070271 0.008191915 0.13216482 0.065682955 0.07183713 0.15258233
0.08130511 0.081679046 0.14634418 -0.13050194 -0.054494835 -0.044464905 -0.22793071 0.16281323
-0.016057283 -0.28724256 -0.20460469 -0.08516204 0.06721194 -0.16107047 -0.07433536 0.06849423
-0.24592148 0.16787232 0.2244405 0.106150754 0.33980995 0.19909142 -0.0471876 -0.03105072
0.027224425 0.19438943 0.05323169 -0.027357444 0.05887413 0.100818105 0.22498667 0.2529729
0.21935928 0.005257253 0.08726936 -0.068369366 -0.18233277 -0.0187784 -0.058590416 0.13830014
0.13529119 0.16068093 0.2889988 0.2227918 0.04234471 -0.10358239 -0.22067443 0.052138
-0.18490231 0.0105815595 -0.23680933 -0.23301189 -0.31374708 -0.11345691 -0.08024927 -0.121509664
0.28503665 -0.14659214 0.12959972 0.16221046 -0.29372847 0.08755367 0.040989473 -0.058946278
-0.15975264 0.12673564 0.0317812 -0.1765124 0.06623562 -0.024402728 0.19409049 0.001967245
-0.12772992 0.20503443 0.085902296 0.21341644 -0.026542377 -0.15511085 -0.010141136 0.22789098
-0.06586376 -0.022402728 0.16098547 -0.14542007 -0.07409811 0.13132447 -0.13089235 0.085574314
0.15750195 -0.026366744 -0.006345033 -0.009562237 -0.042868063 0.0013655345 -0.02020769 -0.024528118
-0.025635364 0.16650565 0.10727513 -0.055747945 -0.07744039 -0.16825213 -0.10947826 0.14312807
0.2343081 -0.2802115 0.20456056 -0.033535548 0.18466584 0.21392998 0.13105479 0.27469274
-0.13900612 0.26293322 -0.01621366 0.18681553 -0.13767837 0.052578676 -0.17807429 0.16766918
00000000: dc69 883d eec7 03bd e8cb 803d 1d07 103e
00000010: 9266 afbb 3a80 29bd a1d9 a13b 8ff6 33bd
00000020: 1a98 523d ff47 babd b746 5c3d 5285 0fbe
00000030: f0dc 74bc 2ba9 1c3d 3ae2 8dbd 1bee 523e
00000040: c1ae ffbc 6e31 053e a4b8 8d3d b4b6 493c
00000050: 06fd 533d 22f0 f13c 6474 223e 5fa3 393e
00000060: 42b7 0d3d 164e e83d bfc8 1f3d 5ee7 d23d
00000070: 0e9c f6bd 1c81 1c3d cbf3 a8bc 9850 8bbd
00000080: 8bdd 663d 0b7a a43d 2a52 3bbc 7897 24bd
00000090: 9a47 5b3d f02e e63d 8bcd 4e3d be3a fbbd
000000a0: b892 61be aa13 3b3b 8ba9 cabd 2e30 ba3d
000000b0: d107 fb3d e17a 82be 35b3 7fbe ad0b f0be
000000c0: e0a5 d8bd 2434 df3d 7c7e 79be a32f 713e
000000d0: ab63 a4bd 8849 c3bd 2447 91bd aa9b 893d
000000e0: 462e 72bd 8e7d aebc 128f bfbc 4430 77bd
000000f0: b30e 34be 4974 9abd bf0a 0b3c 3a50 1b3e
00000100: dd95 90bd e864 8f3d cf5f 1f3d 8284 97bc
00000110: 093a 94bd 9d21 fabd 17fc 0e3d 916d 103d
00000120: 52c1 eebd 0a45 3e3e 05de 9e3d be96 043e
00000130: b96b 21be ab17 713b ff44 febc 743c 29be
00000140: 491d 19be dc56 07be cf79 63bd 6d38 833d
00000150: 1f7f 14be d256 c0bd e18d 4fbd b163 0b3e
00000160: 2224 643b 3aa1 46bd 3095 c7bc ec11 25ba
00000170: f3b6 e53c 8210 983e 4152 a03a 447b 653e
00000180: fc47 e0bd 127e 33bd ae3c e2bb 1e30 623d
00000190: 259e e63d c64e c3bd 3d0e 873e 2273 1a3d
000001a0: b361 d63d ad8c 273e c238 a4be 7bca 4a3e
000001b0: 4ee7 50be e615 0cbd 94b9 c73d 0cb0 93bd
000001c0: 9a84 313e f128 c73d da00 32bd 27c3 23be
000001d0: 26aa 6cbe 3f6a fd3d 4685 9ebe e0f2 81be
000001e0: 214e afbd 3150 90bd 2994 293e 1240 943e
000001f0: 612a b43c 9c4f 0b3e b34f 883c c689 c6bd
00000200: bcc8 b9bd 93bf a0bd 58c2 b93d 6237 063c
00000210: 3756 073e c984 863d 581f 933d 8b3e 1c3e
00000220: 4b83 a63d 5847 a73d 40db 153e 4da2 05be
00000230: fa35 5fbd d520 36bd ab66 69be 83b8 263e
00000240: 908a 83bc 7511 93be e483 51be 7069 aebd
00000250: 6aa6 893d a8ef 24be 233d 98bd b446 8c3d
00000260: d7d2 7bbe b9e6 2b3e bbd3 653e 9165 d93d
00000270: 92fb ad3e 9fde 4b3e c947 41bd 145e febc
00000280: c205 df3c 060e 473e 7909 5a3d b81c e0bc
00000290: 0026 713d b979 ce3d e862 663e aa85 813e
000002a0: b89f 603e 0945 ac3b 47ba b23d 3d05 8cbd
000002b0: 71b5 3abe 29d5 99bc 81fc 6fbd 8d9e 0d3e
000002c0: c689 0a3e 8b89 243e a7f7 933e 8923 643e
000002d0: a671 2d3d 0123 d4bd 7af8 61be a88e 553d
000002e0: 0857 3dbe 475e 2d3c 257e 72be ab9a 6ebe
000002f0: 75a3 a0be 195c e8bd bb59 a4bd 0fda f8bd
00000300: 53f0 913e 401c 16be cab5 043e 801a 263e
00000310: 9463 96be 574f b33d 94e4 273d a771 71bd
00000320: 3296 23be fdc6 013e 012d 023d abbf 34be
00000330: 8aa6 873d 3be8 c7bc a8bf 463e e5ec 003b
00000340: a2cb 02be 8cf4 513e 8bed af3d d789 5a3e
00000350: 666f d9bc 61d5 1ebe 0227 26bc 415c 693e
00000360: 94e3 86bd ed85 b7bc 60d9 243e 00e9 14be
00000370: c0c0 97bd ec79 063e a508 06be 9641 af3d
00000380: 3148 213e 12ff d7bc ffe9 cfbb eeaa 1cbc
00000390: 6c96 2fbd bcfb b23a 998a a5bc 31ef c8bc
000003a0: 4101 d2bc 7580 2a3e 10b3 db3d f557 64bd
000003b0: 1199 9ebd 494a 2cbe 2336 e0bd 2a90 123e
000003c0: 76ee 6f3e e277 8fbe 5378 513e 925c 09bd
000003d0: 0b19 3d3e 7610 5b3e 3a33 063e 87a4 8c3e
000003e0: 9f57 0ebe 2f9f 863e 82d2 84bc 924c 3f3e
000003f0: 8ffb 0cbe bd5c 573d 1b59 36be 78b1 2b3e

conv2.bias f4 [16]
0.28423753 0.10496184 0.10997733 0.056150712 0.11338028 0.003156259 -0.009349345 0.12391047
0.01385671 0.04990969 -0.08290916 0.2120046 0.2173147 0.056815956 0.1519947 -0.023178171
00000000: 9587 913e 3cf6 d63d cb3b e13d 4afe 653d
00000010: ec33 e83d 3dd9 4e3b ff2d 19bc c6c4 fd3d
00000020: 4107 633c 1a6e 4c3d 47cc a9bd bc17 593e
00000030: bf87 5e3e d9b7 683d 80a4 1b3e 26e0 bdbc

linear1.weight f4 [64, 288]
0.14194375 0.07178533 -0.037124123 -0.10996804 0.036356065 -0.16023874 -0.14567347 -0.16017535
-0.09092028 0.0017395454 0.026400559 0.029892204 -0.024717458 0.01247465 -0.077311724 -0.09459117
-0.080630116 -0.13523912 0.1302299 0.081951015 0.03630326 0.034560308 0.122695245 -0.05409995
0.065710604 0.0080698 -0.060994394 -0.08224478 -0.05391765 -0.0050657983 -0.036395732 0.056501765
-0.040233403 0.013439044 0.11763184 -0.058106508 -0.0053544356 0.009741349 0.03520366 -0.04814678
0.05781607 0.17616528 0.18677475 0.05346744 0.10660116 0.012494793 0.09517379 0.27214712
0.06656027 -0.084815904 0.1433765 0.18369772 0.06723182 0.17776833 0.13969377 0.107393935
0.050617427 0.03564135 0.04464693 -0.023107875 -0.05409554 0.022755872 0.070709474 0.108807884
0.009265854 0.07114871 -0.06603239 -0.025934175 0.08855727 -0.14074242 -0.061986882 0.11423004
0.012968037 0.028741458 0.11761766 -0.04196243 0.10242804 -0.03936455 0.07891167 0.04269389
0.009128739 -0.054871134 -0.048969824 0.15759782 0.11960379 0.017644342 0.086439535 -0.24627687
-0.04575918 0.058434255 -0.021199856 -0.023827836 0.015368138 0.017298944 -0.06976812 -0.080394134
-0.012424586 0.072995394 -0.05721262 -0.055428296 -0.042518612 0.04184633 0.09968994 0.0683099
0.061829377 -0.098677084 -0.101146795 -0.32216674 -0.09456015 0.007674905 0.105017036 -0.12776877
0.11257495 -0.079682894 0.0187673 0.10221501 0.10386227 -0.010577232 0.038013317 -0.0154292025
0.1020026 0.09568184 0.1928461 0.13302507 0.091645904 0.09004351 0.00428676 0.13502762
-0.0059812632 0.10273339 0.118385136 0.12972537 0.009367646 -0.030936122 0.084267065 -0.061344605
0.057086866 -0.12922858 -0.07536584 -0.052046616 -0.039170213 -0.115334414 -0.102505825 0.22913902
0.030613028 0.07935776 -0.04059153 -0.0866661 -0.028242104 0.034428224 0.12936804 0.0467035
-0.005780608 0.03898381 0.04215621 0.14614496 -0.0332854 -0.026778499 0.120329455 0.024314564
0.020412728 0.15813972 -0.038797792 0.11949594 0.08955997 -0.08812899 -0.097233 0.039333865
-0.050261308 0.06880428 -0.044364363 0.012843732 0.06576053 0.1138892 -0.15092151 0.057435486
-0.11089115 -0.07413705 -0.061875798 -0.05328263 -0.037431132 -0.09164879 -0.05072579 -0.05662227
0.07237145 0.066917 -0.029962642 -0.0058468254 0.10367845 -0.010838201 0.018899383 -0.06375516
0.021910265 0.028416125 0.1541519 0.10050025 0.024449846 -0.09682656 0.058221404 0.18715024
0.20095466 0.1134714 0.109380804 0.1632383 0.076630026 0.033605404 0.13390979 -0.09620058
-0.09354068 -0.010804792 0.104307674 0.061343405 0.054755393 0.08497942 0.08741378 0.13920489
-0.046998188 0.09765745 0.21000367 -0.048534323 0.06610626 -0.009989401 -0.012158313 -0.050280437
0.14143775 -0.025322134 -0.08315103 0.041543514 0.068483874 0.03042691 -0.0058385013 -0.04521337
-0.048129693 -0.042484883 -0.15422498 0.1384294 0.06935109 0.045972206 0.00086409744 -0.010290714
-0.06423714 0.1147951 0.07872637 0.12008204 -0.100544214 0.11246453 0.015346734 -0.022272414
-0.15515022 -0.112058446 -0.118581995 0.15897422 0.12040054 0.10042472 0.0661118 0.11987026
00000000: b459 113e 3004 933d 770f 18bd ec36 e1bd
00000010: 19ea 143d a015 24be 6d2b 15be 0205 24be
00000020: 6934 babd 7501 e43a fc45 d83c 7fe0 f43c
00000030: 447c cabc 7962 4c3c 9c55 9ebd 04b9 c1bd
00000040: 6721 a5bd 207c 0abe fd5a 053e efd5 a73d
00000050: bab2 143d 1c8f 0d3d a547 fb3d e997 5dbd
00000060: 4893 863d 3237 043c 42d5 79bd f46f a8bd
00000070: c1d8 5cbd fffe a5bb b113 15bd 656e 673d
00000080: c8cb 24bd 702f 5c3c f6e8 f03d 1701 6ebd
00000090: 4374 afbb 2e9a 1f3c b731 103d 8f35 45bd
000000a0: 8bd0 6c3d ac64 343e e141 3f3e ad00 5b3d
000000b0: b551 da3d f6b6 4c3c 7aea c23d de56 8b3e
000000c0: c050 883d f6b3 adbd 4ad1 123e 411b 3c3e
000000d0: d6b0 893d e708 363e e20b 0f3e 5af1 db3d
000000e0: 3854 4f3d aafc 113d b3df 363d ba4c bdbc
000000f0: 4993 5dbd 866a ba3c 21d0 903d abd6 de3d
00000100: cfcf 173c 6ab6 913d fd3b 87bd e873 d4bc
00000110: 845d b53d c81e 10be f5e5 7dbd 70f1 e93d
00000120: e477 543c 3573 eb3c 87e1 f03d cce0 2bbd
00000130: cbc5 d13d b93c 21bd 719c a13d cadf 2e3d
00000140: b590 153c 8ec0 60bd 9594 48bd 5361 213e
00000150: d5f2 f43d de8a 903c 3607 b13d 0130 7cbe
00000160: fa6d 3bbd c258 6f3d 52ab adbc 9832 c3bc
00000170: a5ca 7b3c 84b6 8d3c 97e2 8ebd aea5 a4bd
00000180: 7e90 4bbc 9c7e 953d c857 6abd c808 63bd
00000190: ff27 2ebd 0f67 2b3d 3d2a cc3d 10e6 8b3d
000001a0: cd40 7d3d 3617 cabd 0d26 cfbd 0af3 a4be
000001b0: c0a8 c1bd c57d fb3b 2c13 d73d d1d5 02be
000001c0: b28d e63d c930 a3bd e1bd 993c 1a56 d13d
000001d0: beb5 d43d 204c 2dbc dab3 1b3d c4ca 7cbc
000001e0: bde6 d03d d7f4 c33d 7379 453e b937 083e
000001f0: d9b0 bb3d bb68 b83d f377 8c3b ae44 0a3e
00000200: 79fe c3bb e265 d23d e873 f23d bad6 043e
00000210: c17a 193c c06d fdbc 3694 ac3d 7b44 7bbd
00000220: ebd3 693d 7f54 04be 6859 9abd d52e 55bd
00000230: f270 20bd 7334 ecbd 93ee d1bd 6ba3 6a3e
00000240: 2cc8 fa3c 5286 a23d 4e43 26bd ff7d b1bd
00000250: fc5b e7bc 9c04 0d3d 0e79 043e 2b4c 3f3d
00000260: 416b bdbb 7dad 1f3d fdab 2c3d 06a7 153e
00000270: 4656 08bd 955e dbbc 4a6f f63d 562f c73c
00000280: 9838 a73c 61ef 213e 6fea 1ebd 4aba f43d
00000290: 386b b73d f97c b4bd 1822 c7bd 8c1c 213d
000002a0: cdde 4dbd 42e9 8c3d 68b7 35bd 846e 523c
000002b0: 75ad 863d be3e e93d 2b8b 1abe 7941 6b3d
000002c0: e61a e3bd 2ad5 97bd 7a71 7dbd e33e 5abd
000002d0: 6351 19bd 5cb2 bbbd d9c5 4fbd c1ec 67bd
000002e0: 7c37 943d c80b 893d 3774 f5bc ba96 bfbb
000002f0: 5e55 d43d b692 31bc e1d2 9a3c 1192 82bd
00000300: 287d b33c efc8 e83c ffd9 1d3e 13d3 cd3d
00000310: 0b4b c83c 014d c6bd 9179 6e3d 50a4 3f3e
00000320: 0fc7 4d3e b263 e83d 0b03 e03d f127 273e
00000330: 34f0 9c3d d2a5 093d a61f 093e cf04 c5bd
00000340: 4292 bfbd 9506 31bc 439f d53d 3943 7b3d
00000350: 3147 603d b109 ae3d ff05 b33d ba8b 0e3e
00000360: 2c81 40bd a100 c83d 340b 573e edcb 46bd
00000370: b862 873d 96aa 23bc a933 47bc dcf2 4dbd
00000380: 0fd5 103e 5d70 cfbc 164b aabd 8829 2a3d
00000390: 4641 8c3d db41 f93c e650 bfbb a831 39bd
000003a0: a423 45bd a104 2ebd 27ed 1dbe 70c0 0d3e
000003b0: f207 8e3d 5a4d 3c3d 9984 623a 629a 28bc
000003c0: c38e 83bd b219 eb3d 4b3b a13d 93ed f53d
000003d0: 20ea cdbd ce53 e63d de70 7b3c a374 b6bc
000003e0: b3df 1ebe e67e e5bd 1edb f2bd 23ca 223e
000003f0: 8f94 f63d 7aab cd3d a065 873d 8a7e f53d

linear1.bias f4 [64]
0.1371806 -0.093443654 0.12328621 -0.04993561 0.11916221 0.012671594 0.15304336 -0.11670703
0.015035605 -0.07511122 -0.06190473 0.10198246 0.0060271397 0.0025014072 0.011412484 0.05889081
-0.109914646 -0.09682721 -0.08004342 -0.052183732 0.15847583 0.053423543 0.030023409 -0.04722587
0.0836536 -0.07156204 0.044542372 0.12589872 -0.12991424 -0.04267076 -0.06297768 0.110262714
0.011854224 0.09172294 0.12621015 -0.12333848 -0.0020960912 0.087490074 0.08869157 0.010207321
-0.05871757 -0.0140824225 0.047731925 -0.0079906825 -0.006806884 0.10948381 -0.076637246 0.007660811
-0.047429662 0.048076525 0.042064857 0.08167751 0.00754288 0.15757939 -0.08162198 0.032320026
-0.105426274 0.061357267 0.13401796 0.10142977 -0.09332613 0.15549885 -0.09624814 0.008367234
00000000: 1279 0c3e 635f bfbd 7b7d fc3d 4889 4cbd
00000010: 510b f43d 849c 4f3c 66b7 1c3e 1804 efbd
00000020: e657 763c e9d3 99bd d08f 7dbd 2edc d03d
00000030: 507f c53b a6ee 233b 6dfb 3a3c 7d37 713d
00000040: ee1a e1bd 584d c6bd ceed a3bd 9cbe 55bd
00000050: 7d47 223e a5d2 5a3d a7f3 f53c ea6f 41bd
00000060: 9452 ab3d 1e8f 92bd 1072 363d 98eb 003e
00000070: 3d08 05be 89c7 2ebd 71fa 80bd 6bd1 e13d
00000080: 3838 423c 3dd9 bb3d 3c3d 013e e398 fcbd
00000090: 935e 09bb ff2d b33d eda3 b53d 9b3c 273c
000000a0: d681 70bd f6b9 66bc 8d82 433d 5aeb 02bc
000000b0: 480c dfbb 0c39 e03d fdf3 9cbd 8a07 fb3b
000000c0: 9b45 42bd e4eb 443d 334c 2c3d 8a46 a73d
000000d0: 432a f73b 7e5c 213e 6d29 a7bd 0162 043d
000000e0: bbe9 d7bd c251 7b3d 013c 093e 69ba cf3d
000000f0: c521 bfbd 173b 1f3e bf1d c5bd b916 093c

linear2.weight f4 [110, 64]
0.06588596 0.10355063 0.17787924 -0.15351239 -0.012856811 0.13926446 0.02737665 -0.16243508
0.12047364 -0.19243331 -0.13380279 0.024988407 0.008356874 -0.16893353 0.10389805 -0.06416802
-0.14042589 0.10549025 0.06576036 0.13659813 0.09310207 -0.07300697 0.018997647 0.085043006
0.1728016 -0.025721017 0.0035190657 -0.042048834 -0.098250285 -0.096033536 -0.24723017 -0.032272022
-0.07787349 0.03401225 0.12692869 -0.07998005 -0.055188823 -0.01628758 -0.05481983 0.041413847
-0.06549898 -0.09691198 -0.099017225 0.09445221 -0.08957528 0.19393371 -0.13597687 0.103024416
-0.08899896 0.0675864 0.04853967 0.085979946 0.07652081 0.15869461 -0.007164494 0.020877825
-0.15597938 0.24251299 0.07222817 0.18946019 -0.0641795 0.1082516 -0.10603392 -0.05985697
0.15732062 -0.16128182 0.07662959 0.08932387 -0.018466191 0.06392259 0.09975968 -0.032417525
0.110729165 -0.10019258 0.010764821 0.115912735 -0.11709723 -0.10934475 0.020242903 -0.06101304
-0.136741 0.07745774 0.14164054 -0.05551688 -0.016891204 0.07398388 0.0020623014 -0.014354272
0.118841626 -0.02623976 0.13918942 -0.0068042898 0.03429845 -0.09137628 -0.16781592 0.18471132
-0.11759955 0.1188707 0.16619426 -0.23861217 -0.16306992 -0.053116597 0.20448315 0.08665012
-0.16390815 0.07005427 0.016339082 -0.051045567 -0.041681506 -0.023420898 -0.17693895 0.12014497
0.13688007 -0.026205309 0.16307998 0.029240059 0.057589088 -0.01802384 -0.02889127 -0.08171867
-0.035277132 -0.067244396 0.031929232 0.107652605 -0.07899356 0.120869175 -0.021947345 0.048493244
-0.035159722 -0.18287429 0.18821265 -0.097017564 0.026758851 0.037435018 0.006639219 0.013420077
-0.025505757 -0.16102336 0.0129577415 -0.059290998 0.018494051 -0.16635095 0.05246744 -0.09907856
-0.09850791 0.008225097 -0.068916395 0.03713054 0.24285308 0.030687634 -0.12502493 0.029954959
0.06378122 -0.05179392 0.122192435 -0.061359506 -0.104421 -0.17324801 0.032869656 -0.107276075
-0.023415487 0.18267097 0.17544341 -0.061360307 -0.21509783 0.1529093 -0.03713891 -0.07985384
-0.08254442 -0.1391772 0.006236728 -0.052319743 0.06630388 0.01156128 -0.21041192 0.07133429
-0.09695092 -0.0026394327 0.039143395 -0.123715006 0.083272375 0.033815853 -0.18617135 -0.03191119
-0.23129597 0.13344221 0.13327956 -0.101867236 -0.17773889 0.010777834 0.02975693 0.07197663
-0.06478019 -0.20092653 0.17859393 -0.060275473 0.087949656 0.012886421 0.18185376 -0.19256155
0.109876774 0.0049777133 0.018972507 0.13350028 0.027349558 -0.13276574 0.074694954 -0.004601426
-0.029102895 -0.09047796 -0.05086695 0.06294076 0.03825265 0.02139367 0.038831744 -0.06317129
0.018156603 -0.034322016 0.12095855 0.020209795 0.075245544 -0.04187412 -0.15590519 0.09502856
0.1095945 -0.010851342 0.20335212 -0.14114779 -0.012629311 -0.044840697 0.11481089 -0.079161435
-0.16448554 -0.1498243 -0.08126257 0.09319087 -0.008014467 0.25903708 -0.06405423 -0.063857466
-0.015337559 -0.18276225 0.13989663 -0.10862024 -0.07578103 0.12751147 0.060957756 -0.13748148
0.022998216 0.076313734 0.042919934 0.17842476 -0.08162884 0.046156153 -0.12723185 0.10359196
00000000: 38ef 863d 5a12 d43d fa25 363e 5a32 1dbe
00000010: 60a5 52bc 589b 0e3e ff44 e03c 6255 26be
00000020: e2ba f63d 3d0d 45be 9903 09be 7db4 cc3c
00000030: 45eb 083c e9fc 2cbe 80c8 d43d 866a 83bd
00000040: cecb 0fbe 460b d83d 5ead 863d 61e0 0b3e
00000050: 4cac be3d ae84 95bd f4a0 9b3c 072b ae3d
00000060: e7f2 303e e2b4 d2bc 20a0 663b 663b 2cbd
00000070: 7237 c9bd 3bad c4bd e829 7dbe ab2f 04bd
00000080: 237c 9fbd 6e50 0b3d 98f9 013e 95cc a3bd
00000090: ad0d 62bd 886d 85bc c28a 60bd 91a1 293d
000000a0: 5424 86bd ca79 c6bd 8bc9 cabd 2970 c13d
000000b0: 3f73 b7bd 8f96 463e 853d 0bbe 77fe d23d
000000c0: 1645 b6bd bd6a 8a3d 88d1 463d 4116 b03d
000000d0: f1b6 9c3d d780 223e 22c4 eabb f907 ab3c
000000e0: 0fb9 1fbe 5355 783e 5dec 933d da01 423e
000000f0: 8b70 83bd 04b3 dd3d 5028 d9bd 952c 75bd
00000100: a818 213e 1027 25be f9ef 9c3d 6fef b63d
00000110: 6946 97bc d9e9 823d ce4e cc3d 3dc8 04bd
00000120: f9c5 e23d c431 cdbd ef5e 303c a863 ed3d
00000130: acd0 efbd 24f0 dfbd 72d4 a53c cfe8 79bd
00000140: d505 0cbe 2aa2 9e3d 380a 113e ab65 63bd
00000150: 6c5f 8abc dc84 973d ad27 073b 2e2e 6bbc
00000160: 3d63 f33d c4f4 d6bc ac87 0e3e 85f6 debb
00000170: 887c 0c3d 7d23 bbbd f0d7 2bbe f724 3d3e
00000180: 08d8 f0bd 7b72 f33d d42e 2a3e c056 74be
00000190: cdfb 26be ca90 59bd 0864 513e 9e75 b13d
000001a0: 8ad7 27be 9d78 8f3d 8ad9 853c 2815 51bd
000001b0: 3aba 2abd 2fdd bfbc 7c2f 35be 910e f63d
000001c0: 4a2a 0c3e 84ac d6bc 70fe 263e d988 ef3c
000001d0: 89e2 6b3d bba6 93bc 62ad ecbc 1e5c a7bd
000001e0: c17e 10bd 6eb7 89bd 3ac8 023d f878 dc3d
000001f0: 60c7 a1bd 428a f73d ebca b3bc daa0 463d
00000200: a403 10bd 6643 3bbe d1ba 403e 25b1 c6bd
00000210: 6135 db3c 7655 193d ce8d d93b e2df 5b3c
00000220: 73f1 d0bc 4fe3 24be b54c 543c 1edb 72bd
00000230: d680 973c e757 2abe 19e8 563d b3e9 cabd
00000240: 84be c9bd 8fc2 063c 0a24 8dbd 3116 183d
00000250: 7aae 783e a264 fb3c 8906 00be 1a64 f53c
00000260: ba9f 823d dd25 54bd 0740 fa3d 1b54 7bbd
00000270: adda d5bd ed67 31be 55a2 063d 8fb3 dbbd
00000280: d6d1 bfbc 190e 3b3e 70a7 333e f254 7bbd
00000290: 9b42 5cbe 4194 1c3e f81e 18bd 698a a3bd
000002a0: 0d0d a9bd 7884 0ebe 775d cc3b 3a4d 56bd
000002b0: 54ca 873d 866b 3d3c 3976 57be b617 923d
000002c0: 348e c6bd 55fa 2cbb d354 203d 4b5e fdbd
000002d0: b58a aa3d 7e82 0a3d b4a3 3ebe 4fb5 02bd
000002e0: dad8 6cbe 13a5 083e 707a 083e c59f d0bd
000002f0: 2f01 36be 8395 303c cec4 f33c 7c68 933d
00000300: 7aab 84bd afbf 4dbe 54e1 363e 6ae3 76bd
00000310: f31e b43d 9121 533c df37 3a3e db2e 45be
00000320: 1307 e13d 161c a33b 3b6c 9b3c 4cb4 083e
00000330: 2e0c e03c bef3 07be abf9 983d 8fc7 96bb
00000340: 3269 eebc 824c b9bd dd59 50bd 16e7 803d
00000350: d0ae 1c3d c741 af3c 090e 1f3d f35f 81bd
00000360: 28bd 943c 3e95 0cbd 1eb9 f73d 038f a53c
00000370: 561a 9a3d 3284 2bbd 9ca5 1fbe 559e c23d
00000380: 1573 e03d d4c9 31bc 8a3b 503e 0c89 10be
00000390: 2beb 4ebc e1aa 37bd f921 eb3d 641f a2bd
000003a0: e66e 28be 8b6b 19be fe6c a6bd dbda be3d
000003b0: 1c4f 03bc 82a0 843e dd2e 83bd b4c7 82bd
000003c0: 634a 7bbc 0726 3bbe 1041 0f3e 4a74 debd
000003d0: 1633 9bbd 5e92 023e d7ae 793d f2c7 0cbe
000003e0: c166 bc3c 604a 9c3d d0cc 2f3d fbb4 363e
000003f0: 052d a7bd 3c0e 3d3d 1149 02be 0628 d43d

linear2.bias f4 [110]
0.065567836 0.0455941 0.065879144 0.08913096 0.03788932 0.034587543 0.10576318 0.008506424
0.0854172 -0.055076517 0.10839093 -0.004246752 0.097014956 0.0003147849 0.16434681 0.12833807
0.119837806 0.09798289 0.06623238 0.011631881 0.06653679 0.072785325 0.06669495 0.034573454
0.06899394 0.021137042 0.015626933 0.13238193 0.0576558 0.028516239 0.15092243 0.10373457
0.022268994 0.06296934 0.026395118 0.0050186254 0.10696181 0.059826713 -0.022005472 0.046073794
0.07464166 0.059141017 0.044699 0.08171714 0.11714831 0.11398817 0.060063098 0.048187394
0.10800093 0.0654986 0.13312337 0.07964787 0.04704096 0.1253006 0.07833287 0.042396758
0.08845582 0.035934404 0.06816733 0.096409395 0.051708568 0.11988871 -0.031292275 0.112561606
-0.0067584044 0.14742166 0.06383708 0.10935041 0.03253644 0.04286197 0.057615552 0.120785564
0.052879345 0.076544814 0.06338034 0.12648384 0.108545125 0.084268734 0.08734634 0.038066145
0.06651004 0.12826024 0.18957116 0.17523305 0.19098996 0.012714254 0.063213766 0.06678558
0.12091398 0.07537713 0.054169033 0.038887873 0.07161951 0.07312799 0.08992753 0.07083924
0.066724055 0.11878263 0.077790506 0.090586364 0.033673972 0.18233334 0.03790693 0.073446386
0.044113632 0.029286733 0.064804524 0.040792122 0.08598764 0.08988883
00000000: 6e48 863d e1c0 3a3d a5eb 863d 4b8a b63d
00000010: d531 1b3d abab 0d3d 5e9a d83d 875e 0b3c
00000020: 37ef ae3d ea97 61bd 10fc dd3d 5628 8bbb
00000030: c7af c63d b709 a539 884a 283e 0e6b 033e
00000040: 866d f53d 41ab c83d d8a4 873d a593 3e3c
00000050: 7144 883d 7910 953d 5d97 883d e59c 0d3d
00000060: b24c 8d3d 9727 ad3c 0e04 803c 218f 073e
00000070: 7d28 6c3d e39a e93c 698b 1a3e ca72 d43d
00000080: 776d b63c 12f6 803d 933a d83c 4873 a43b
00000090: cb0e db3d db0c 753d d244 b4bc e0b7 3c3d
000000a0: badd 983d da3d 723d 4c16 373d 515b a73d
000000b0: 74eb ef3d a172 e93d b904 763d 2560 453d
000000c0: 972f dd3d 2124 863d 7e51 083e 6c1e a33d
000000d0: 06ae 403d cd4e 003e fc6c a03d 39a8 2d3d
000000e0: 5328 b53d f42f 133d 509b 8b3d 4a72 c53d
000000f0: 5dcc 533d 3688 f53d 542c 00bd b386 e63d
00000100: 9b75 ddbb b4f5 163e 04bd 823d 1cf3 df3d
00000110: ee44 053d 0890 2f3d 49fe 6b3d 6c5e f73d
00000120: 0398 583d 87c3 9c3d 8dcd 813d fb84 013e
00000130: e84c de3d 1695 ac3d a3e2 b23d 3feb 1b3d
00000140: 6a36 883d a756 033e f11e 423e 4b70 333e
00000150: df92 433e 724f 503c 3876 813d e1c6 883d
00000160: c0a1 f73d 535f 9a3d 59e0 5d3d e448 1f3d
00000170: 40ad 923d 21c4 953d ed2b b83d 2a14 913d
00000180: 9fa6 883d 4f44 f33d a150 9f3d 5885 b93d
00000190: b8ed 093d 97b5 3a3e 4c44 1b3d 0f6b 963d
000001a0: 7fb0 343d bbea ef3c 3cb8 843d a415 273d
000001b0: 4a1a b03d a317 b83d
