policy_net_force_move.pth (torch, 96695 bytes, 22 tensors)

conv1.weight f4 [16, 1, 3, 3]
000000 a9 2c 81 3d 77 0b 18 bc 9d 42 c5 bd 52 c2 49 3e
       0.063073464 -0.009280077 -0.09631846 0.19703034
000010 bc 97 0a 3c f3 30 c5 bd 7a 2c 3d bd 75 af 18 3e
       0.008459028 -0.09628477 -0.046184994 0.14910682
000020 86 11 f1 bd 8f cd ae 3d 68 2c 1b 3e e1 3c 96 bd
       -0.117709205 0.08535301 0.15153658 -0.073358305
000030 53 3a 1c be ba df cf 3d ba dc 31 3e bf 30 9f bd
       -0.15256624 0.10150094 0.17369357 -0.077729695
000040 df e6 38 be d7 81 e8 bb f2 cf 1e be 11 1d 39 be
       -0.1805682 -0.0070955562 -0.15509012 -0.18077494
000050 12 a9 f6 3d 2a 36 1e bc 12 4c 38 3d 62 13 b8 3c
       0.12043966 -0.009656468 0.04499442 0.02247018
000060 10 e4 d7 bd e0 70 db bc 24 db 75 bc de f5 c3 3d
       -0.10541546 -0.026787221 -0.0150058605 0.0956838
000070 6f 11 cc bd fd 87 19 3e 91 13 ef 3d 5f d4 e5 bd
       -0.09964263 0.14993282 0.11673654 -0.11222147
000080 04 98 40 be 44 fa 2b be 8c b2 21 be 3b 91 f4 bd
       -0.1880799 -0.16794688 -0.15790766 -0.11941763
000090 7b 23 92 3d 3d 50 83 3d 87 58 9f 3c 28 61 b1 bd
       0.071356736 0.064117886 0.019451393 -0.08661109
0000a0 15 28 48 3d 31 2f 03 be 6c c9 69 bd e9 fb 12 bd
       0.04886635 -0.12810971 -0.057076856 -0.03588477
0000b0 72 65 a2 3d 57 b3 b1 3d 05 9d 05 3e cc 0a 22 3e
       0.079295054 0.086767845 0.1304818 0.15824431
0000c0 73 3a e9 3d 46 87 eb bd d4 5a ed 3d 65 f7 34 be
       0.113881014 -0.11500411 0.1158959 -0.17672499
0000d0 63 fd 19 3e f7 0a f0 bd 90 9e 1d bc 27 5f 0c 3e
       0.15038066 -0.117208414 -0.009620324 0.13708173
0000e0 49 74 30 be db 5a 1a 3e fe fa 2a be 5b 04 e3 bd
       -0.1723186 0.15073721 -0.16697308 -0.11084815
0000f0 10 a1 8b 3d aa 5c 36 3e 8d 0c 77 3d e9 8f 0e be
       0.068178296 0.17808786 0.060314704 -0.13922085
000100 3e 35 c0 3d 02 76 9c 3c d3 fb d1 bd 04 31 2a 3e
       0.09385155 0.01909924 -0.1025311 0.1662026
000110 25 0c 1d 3e 5b c9 e4 bc bb 8e 50 bc c3 7e 25 3e
       0.15336664 -0.027928045 -0.012729342 0.16161637
000120 09 9b d5 bd ac ad cd bd 31 6a 11 3e 2b 9b 48 bd
       -0.10429961 -0.10042891 0.14200665 -0.048976105
000130 a7 61 b5 3d b0 63 37 be 2c 48 1a 3c d0 99 63 bd
       0.08856516 -0.17909122 0.009416621 -0.05556661
000140 b5 24 0c be 1b 02 91 3d 4b 1e 7b bd 64 b3 49 3e
       -0.13685878 0.0708048 -0.061308187 0.19697338
000150 0c 04 0a be ea 75 92 3d 3d 28 3c be 03 bc 46 3e
       -0.13478106 0.071513966 -0.18374725 0.19407658
000160 15 9a 9e 3d 0a bb b9 3d 8f 29 09 3e 7c ee ea 3d
       0.077442326 0.09068878 0.1339476 0.114712685
000170 ce 74 90 bd 70 76 ce 3d c2 70 8c bd bb c6 a5 bd
       -0.07053529 0.10081184 -0.06857444 -0.080945455
000180 19 b9 1d be 09 04 12 3e 68 50 f7 3d c8 50 06 3e
       -0.1540264 0.14259352 0.12075883 0.13116753
000190 4a 42 93 bc 44 0e 13 bd f4 70 3f 3c 28 dc 25 3e
       -0.017975945 -0.035902277 0.011684645 0.16197264
0001a0 66 a4 9a 3a 30 59 33 be 0d c8 32 3d e9 8e 21 bd
       0.0011798262 -0.17514491 0.043647815 -0.03944293
0001b0 98 aa ad 3d 9e 9c 3b be b1 ff d9 bd a2 13 ec bd
       0.08479804 -0.18321463 -0.106444724 -0.11527182
0001c0 6f cc b7 bd 7f 87 b6 bd c2 1c 9a bd 6c 93 1f be
       -0.089745395 -0.089125626 -0.07525016 -0.1558358
0001d0 5a 86 43 3e ff c7 a2 bd 64 ab 1e 3e 50 4e 21 be
       0.1909422 -0.079483025 0.15495068 -0.1575253
0001e0 75 b0 cc bd 15 57 d1 3d dd f3 e3 bd b7 f4 9d 3d
       -0.09994594 0.10221688 -0.111304976 0.07712691
0001f0 a1 5d 04 3e 9d 94 29 3e f8 97 d8 bd ba 98 aa 3d
       0.12926342 0.16560598 -0.10575861 0.083299115
000200 92 fd 29 3e 39 69 3a 3d 76 ad d3 3d ed 05 00 be
       0.16600636 0.045510504 0.103358194 -0.1250226
000210 bd 18 a9 3d fa 4e 85 bd dc d8 a9 3d 5e 38 ca 3d
       0.082566716 -0.06509204 0.08293316 0.098740324
000220 05 89 26 be d3 81 45 bd 73 48 a5 bb 98 b4 c5 3d
       -0.16263206 -0.048219513 -0.005044037 0.09653586
000230 85 a7 fd bd c3 35 e4 bd ca 3c c9 3c 36 bc 90 3d
       -0.123854674 -0.11143067 0.02456512 0.070671484

conv1.bias f4 [16]
000000 15 cf 23 3c 89 f3 23 3c c6 d7 23 3c e0 c5 23 3c
       0.009998103 0.010006794 0.010000175 0.009995908
000010 20 e6 23 3c 57 ce 23 3c 9f bd 23 3c 8e d4 23 3c
       0.010003597 0.009997926 0.00999394 0.009999407
000020 2c b6 23 3c d4 e2 23 3c e8 e8 23 3c cd c7 23 3c
       0.009992164 0.0100028105 0.01000426 0.009996367
000030 be e5 23 3c 1b e8 23 3c 05 e0 23 3c 34 ea 23 3c
       0.010003505 0.010004069 0.010002141 0.010004569

bn1.weight f4 [16]
000000 e7 fc 7f 3f 78 fe 7f 3f 6d 00 80 3f a2 00 80 3f
       0.99995273 0.99997663 1.000013 1.0000193
000010 12 00 80 3f d8 fa 7f 3f 19 00 80 3f e7 fd 7f 3f
       1.0000021 0.9999213 1.000003 0.999968
000020 0f 03 80 3f 36 ff 7f 3f 17 ff 7f 3f e7 00 80 3f
       1.0000933 0.99998796 0.9999861 1.0000275
000030 c2 ff 7f 3f b3 ff 7f 3f 55 00 80 3f c2 fe 7f 3f
       0.9999963 0.9999954 1.0000101 0.99998105

bn1.bias f4 [16]
000000 0e dc 3b b8 c0 52 53 b8 5a f0 15 b7 f9 d9 4b b6
       -4.4789216e-05 -5.0383387e-05 -8.937053e-06 -3.0376234e-06
000010 e1 c3 4f 37 48 17 7c b8 da 61 3d 38 95 84 75 b7
       1.2383768e-05 -6.0103164e-05 4.5152243e-05 -1.4634007e-05
000020 4f 01 fb 38 a2 ec fb b7 47 df ea b7 dc e9 dc 38
       0.000119688564 -3.0031722e-05 -2.7998945e-05 0.00010533977
000030 7a 7a 84 b8 a4 ac 0b 38 4e a0 8c 37 6d e0 75 b7
       -6.3170635e-05 3.3300967e-05 1.6763948e-05 -1.4655391e-05

bn1.running_mean f4 [16]
000000 78 98 17 3e 94 12 07 3e 89 ae 16 bf c4 65 0f bf
       0.14804256 0.1319068 -0.5886007 -0.5601466
000010 c9 0f 20 3d d2 60 3b 3f ae 9f 51 3e 29 eb bf 3e
       0.039077554 0.7319461 0.20471069 0.374841
000020 b9 31 17 bf f6 a9 08 3f 08 f2 ef 3e 6e 6e 5a 3e
       -0.59060246 0.5338434 0.46864343 0.21331188
000030 c2 d9 69 bf 4e 22 39 3e 36 1a e6 3e 0e 14 89 be
       -0.913479 0.18079492 0.44941872 -0.26773113

bn1.running_var f4 [16]
000000 9d 42 81 3e 17 19 ba 3e 2d b5 a5 3e 5e 9c 2d 3f
       0.25246134 0.36347267 0.3236479 0.6781672
000010 9e 1e d9 3d 13 5c 15 3f 37 64 cf 3e 69 49 e9 3e
       0.10601543 0.5834362 0.40506145 0.4556382
000020 15 46 df 3e be e9 e7 3e 08 a4 aa 3e da b9 67 3e
       0.43608156 0.4529552 0.3332827 0.2262949
000030 d8 16 42 3f 06 27 d3 3e be 56 9e 3e ff b4 62 3e
       0.75816107 0.4124071 0.30925554 0.22139357

conv2.weight f4 [32, 16, 3, 3]
000000 0e b5 9f bb cf dd 69 bd 39 23 e8 3d cd 84 16 bd
       -0.0048738783 -0.0570963 0.11334843 -0.036747742
000010 31 01 e2 3d 1a a3 d7 3d d5 83 cb 3d 2f 98 6b bd
       0.110353835 0.10529156 0.09937254 -0.05751818
000020 18 c2 9a ba 8a 25 91 bd 54 a7 ce bd 09 10 b7 3c
       -0.0011807112 -0.07087238 -0.10090509 0.022346513
000030 dd 2a 13 bd 04 bd 59 bd 94 89 c3 3d 9b 03 c0 3c
       -0.03592955 -0.053158775 0.09547725 0.02343922
000040 46 49 c6 bc 5a 13 3a bd 2d 77 cb bd 87 b7 3b 3d
       -0.024204861 -0.04542861 -0.0993484 0.045829322
000050 9b dc de bc 2c 12 49 3d 17 9f 3a bd 96 3d 87 3d
       -0.027204802 0.049089596 -0.045561876 0.066035435
000060 33 fb 96 bd ee 42 c3 3d 9d 14 cd bd c7 43 35 bc
       -0.07372131 0.0953425 -0.10013697 -0.011063523
000070 e6 c4 aa 3d 3c fe 64 bd 12 9f ef 3d 33 d5 b8 3d
       0.08338337 -0.05590652 0.11700262 0.090250395
000080 b3 ff 94 bd 45 24 60 bc e0 67 5f bd 83 2d cb bd
       -0.07275333 -0.013680522 -0.054542422 -0.0992079
000090 24 82 05 3d f3 52 12 3d 60 9f 5e bd 32 e2 37 3d
       0.032594815 0.035723638 -0.05435121 0.04489345
0000a0 ad d4 d4 bd ae 2a 3e bd da 31 0e bc ce ac 2f bd
       -0.10392127 -0.04642742 -0.008678878 -0.04288941
0000b0 04 02 66 bc 18 70 5d 3d 74 be d3 3c 1e 92 67 3d
       -0.0140385665 0.05406198 0.025847651 0.056535833
0000c0 08 49 6b bd 0e 16 e9 3d 76 cd 51 bd bd ca af bd
       -0.057442695 0.1138116 -0.051221333 -0.08583591
0000d0 0a f8 e5 3d 09 bc c5 3d ab 32 be 3d a0 5d e4 bc
       0.1122895 0.096550055 0.09287008 -0.027876675
0000e0 5c c4 b0 3d eb e2 53 bd c1 67 c1 3d 41 6e f0 bc
       0.086312026 -0.051730078 0.094436176 -0.029349448
0000f0 76 a4 06 3d 32 0f 11 bd 4d d0 a9 3d e2 c5 d0 3c
       0.032871686 -0.035414882 0.08291683 0.025484983
000100 9d 23 5d 3d 5f 66 72 3c ae 68 a2 bd e6 5c 96 3c
       0.05398904 0.014794915 -0.07930122 0.018354844
000110 1a c1 a5 bd f8 47 dd bd c2 ba 5a bd ad 18 20 3d
       -0.08093472 -0.108047426 -0.053400762 0.039086033
000120 47 3f 9d 3c e2 7d 07 3d 43 85 b4 3d 1d fd b7 3d
       0.019195212 0.033079036 0.0881448 0.089838244
000130 bf d2 12 3d 00 ff cb 3d 44 db 84 bc fc 50 b6 3d
       0.035845514 0.09960747 -0.016217835 0.08902165
000140 6d ae aa bd 8d 3b 52 bd a2 c6 4e bd 61 4f 6a bd
       -0.0833405 -0.051326323 -0.0504824 -0.057204608
000150 d7 06 77 bd 66 12 de bd f3 33 92 3d 56 bf c3 bd
       -0.060309257 -0.10843353 0.07138815 -0.09557979
000160 7e 7c a2 bd 39 44 89 3d b7 6e 7b 3c 74 87 9b bc
       -0.07933901 0.067024656 0.015346221 -0.018985488
000170 4e e8 d9 bc d3 6b 4a 3d f9 60 af 3b 7c 6e a7 bb
       -0.02660003 0.049419235 0.005352136 -0.0051096063
000180 25 43 57 3d 6d 3b de 3d be 2f 77 bd 21 73 73 bd
       0.05255427 0.10851178 -0.060348265 -0.059435967
000190 87 c5 e4 3c 6b 5b d0 3d 24 94 2d 3c 32 1f 55 3c
       0.02792622 0.101736866 0.0105944015 0.013007926
0001a0 cb 69 21 bd b2 30 32 bd 23 60 a4 3d 05 ad 30 3a
       -0.039407533 -0.04350347 0.08026149 0.0006739649
0001b0 4e 18 87 bd 1b 4b f1 3d 09 6b 4e bd a8 dc d0 bd
       -0.065964326 0.11781903 -0.050395045 -0.10198337
0001c0 56 e5 d5 bd 01 08 8f 3d 4a 7a d9 bd 86 b4 6f 3d
       -0.10444133 0.069839485 -0.10619028 0.05852177
0001d0 a2 da c9 3d 38 8c cc 3c 11 88 2b bc cb d1 d9 3d
       0.09856154 0.024969205 -0.0104694525 0.10635718
0001e0 8b 4a 29 3d d3 c9 38 bd 32 88 66 3c 79 c6 eb 3d
       0.041330855 -0.04511435 0.014070557 0.11512465
0001f0 4e af 47 3d ee fa 9a 3c 7b 3a cf bc d5 0d a6 3d
       0.048751168 0.01891848 -0.02529644 0.08108107
000200 b2 e2 1d 3d 8f 7e ef bd 5f 0e c0 3d 2e 9c 9a bc
       0.03854627 -0.11694061 0.09377741 -0.0188733
000210 b2 f4 35 bc 94 2d 89 bc 0b 73 13 3d 52 51 00 bd
       -0.011105703 -0.016745366 0.035998385 -0.031327553
000220 93 50 40 bd 07 a2 9c 3d d2 3c c0 bc 80 6d 84 3d
       -0.04695184 0.07648092 -0.023466501 0.06466198
000230 11 65 e4 3c 05 ee 1d 3d e6 61 83 bd e6 09 ce bd
       0.027880223 0.03855707 -0.06415157 -0.10060482
000240 13 a6 d4 3d e1 68 d2 bd db 21 27 bc 48 57 cd 3d
       0.10383239 -0.1027391 -0.010200943 0.10026413
000250 dc 7c 8b bd 5f 8e 2e bc c9 44 0b 3d 71 b3 fb 3c
       -0.068109244 -0.010654061 0.034001146 0.030725213
000260 a3 0b 18 3d 65 5a 78 3d 4d cb cb 3d c5 2d e8 bc
       0.037120473 0.060633082 0.09950886 -0.028342137
000270 5f 04 08 bc e2 5e 83 bd e1 c0 58 3d 3d 76 50 bb
       -0.008301823 -0.06414582 0.05291832 -0.0031808757
000280 a9 9c f5 3c 11 50 d2 3c ec ad b8 3d 9f 3b bf 3d
       0.029981928 0.025672944 0.09017548 0.09337544
000290 d6 93 91 bd b8 ba 6b 3d cc a3 42 bd f0 30 c0 bd
       -0.071082756 0.057551116 -0.04751949 -0.09384334
0002a0 50 18 ac bd 7a 41 c9 bd 17 a8 bc 3d 71 be db bd
       -0.08403075 -0.09826942 0.09211748 -0.10729683
0002b0 00 18 2d bd 23 c0 af 3d 2f e0 9b 3d b5 d4 99 bd
       -0.042259216 0.08581569 0.07611119 -0.07511274
0002c0 f1 d1 dd bd b1 f9 d5 3b 7e c0 d6 bd dc 97 ec 3d
       -0.10831059 0.0065300097 -0.10485934 0.115524024
0002d0 cd 1b c5 3d 65 bc c6 bd db 2f 7d bd 8c 61 e5 bd
       0.09624443 -0.09703902 -0.061813217 -0.11200246
0002e0 cf 0b b6 bc d3 04 0a bd 01 ab 05 bb 49 bf bb bd
       -0.022222428 -0.033696007 -0.0020396116 -0.09167344
0002f0 f2 46 cc bc ee 46 75 3d 81 69 cc bd b1 2e cc bd
       -0.024936173 0.059882097 -0.09981061 -0.09969843
000300 e4 d6 aa 3b 67 44 33 3c 25 bb 53 bd 0b 5c a8 3d
       0.0052136052 0.010941601 -0.051692147 0.08220681
000310 0d 89 a2 3d 2e 8d c2 bd c5 d0 5f bb fb c4 08 bc
       0.079362966 -0.09499584 -0.0034151536 -0.008347745
000320 15 e7 d8 3d 93 f2 85 3d 03 00 e1 bc 79 fb 70 bc
       0.105909504 0.06540408 -0.027465826 -0.014708393
000330 88 14 8b 3b a9 44 23 3d 7e 3c e7 bd 1a 02 38 bd
       0.004244391 0.0398604 -0.11290835 -0.04492388
000340 24 f1 cc bd f4 f3 ef 3d 35 be 57 3d 84 8f ba bd
       -0.100069314 0.11716452 0.05267163 -0.09109405
000350 91 0f ba bd f6 31 ca bd c3 b6 76 bd 45 35 e5 3c
       -0.09085 -0.098728105 -0.06023289 0.027979502
000360 61 b6 be bd 11 fd 09 bc 2a f6 a9 bd 1b 8f 9d bd
       -0.0931213 -0.008422152 -0.08298905 -0.07693311
000370 67 d8 d9 bd 87 9e e7 bb 16 34 79 bd 8c 3c 9c 3c
       -0.106369786 -0.0070684585 -0.06084069 0.01907184
000380 26 4d cf 3d 68 cc 65 bd d2 35 a0 3d 8f 21 bc 3d
       0.10122137 -0.05610314 0.078227654 0.09186088
000390 ba a1 f7 3c 3d 19 ac 3d 6e c4 9a bc bc ad d4 3d
       0.030228484 0.08403251 -0.018892493 0.103847
0003a0 54 dd 0c bd 31 29 b2 3d d7 64 d1 bc f4 5d cd 3d
       -0.034390762 0.08699263 -0.02556078 0.10027686
0003b0 9e 74 f2 3b 1c 9f c9 3d 33 a7 ab bd 8e 50 d8 bd
       0.0073991558 0.09844801 -0.083815 -0.105622396
0003c0 6f 49 df 3d d9 27 2e bd 0e 4d 75 3d 25 42 1d 3d
       0.10902678 -0.04251847 0.05988794 0.03839316
0003d0 06 2a 14 bc 25 9e a2 3d 94 1e 8e bd 47 12 86 bd
       -0.009043222 0.0794032 -0.06939426 -0.06546455
0003e0 c3 e1 61 ba 8d 83 fd 3c 8a f0 9d 3c f0 6c 98 3d
       -0.000861671 0.030946517 0.019279737 0.07442653
0003f0 9f 85 d4 3d fe 4e 58 3d 5a 9a 6a bd b9 09 b6 3d
       0.10377049 0.052809708 -0.057276107 0.08888573

conv2.bias f4 [32]
000000 e2 de 23 3c b6 cf 23 3c f0 db 23 3c 01 df 23 3c
       0.01000187 0.009998253 0.010001168 0.010001899
000010 1f d6 23 3c 32 de 23 3c 02 e0 23 3c 9e cd 23 3c
       0.009999781 0.010001706 0.010002138 0.009997753
000020 1c d0 23 3c 0b d8 23 3c 15 db 23 3c d0 e8 23 3c
       0.009998348 0.010000239 0.010000964 0.010004237
000030 71 d9 23 3c 51 d0 23 3c c2 c7 23 3c c6 d9 23 3c
       0.010000573 0.009998397 0.009996356 0.010000652
000040 00 d1 23 3c 22 d4 23 3c 96 ce 23 3c a5 ca 23 3c
       0.00999856 0.009999307 0.009997984 0.009997045
000050 5d d4 23 3c 2b d1 23 3c 87 e5 23 3c 57 d6 23 3c
       0.009999362 0.0099986 0.010003454 0.009999833
000060 30 c2 23 3c db db 23 3c 02 d8 23 3c ce e1 23 3c
       0.009995028 0.010001148 0.010000231 0.0100025665
000070 43 d5 23 3c b9 cd 23 3c fd e5 23 3c b4 db 23 3c
       0.009999576 0.009997779 0.010003564 0.010001112

bn2.weight f4 [32]
000000 d3 fe 7f 3f b9 01 80 3f a6 fd 7f 3f b9 fe 7f 3f
       0.99998206 1.0000526 0.9999641 0.9999805
000010 01 00 80 3f c4 ff 7f 3f 0e ff 7f 3f d5 01 80 3f
       1.0000001 0.9999964 0.9999856 1.0000559
000020 05 00 80 3f 5c fd 7f 3f 31 fc 7f 3f 79 fd 7f 3f
       1.0000006 0.9999597 0.9999419 0.99996144
000030 0b fc 7f 3f 9f fc 7f 3f 8e 00 80 3f 18 00 80 3f
       0.9999396 0.99994844 1.0000169 1.0000029
000040 05 00 80 3f 28 02 80 3f 58 ff 7f 3f 27 01 80 3f
       1.0000006 1.0000658 0.99999 1.0000352
000050 f8 00 80 3f 08 00 80 3f 30 fe 7f 3f 79 ff 7f 3f
       1.0000296 1.000001 0.99997234 0.99999195
000060 62 01 80 3f d4 fc 7f 3f fc 04 80 3f 41 00 80 3f
       1.0000422 0.9999516 1.0001521 1.0000077
000070 6b fa 7f 3f 12 00 80 3f 6e fb 7f 3f 7e fb 7f 3f
       0.9999148 1.0000021 0.99993026 0.9999312

bn2.bias f4 [32]
000000 0d df 2f 38 33 b8 16 39 dd 51 c4 b8 e8 e9 c6 b8
       4.1930984e-05 0.00014373734 -9.3612565e-05 -9.484944e-05
000010 20 bc ff b7 bc f2 ff 37 87 84 c4 36 62 40 39 39
       -3.0485971e-05 3.05114e-05 5.8566834e-06 0.0001766696
000020 e3 e9 df 38 41 5d 20 b8 1c 8d b8 b8 72 de 2e b8
       0.000106770334 -3.8233822e-05 -8.8000874e-05 -4.1692e-05
000030 4d d9 fa 37 b7 80 55 b6 f7 4e a3 38 94 49 89 38
       2.9903511e-05 -3.1814395e-06 7.787154e-05 6.546374e-05
000040 77 ea 3f 38 26 e2 60 38 53 9e be b7 42 29 74 b6
       4.575631e-05 5.361638e-05 -2.272349e-05 -3.6382849e-06
000050 6c a2 35 38 f3 a8 12 36 63 aa 04 39 fb 1c 85 b7
       4.330503e-05 2.1854037e-06 0.00012651975 -1.586833e-05
000060 6b e1 1f 39 4d b2 84 b5 c1 7a 1d 39 e0 ac 97 38
       0.00015247396 -9.886659e-07 0.00015018416 7.2324416e-05
000070 fb e1 54 b8 48 8e c0 38 3b 00 0c b9 75 b9 16 38
       -5.07552e-05 9.1817754e-05 -0.00013351526 3.5935507e-05

bn2.running_mean f4 [32]
000000 84 b9 72 3e 2d 5f c2 3d a6 29 a4 3d 70 72 57 be
       0.23703581 0.094908096 0.08015756 -0.21039748
000010 8d 2c 37 be cc ba 45 3e 67 33 ac bd 3c ae 79 bd
       -0.17888089 0.19309539 -0.08408242 -0.06095718
000020 6d 86 81 3c f2 85 82 bb cd ce 4b 3e 2d 5b 97 be
       0.01581117 -0.0039832527 0.19903107 -0.2956175
000030 66 6f d4 3d 3f ca ed 3d 37 42 8e bc 85 70 c8 be
       0.1037281 0.11610841 -0.017365558 -0.39148346
000040 f0 06 ff 3e 42 47 c3 3c 85 58 09 3e 43 57 03 3e
       0.4980998 0.02383769 0.13412674 0.12826256
000050 eb a8 07 bf f6 f1 eb be 6c b4 c4 be a5 1e 8c 3e
       -0.52992123 -0.4608304 -0.384189 0.2736713
000060 9f 5d 2a be 78 43 7c 3e 56 eb 9e be 57 d5 0b 3f
       -0.16637276 0.24635112 -0.31038922 0.54622406
000070 6f e0 f7 3e e4 2d 4c be f8 6a 6c bc 69 49 0f bf
       0.48413417 -0.19939381 -0.0144298 -0.5597139

bn2.running_var f4 [32]
000000 c0 36 36 3e 1c 36 8c 3e 4a 8c 3f 3e 68 c1 37 3e
       0.17794323 0.27385032 0.1870586 0.17944872
000010 9e 56 9c 3e ed 80 2d 3e 78 3d 71 3e 70 f6 73 3e
       0.30534834 0.16943713 0.23558605 0.23824477
000020 15 eb fb 3d 5a 6f 5e 3e 8b 67 3c 3e 8f 2a d4 3e
       0.12300698 0.21722165 0.18398874 0.4143872
000030 5e fc 98 3e ac 56 a8 3e dd f5 53 3e bd a9 87 3e
       0.2988004 0.32878625 0.20699258 0.26496688
000040 50 8e 3c 3e a8 f7 72 3e e7 af 77 3e b9 15 0f 3e
       0.18413663 0.23727286 0.24188195 0.1397313
000050 f7 07 11 3e 4c 0f 80 3e 7a d6 14 3e 41 0f 12 3e
       0.14163195 0.2501167 0.14534941 0.14263631
000060 88 7d 65 3e a8 bb 50 3e 0f 80 98 3e 26 28 19 3e
       0.22411168 0.20384085 0.297852 0.14956722
000070 31 b6 24 3e af 69 d0 3e 4b aa 4f 3e 29 b1 bb 3e
       0.16085126 0.4070563 0.20279805 0.366586

conv3.weight f4 [32, 32, 3, 3]
000000 1a 92 83 3d 6b 03 b9 bd 0a 38 07 3d 13 97 52 3c
       0.06424351 -0.09033855 0.033012427 0.012853402
000010 74 63 2c 3b 5e 31 fa bc 5a 11 f6 bb 53 24 4a 3d
       0.0026304396 -0.030541118 -0.0075093927 0.049351048
000020 8d 69 59 3d 45 e6 9b 3d 59 45 5a 3b c4 ab 53 3d
       0.053079177 0.0761228 0.0033305495 0.05167748
000030 94 9e 73 bc a0 05 36 3c 2f e1 fb 39 17 1a ad 3d
       -0.014869351 0.01110974 0.00048042226 0.08452242
000040 16 06 b8 3c 6c dd 88 3c 42 98 a4 3d 00 c6 9e bd
       0.02246384 0.016707145 0.080368534 -0.07752609
000050 21 0f 88 bd 9f dd 8c bd de 09 8e 3c b6 2a 13 bc
       -0.066435106 -0.06878208 0.01733869 -0.008982351
000060 4e 20 8a 3d 1f f2 54 bd 73 f9 01 3c 6a f1 c0 3d
       0.06744443 -0.051988717 0.0079330085 0.09421046
000070 42 24 cb bd f4 20 fb bc ad 69 a6 3d aa 6b 0d 3d
       -0.09919025 -0.030655362 0.08125625 0.034526505
000080 d4 72 35 bd 0a 48 d2 bc 83 3b 5c bd c1 22 c7 bd
       -0.04429896 -0.025669117 -0.053767692 -0.09723426
000090 71 ca d0 3d 27 b0 7e bd f9 59 1b bc 4b e9 47 bd
       0.10194863 -0.06217971 -0.0094819 -0.04880647
0000a0 1d 8c ac bd 3e b5 a6 3b 34 4c af 3d f2 86 54 3c
       -0.08425162 0.0050875237 0.085594565 0.012971627
0000b0 df d3 92 bd 9e 8f 94 3d 04 a8 b8 bc 05 19 33 3d
       -0.071693175 0.07253955 -0.022541054 0.043725032
0000c0 92 05 68 bd 4c 28 ae 3d 30 9f 11 bd 3b 26 68 3c
       -0.056645937 0.0850378 -0.035552204 0.014169271
0000d0 78 e6 a7 3d b8 4c b4 3d 45 c8 ab 3d 3c de 3a bd
       0.08198255 0.088036954 0.08387808 -0.045622095
0000e0 96 f3 68 3d 61 34 22 3d 6f b5 82 bc b1 4b 64 3d
       0.056872927 0.039600734 -0.015955655 0.055736247
0000f0 f1 a8 10 3d 98 bb 84 bd 35 97 91 3d d4 a1 5e bd
       0.035317365 -0.06481093 0.071089186 -0.05435355
000100 04 47 b9 bd 46 17 91 3c a3 1e 6b bd 93 2c 4b bd
       -0.09046748 0.017711293 -0.057402264 -0.049603056
000110 19 74 44 bd 21 3a 80 3d 61 ea 84 3d 67 5f af bc
       -0.04796228 0.06261087 0.06490017 -0.021407796
000120 48 99 21 3d 95 6d 9c bd f8 6e ce 3d c3 4a 1a bd
       0.03945282 -0.076380886 0.10079759 -0.037668955
000130 36 ca bc 3d e0 2d 9c 3d f5 6f 8a 3d 88 58 1b bd
       0.09218256 0.076259375 0.06759635 -0.037926227
000140 84 3b 8e 3d 6a f7 13 3d 51 ee 09 3d 2e c6 50 3d
       0.069449455 0.036124624 0.03367454 0.05097025
000150 54 21 98 bd 65 f9 6c 3d 97 a0 90 bd f6 6b 9e 3d
       -0.07428232 0.05785503 -0.0706188 0.07735436
000160 5f 69 8d bd 00 70 95 3d 44 a3 af 3d 39 5f cd 3d
       -0.069048636 0.07296753 0.08576062 0.10027928
000170 36 d9 cd bc 28 a8 69 bd e3 28 f2 3c c3 41 26 bd
       -0.025127988 -0.057045132 0.029560512 -0.04059006
000180 89 c0 47 bd 0d 74 7a bb b4 4a 32 3c 8c 7d 57 bd
       -0.0487676 -0.0038216144 0.010882068 -0.052609965
000190 9a 0a 24 3d f2 20 62 bd 3f 5f 93 bd b0 5b a9 bc
       0.040049173 -0.0552072 -0.07195901 -0.020673603
0001a0 03 04 bb bd 8e 8d 3a bd 78 b8 5a ba 5e ee 85 bd
       -0.091316245 -0.045545153 -0.0008343528 -0.065396056
0001b0 30 ec 15 bc 42 eb 56 bd 6a f5 dc 3a 08 d7 cd bb
       -0.00915055 -0.052470453 0.0016857807 -0.0062817372
0001c0 56 ec 9a 3d a3 e3 a9 bd e5 7a 80 bc c0 3b a5 3d
       0.07564609 -0.082953714 -0.0156836 0.08068037
0001d0 94 37 bc bc e1 7b b4 bd 77 47 a9 3d d5 67 61 bd
       -0.02297572 -0.088126905 0.08265584 -0.055030663
0001e0 ba f4 a1 bd 39 fd 2e 3d 89 de 4d 3b f0 c9 33 bd
       -0.07908006 0.04272196 0.003141316 -0.043893754
0001f0 07 d9 b3 3d 56 1a b8 bd 52 b8 b8 3d 56 41 11 bd
       0.08781629 -0.08989398 0.09019531 -0.0354627
000200 ac 2a c6 bb 44 62 5b 3d 45 e6 6f bd 1d cd 0c bd
       -0.0060475674 0.05356051 -0.05856921 -0.0343753
000210 09 e6 8a bd 43 53 74 3c 2a 4c aa 3a 75 9d 9e 3c
       -0.06782157 0.014912429 0.0012992669 0.01936219
000220 0d c4 a8 3b 6d da de bc c1 da b3 bd da 5a b0 3d
       0.005150324 -0.027203763 -0.08781958 0.086110786
000230 b5 02 d8 3b 18 1f bb bc 05 42 53 3d 5f dd 44 3b
       0.0065921196 -0.022841975 0.051576633 0.0030039174
000240 9e 70 6d bc 7c c8 6d bc 4b e0 73 3c 2b 47 fc bc
       -0.014492182 -0.014513131 0.014885019 -0.030795654
000250 c4 5e 9a 3d d9 ad 2b bc 97 5a 01 bd fa 68 91 bb
       0.07537606 -0.01047846 -0.031580534 -0.004437563
000260 d8 2b ac 3d db 45 64 bc d5 c5 48 bd 64 14 c5 bd
       0.084068 -0.0139326705 -0.049016792 -0.0962303
000270 da b7 64 3d 74 61 b7 bc 36 79 1b bd 6a 7c ef 3c
       0.055839397 -0.022385336 -0.037957393 0.02923413
000280 16 65 ad 3d fd 1c 19 bd 81 37 8c bd ad c8 a7 3c
       0.08466546 -0.03738116 -0.06846524 0.020481432
000290 30 2d c8 3d 07 57 95 3d 9f 8c b5 bc 27 43 c3 bd
       0.09774244 0.0729199 -0.02216178 -0.09534293
0002a0 20 b4 c9 bd c8 1b 4a bd f1 7c c8 bd ef 1d 9d 3c
       -0.09848809 -0.0493429 -0.09789456 0.019179313
0002b0 7c db a4 bd d7 8f ec bc 1b c5 d5 3c 5d 9d b8 bd
       -0.08049676 -0.028877182 0.026094964 -0.0901439
0002c0 33 9e 2d 3d 18 73 04 bd 0b 41 c5 3c f3 f2 c4 bb
       0.0423872 -0.032336324 0.024078866 -0.006010407
0002d0 f0 3c 90 3d 60 72 77 3d 4c 92 97 bd 5e ed 1e 3c
       0.07042873 0.06041181 -0.07400951 0.009700147
0002e0 71 b0 c6 3d 15 06 b4 bd 37 a6 9e bd 11 35 ba 3d
       0.09701622 -0.087902226 -0.07746547 0.09092153
0002f0 46 06 8a 3d 93 58 bc bd 71 bc 89 3d 61 ef b6 3d
       0.06739478 -0.09196582 0.067253955 0.08932377
000300 6b 87 87 bc 84 9f 32 bd ec 5a 7d 3d 44 c6 6d 3d
       -0.016544065 -0.043609157 0.061854288 0.05805041
000310 13 4e 7f bd b7 84 a3 3d 05 fd 96 bd f0 0c 90 bd
       -0.062330317 0.07984298 -0.073724784 -0.07033718
000320 f7 cf 87 bd 14 7a 9a bc 70 63 98 bc 5d 51 bf 3d
       -0.06631463 -0.01885704 -0.018602103 0.09341691
000330 57 4c 5a bd cc d9 ab 3d aa 49 8b bd 4e 5b 82 3b
       -0.05329546 0.08391151 -0.0680116 0.0039781695
000340 aa 57 ac bc e0 d1 67 3d ea 9b c5 bc 4c 72 9f 3d
       -0.021037895 0.056596637 -0.024122197 0.07785472
000350 ec 90 aa 3d 97 92 55 bd 58 f9 0b 3d e0 17 65 bd
       0.08328423 -0.052141752 0.03417334 -0.055930972
000360 6e 8c 68 bd cd e6 c3 bd 1c 13 49 bd 9a 17 23 3d
       -0.05677455 -0.09565506 -0.04909049 0.03981743
000370 2c 3f 9e 3d 0c b2 92 bd 83 bc 46 3d e3 37 0a bd
       0.07726893 -0.07162866 0.048519623 -0.033744704
000380 b6 ac 7f bd cf 14 4e bd 82 c6 91 3d e0 62 aa bc
       -0.06242057 -0.050312813 0.071179405 -0.0207991
000390 06 54 77 3d 90 2f 9c bd 95 9e 93 3d 0b 29 a8 bd
       0.060382865 -0.07626259 0.072079815 -0.08210953
0003a0 03 10 a7 3d 7b f1 82 bd 87 a9 c1 3c f0 b4 8a 3c
       0.08157351 -0.06393715 0.023640407 0.01693198
0003b0 f1 27 6c bc de 87 bb bd 38 49 87 bc a3 f6 c8 3d
       -0.01441382 -0.09156774 -0.016514406 0.09812667
0003c0 81 99 85 bd 54 62 ce 3d 50 d5 1c bd 8b de 51 bd
       -0.06523419 0.10077348 -0.03828937 -0.051237624
0003d0 25 b3 1a bd d8 d1 fc bb 5d a8 c3 bd 92 d2 aa 3d
       -0.0377685 -0.007715445 -0.09553597 0.08340944
0003e0 b2 54 8f bd 6c 23 48 3c 85 7c 1c bd ac e3 45 3d
       -0.06998576 0.0122154765 -0.03820469 0.048312828
0003f0 b9 5a a8 bc 25 64 c6 bd 5b bf b5 3d 0a ff cf bd
       -0.020551072 -0.0968707 0.08874389 -0.10156067

conv3.bias f4 [32]
000000 08 db 23 3c 4e d3 23 3c d5 e0 23 3c e5 d2 23 3c
       0.010000952 0.009999109 0.010002335 0.009999012
000010 3e d8 23 3c 88 d5 23 3c 42 d6 23 3c 21 d1 23 3c
       0.010000287 0.00999964 0.0099998135 0.009998591
000020 53 d9 23 3c 72 da 23 3c 4c d5 23 3c 47 da 23 3c
       0.010000545 0.010000812 0.009999584 0.010000772
000030 e4 de 23 3c ad d0 23 3c ef dc 23 3c 04 d5 23 3c
       0.010001872 0.009998483 0.010001405 0.009999517
000040 d3 d9 23 3c 49 d9 23 3c 60 cd 23 3c 74 cd 23 3c
       0.010000664 0.010000535 0.009997696 0.009997714
000050 b3 db 23 3c 19 ca 23 3c 22 da 23 3c bb cf 23 3c
       0.010001111 0.009996914 0.010000737 0.009998257
000060 84 d3 23 3c 49 e1 23 3c 23 dc 23 3c 8a ca 23 3c
       0.00999916 0.010002443 0.010001215 0.00999702
000070 7f cf 23 3c 13 d2 23 3c a5 df 23 3c b7 d6 23 3c
       0.009998201 0.009998816 0.0100020515 0.0099999225

bn3.weight f4 [32]
000000 0c 0b 80 3f 63 ee 7f 3f 18 fc 7f 3f 91 04 80 3f
       1.0003371 0.99973124 0.9999404 1.0001394
000010 e6 02 80 3f 5f 01 80 3f f8 0b 80 3f f7 08 80 3f
       1.0000885 1.0000418 1.0003653 1.0002736
000020 cb 02 80 3f 81 07 80 3f 99 00 80 3f 67 00 80 3f
       1.0000852 1.000229 1.0000182 1.0000123
000030 20 05 80 3f 66 f9 7f 3f d2 03 80 3f e0 07 80 3f
       1.0001564 0.99989927 1.0001166 1.0002403
000040 6a 02 80 3f 02 03 80 3f b6 04 80 3f f3 06 80 3f
       1.0000737 1.0000918 1.0001438 1.0002121
000050 21 08 80 3f 25 01 80 3f 30 f9 7f 3f 9f 06 80 3f
       1.0002481 1.0000349 0.99989605 1.0002021
000060 a1 02 80 3f fa 00 80 3f af 06 80 3f 0d 01 80 3f
       1.0000802 1.0000298 1.000204 1.0000321
000070 fa 07 80 3f 36 00 80 3f 85 06 80 3f fd fb 7f 3f
       1.0002434 1.0000064 1.000199 0.9999388

bn3.bias f4 [32]
000000 08 72 bb 39 56 03 9a b9 35 31 68 b8 1e 06 8a 39
       0.0003575238 -0.00029375654 -5.5358938e-05 0.0002632597
000010 b7 b0 80 39 49 49 02 39 e8 5c 96 39 db 83 93 39
       0.00024545725 0.00012425067 0.0002867945 0.00028136265
000020 e0 d6 1d 39 af 64 8c 39 ef e2 6c 38 14 5e ce b7
       0.00015052734 0.00026777896 5.6478133e-05 -2.4600922e-05
000030 e4 7e 6a 39 3b aa 16 b9 21 15 46 39 ac 22 8e 39
       0.0002236325 -0.0001436853 0.00018890623 0.00027110183
000040 be 74 cd 38 de 31 0f 39 01 c5 61 39 96 a5 68 39
       9.796907e-05 0.0001365612 0.00021531062 0.0002218693
000050 65 21 8d 39 54 31 39 39 4e 4b 22 b9 0a f9 92 39
       0.00026918497 0.00017661351 -0.00015477577 0.0002803284
000060 1e f8 12 39 f9 6c c9 38 ba 30 86 39 a1 cb c7 37
       0.00014016076 9.6047246e-05 0.00025594776 2.381747e-05
000070 68 27 80 39 2b 10 49 38 d8 3e 7f 39 d0 18 3c b9
       0.00024443422 4.7937192e-05 0.00024342106 -0.0001793832

bn3.running_mean f4 [32]
000000 8c d7 32 be 6c eb 08 bf 80 b3 8a 3e b7 af 80 be
       -0.17465037 -0.53484225 0.27090073 -0.2513406
000010 6a 11 c7 bc 9d 5d 26 bf cc 49 e8 be cc 86 f7 3d
       -0.024300296 -0.6498659 -0.45368803 0.12086257
000020 0f 4c 01 3d 24 88 57 3e 43 66 b0 be 0b 90 29 bf
       0.031566676 0.21048027 -0.3445302 -0.6623542
000030 ed c0 6c be f8 06 9b bb 18 ca 2d be 2a ec d8 be
       -0.2312047 -0.0047310553 -0.16971624 -0.4236768
000040 7c ac 35 bf 1b e0 3a 3b 79 27 d5 3e 89 09 6d 3e
       -0.70966315 0.0028514925 0.41631678 0.23148169
000050 5a 4d 14 be 28 e9 57 bd db 30 8f 3e 0e 1c c7 be
       -0.14482632 -0.05271259 0.2796696 -0.38888592
000060 1f 72 45 3f 08 1d 50 be 70 5b 06 3f 5f 35 98 3c
       0.7712726 -0.20323575 0.5248327 0.018580137
000070 da 97 11 3e d7 a0 04 be e2 e4 12 3f 33 64 fe be
       0.14218083 -0.1295198 0.573805 -0.4968582

bn3.running_var f4 [32]
000000 fb 8c 91 3e 24 0e ec 3e 4c 1b 6e 3e 30 3e 89 3e
       0.28427872 0.46104538 0.232526 0.26805258
000010 e2 d9 c4 3e 27 63 37 3f aa 86 2a 3f 99 b2 95 3e
       0.3844748 0.7163567 0.6661173 0.29237822
000020 50 8a 84 3e 07 7e d2 3e 6b 23 f9 3e 8c 44 b2 3e
       0.25886774 0.41111776 0.48659834 0.34817922
000030 4e e8 bc 3e 7a a0 d2 3e d8 13 b6 3e b4 66 92 3e
       0.36895984 0.4113806 0.35562015 0.2859398
000040 24 6d a4 3e c0 f9 94 3e 3a 0c a3 3e f0 b5 b0 3e
       0.32114518 0.29096794 0.31845266 0.34513807
000050 2a 5e cc 3e dd d9 98 3e 17 c7 90 3e c0 a5 b4 3e
       0.3991559 0.29853716 0.28276893 0.35282707
000060 f3 75 b1 3e 5c b7 91 3e e6 bd 95 3e ad ae 48 3e
       0.346603 0.28460205 0.29246444 0.19597884
000070 df a8 6f 3e 45 c0 8c 3e 49 62 7f 3e 87 6e 87 3e
       0.23404263 0.2749044 0.24939837 0.26451513

linear1.weight f4 [32, 128]
000000 79 55 d7 3d 10 b7 2d bc c9 42 f2 3c 7f f4 c9 3c
       0.105143495 -0.0106027275 0.029572861 0.024652718
000010 b0 a6 ac 3d 71 a4 b7 bd 17 de 19 3d 7e 41 db bd
       0.084302306 -0.089669116 0.037565317 -0.10705851
000020 f9 79 19 be db 2e 0b bc a3 6e 10 3e 4c 76 2e 3e
       -0.14987935 -0.008495058 0.14104705 0.17037314
000030 47 12 52 bd c2 f8 16 be 74 12 07 bd 4a 6f 3f be
       -0.051286962 -0.14743331 -0.032976583 -0.18694797
000040 86 88 b5 3c 71 10 3c 3e 85 6f d0 bd c9 20 46 be
       0.022159826 0.18365647 -0.10177521 -0.19348444
000050 42 ea e1 bd 14 3a 9b bd e5 a2 2c be e0 13 44 3c
       -0.11031009 -0.07579437 -0.16859014 0.011967629
000060 e9 42 df 3d 50 11 8c 3d 18 4f 3c be 40 1e ae bd
       0.10901434 0.068392396 -0.18389547 -0.085018635
000070 25 2d 7d bb d4 a3 b5 bd 37 a4 2c be d7 ba ac bd
       -0.0038631645 -0.08869138 -0.16859518 -0.08434074
000080 35 a7 65 bc 01 dc 32 be 4f b1 2f 3e 48 e7 b0 3d
       -0.014016916 -0.17466737 0.17157482 0.086378634
000090 b9 27 da bc 17 ba 42 be 34 e7 f3 bd 61 8e 94 bd
       -0.02663027 -0.190163 -0.11909333 -0.07253719
0000a0 cc ba ce 3d 85 ff a0 3d 4a 9e 99 bd 00 97 ae bc
       0.100942224 0.078612365 -0.07500894 -0.021312237
0000b0 d7 ff 6d 3d e7 77 37 be b7 81 80 bd 42 f4 0d 3c
       0.058105316 -0.17916833 -0.06274741 0.008664193
0000c0 b8 d8 0c be 52 20 02 3e 01 9a 97 bd ba c4 a8 bd
       -0.13754547 0.12707642 -0.07402421 -0.082406476
0000d0 2d 35 dd 3d f8 20 a3 bd 6e 5c 3c be 4b 37 35 3e
       0.10801158 -0.07965273 -0.18394634 0.17696874
0000e0 81 59 bb 3c 23 56 ad 3c 69 05 38 3e f2 28 19 3e
       0.022869827 0.021159237 0.17970814 0.14957026
0000f0 fb 5e 88 3d 51 55 0d 3c 12 54 90 3c 70 62 a4 bd
       0.06658741 0.008626298 0.017618213 -0.08026588
000100 1f 3e 03 3e 7b 26 a7 3c 58 40 14 bd d7 a8 84 3d
       0.12816666 0.020404091 -0.036194175 0.06477516
000110 98 dc 29 3e d3 86 fa 3d 7e 46 a8 bd 27 5e 15 3e
       0.16588056 0.12232747 -0.0821657 0.14586698
000120 bc 12 b5 3a 8e c0 b1 bd a9 64 9c bc 75 61 1e 3e
       0.0013814787 -0.08679305 -0.019090967 0.15466864
000130 5a 91 eb 3d b0 d3 d4 bd 8c 6a 2a 3e fd bd c5 3d
       0.11502333 -0.10391939 0.16642207 0.09655378
000140 03 de 3d be 14 bc c8 bc d5 03 23 be e4 97 d0 3d
       -0.18541722 -0.024503745 -0.1591943 0.10185221
000150 03 f3 f6 bd 4d bf 73 bd 32 23 1d bd 55 80 f0 3c
       -0.120580696 -0.05950861 -0.038363643 0.029358068
000160 8d d1 45 3e d8 fd 26 3e ac 65 06 3e 49 32 05 be
       0.19318219 0.16307771 0.13124722 -0.13007464
000170 32 44 3d bd 47 2d e7 3d 04 9f 45 3e e6 52 b8 3c
       -0.046207614 0.11287933 0.19298941 0.022500467
000180 0b 1e 10 be 23 52 07 bc 01 28 f8 bd 1c f3 74 bd
       -0.1407396 -0.008259329 -0.12117005 -0.05980216
000190 62 94 cc bd b2 9b 24 be be a6 06 be db 8a ab bd
       -0.09989239 -0.16075018 -0.13149545 -0.08376094
0001a0 19 f6 e8 bd 4d 07 96 bc 71 79 8b bd 78 a3 d7 3d
       -0.113750644 -0.018314028 -0.068102725 0.10529226
0001b0 fe 77 97 bd 80 90 f2 bd 55 69 ee 3d d0 d0 5d bd
       -0.073959336 -0.118439674 0.11641184 -0.054154217
0001c0 7f 99 55 bd 0d 5d 1a be 2b 2f ab 3d b6 af 40 3e
       -0.05214834 -0.15074559 0.08358606 0.18817028
0001d0 a0 56 c1 bd 40 50 bd 3d d0 c1 b1 3d 3f 75 d1 3d
       -0.094403505 0.09243822 0.08679545 0.10227441
0001e0 ef cd 0e 3d 0b df 99 3d 2d be 43 be 93 3f fc 3d
       0.034864362 0.07513245 -0.19115515 0.12316813
0001f0 b8 dd ad bd 2f 53 d4 3d de da 47 bd 43 6a 5b 3c
       -0.08489555 0.103674285 -0.048792712 0.013392034
000200 c9 68 dd 3d 14 64 9e bd 8a 0c 41 3e cf 3b 4e bb
       0.10811002 -0.07733932 0.1885244 -0.0031468754
000210 53 1b f8 bd fc ce 83 3d 02 ac ae 3d b0 2d 70 bc
       -0.12114587 0.064359635 0.08528902 -0.01465933
000220 73 c1 29 be 95 92 31 3e d4 35 a6 3d 9a c3 30 be
       -0.16577701 0.17341073 0.08115736 -0.17262116
000230 ec 67 8d 3c 22 12 26 3e ab 9e 36 3d 3c fc 30 bd
       0.017261468 0.16217855 0.04458491 -0.0432093
000240 cd a6 88 bd de 60 07 3e ca 42 03 be 51 26 35 3d
       -0.0667244 0.13220546 -0.12818447 0.044225994
000250 e9 8d 40 be 52 1b 2c be e0 01 0b be d6 0e 1f be
       -0.18804134 -0.16807297 -0.13574934 -0.15533003
000260 f0 e0 0d be 47 8b 21 be 57 7e c6 3c e3 ad 14 3e
       -0.13855338 -0.15775786 0.024230165 0.14519458
000270 f6 59 1f bd 23 da 3d be dc 86 5f 3d 78 c8 02 be
       -0.038904153 -0.18540244 0.05457197 -0.12771785
000280 86 7f ad bd 9a eb d7 3d 04 5d 4f bc 33 6b 01 be
       -0.08471589 0.10542984 -0.012656454 -0.1263855
000290 6d 28 12 3e 78 88 e7 3d 5d b8 28 3e ca ea 2c bd
       0.14273234 0.11305326 0.16476579 -0.0422161
0002a0 8d d1 dd 3d 3c 26 52 3b 7e 30 d0 3d 98 a8 6d bd
       0.10830984 0.0032066246 0.10165499 -0.05802211
0002b0 a2 e4 a6 3d 39 d3 9f 3d 4f b8 68 bd a8 30 34 be
       0.08149077 0.078039594 -0.056816395 -0.17596686
0002c0 1c 64 e0 bd 78 ea ec 3d 6a 32 ae bd 34 c2 ea bd
       -0.10956594 0.11568159 -0.085057095 -0.114628226
0002d0 49 d1 b6 bc 59 e0 29 be 9a f9 30 3e 2e 22 a7 3d
       -0.022316592 -0.16589488 0.17282715 0.08160816
0002e0 1b 49 44 3e 71 9b 03 3e 66 86 1d 3d 8c 8d f1 3c
       0.19168513 0.12852265 0.03845825 0.02948644
0002f0 80 a0 3c be 3d ff 00 be 32 98 20 3d bb ce ea 3d
       -0.18420601 -0.12597366 0.039207645 0.11465212
000300 74 d8 fe bd 5d 9d 2b be a0 3c 81 bd 67 f1 a2 bd
       -0.12443629 -0.16759248 -0.063103914 -0.079562
000310 19 64 3d be b4 10 c7 3b 37 71 3d bd c8 9d 12 3e
       -0.18495215 0.006074989 -0.04625055 0.14318001
000320 90 29 09 be a5 85 9e 3d 22 97 40 3d dd a7 07 be
       -0.13394761 0.077403344 0.04701913 -0.13247629
000330 27 ce bc 3d ed 7c 0f 3e 85 26 66 3d 8a 2e 21 3e
       0.09219008 0.14012499 0.05618908 0.1574041
000340 33 a8 d9 bc 2f bc 5c bc 45 22 f7 3d 9d 6e 8c bd
       -0.026569461 -0.013472601 0.12067083 -0.06857035
000350 51 2a 37 3e 4b f9 98 bc a0 52 1d 3e 36 87 fd ba
       0.17887236 -0.01867356 0.1536355 -0.0019342664
000360 e6 0d 35 3e 01 5a 07 3d be 7d 44 be 28 17 09 3e
       0.17681083 0.03304482 -0.19188592 0.1338774
000370 57 ad e7 3d 3b 80 36 3e 64 cf 80 3c 88 4f 39 3e
       0.11312359 0.17822354 0.015723892 0.18096745
000380 fc a2 fa 3d dd 90 33 3e 21 17 e2 bd 61 46 03 3e
       0.12238118 0.1753573 -0.11039568 0.12819816
000390 91 9d 01 be 89 e9 50 3d 2b 6a 20 3e c8 62 79 ba
       -0.12657763 0.051003966 0.156655 -0.0009513316
0003a0 67 24 ef bd c0 41 b8 bc fc c9 42 3e b7 42 70 bd
       -0.11676865 -0.02249229 0.19022363 -0.058657374
0003b0 71 dc 09 bd 8a 33 99 3d 99 59 93 bd a1 a8 40 3e
       -0.033657495 0.074805334 -0.07194824 0.18814327
0003c0 b5 7d f2 3c 2b c0 25 bd 6d 45 41 3e 24 b5 1f bd
       0.029600957 -0.04046647 0.1887414 -0.03899111
0003d0 57 87 4f bc 58 48 36 be e9 15 46 3a 3f 16 b1 bd
       -0.012666545 -0.17801034 0.00075563655 -0.08646821
0003e0 81 01 8a bd 28 d1 8a bc 0a 6d 02 3e 1f 97 c1 bd
       -0.06738568 -0.016945437 0.12736908 -0.09452652
0003f0 19 05 5a 3d 5b c2 23 3e 61 eb 26 3d c4 06 35 3e
       0.053227518 0.1599211 0.04075182 0.17678362

linear1.bias f4 [32]
000000 60 9f 1e 3c 3f c9 23 3c 7d 5c 27 3c 3d 70 22 3c
       0.009681553 0.009996711 0.010214922 0.009914455
000010 75 cd 21 3c cf 81 22 3c b2 6c 1f 3c 8c f2 24 3c
       0.009875645 0.009918644 0.009730505 0.010067593
000020 47 65 20 3c 00 d6 23 3c 7e cf 21 3c 39 92 1f 3c
       0.009789771 0.009999752 0.00987613 0.009739452
000030 2d 27 29 3c 88 d5 27 3c 53 e9 23 3c 82 85 21 3c
       0.010324282 0.010243781 0.010004359 0.009858491
000040 a8 f7 20 3c 53 31 24 3c 31 07 20 3c 17 f8 20 3c
       0.009824671 0.010021525 0.00976734 0.009824774
000050 61 44 28 3c 9e d0 20 3c c8 4c 1e 3c a4 97 26 3c
       0.010270209 0.009815363 0.009661861 0.01016799
000060 d4 b9 21 3c 2f 90 29 3c 3b 29 26 3c f0 63 28 3c
       0.009870965 0.010349317 0.010141666 0.010277733
000070 99 57 28 3c d4 56 1f 3c d7 36 1f 3c f5 13 25 3c
       0.010274791 0.009725291 0.009717665 0.010075559

linear2.weight f4 [111, 32]
000000 63 3c 0f 3d 86 87 4e be 7d 6a 49 ba 28 e0 31 3e
       0.0349697 -0.20168886 -0.00076834095 0.17370665
000010 92 a8 0e 3d 69 44 09 3e 25 0b d9 3d 95 f4 f0 bc
       0.03482873 0.13405003 0.10597829 -0.0294135
000020 df 68 5c bc 6e e5 a6 3c 38 fe 95 bd 44 2d ea bd
       -0.013452738 0.020373072 -0.07323879 -0.11434415
000030 bf 24 88 3c 4b 65 05 be 87 01 48 be 43 2c 6c 3d
       0.016619084 -0.13026921 -0.19531833 0.0576594
000040 09 7f 47 be 2e a0 31 3e fc 83 41 3e 83 b3 68 bc
       -0.19482054 0.1734626 0.18898004 -0.014202955
000050 5f 8e e3 bb 75 4f a6 bd a1 4c e4 3d 45 03 ef bd
       -0.006944462 -0.08120624 0.11147428 -0.116705455
000060 65 82 71 3d a9 2d af bd f4 8b c7 3c 5c 26 53 3d
       0.058962245 -0.08553631 0.024358727 0.051550254
000070 cf e8 fe 3d b8 1b 4b be 0c 89 0f bc 3a cd 4e bc
       0.124467485 -0.19834793 -0.008760702 -0.012622172
000080 35 98 00 be ee 72 17 3e ec ca b0 bd 4e 24 46 be
       -0.12558062 0.14789936 -0.08632454 -0.19349787
000090 db 01 ab bd f5 1b 34 3e 9a 91 31 be 3c 1e ad 3d
       -0.08349963 0.1758879 -0.17340699 0.084530324
0000a0 d4 4c c5 3d c8 d3 42 3d de 23 5b bd 06 64 15 3d
       0.096337944 0.04756525 -0.053501002 0.036472343
0000b0 ee 42 d8 3c b7 a2 21 3e 23 c3 08 3e df f9 11 be
       0.026399102 0.15784727 0.13355689 -0.14255475
0000c0 7a 21 c3 bb fb 2c 3d 3c 0e f3 03 be 51 a9 f6 bd
       -0.0059549185 0.011546369 -0.12885687 -0.12044013
0000d0 e3 92 28 3e 54 6c 39 bd 60 31 ec bd d3 3c e1 3d
       0.16462283 -0.045269325 -0.11532855 0.109979294
0000e0 24 97 06 3e 8e 99 f6 3c f5 36 3d 3e ca c9 b9 3d
       0.13143593 0.030102517 0.18477996 0.09071691
0000f0 3a 5f 79 3d 4b 31 b6 3d c7 cf d2 3d 16 76 3e 3d
       0.06088183 0.08896121 0.10293537 0.046499334
000100 1d 56 91 bd e4 ae 06 be 13 c6 48 be 84 c4 0a 3e
       -0.07096503 -0.13152653 -0.1960681 0.13551527
000110 bd 63 fa 3c 4b 1a b4 3d 81 5d 4d 3e b6 00 33 be
       0.030565137 0.087940775 0.200552 -0.1748074
000120 d5 b6 b5 bd 5f 9c 5d bd 41 cb 35 3d 2c 73 e4 bd
       -0.08872763 -0.054104205 0.04438329 -0.1115478
000130 15 fb 8f 3d 2f e2 1b bd 2c 54 47 be fd c5 11 be
       0.07030312 -0.038057502 -0.19465703 -0.14235683
000140 ea b3 a9 bd 1b 21 0c 3e a6 39 20 be 25 26 05 3e
       -0.08286269 0.13684504 -0.15646991 0.13002832
000150 55 24 26 3d 0d 2b e0 3d c4 ff 47 be 45 f6 d8 bd
       0.040561993 0.10945711 -0.1953116 -0.10593847
000160 07 07 e5 3d c4 7f fe bd c1 6c 29 be 51 80 b8 bd
       0.11182981 -0.12426713 -0.16545393 -0.090088494
000170 58 84 90 3d 66 38 b5 bc bc 95 e7 bd c4 79 07 3e
       0.070564926 -0.02212162 -0.113078564 0.13230044
000180 f6 d4 5c 3d 18 cd 3d be 7e db de 3d 0c d0 4e 3e
       0.053914033 -0.18535268 0.108817086 0.20196551
000190 ad b8 ba bd 33 22 92 3d 40 22 81 3c d6 5a 2c 3e
       -0.09117255 0.07135429 0.015763402 0.16831526
0001a0 4f e3 9e 3d 0e eb 12 3e 43 a4 23 bd f4 c9 09 3e
       0.077581994 0.14347479 -0.039951574 0.13455945
0001b0 5f 00 1a bd 67 a9 a2 bd 5b ad f5 3d f9 4a 0e be
       -0.03759801 -0.07942467 0.119959556 -0.13895787
0001c0 1f 53 0c be f4 35 d7 bd 81 6a 9b bc d5 78 05 be
       -0.13703583 -0.105083376 -0.018971683 -0.13034375
0001d0 9d fb 4e 3e 96 61 fc 3d 9b ff 8b 3d bc da 28 be
       0.2021317 0.123233005 0.06835862 -0.1648969
0001e0 2f f4 c4 3d 4f a7 10 be d9 05 03 be fb 69 91 bd
       0.09616887 -0.14126323 -0.127952 -0.07100292
0001f0 87 6b 98 3d af f2 ca 3d f1 d3 30 3c 14 33 61 3d
       0.07442384 0.099095695 0.010792718 0.054980353
000200 14 fd d2 3c 07 71 ed bd 01 4e 4e be 1b dc f3 3b
       0.025755443 -0.11593824 -0.20146944 0.00744201
000210 ce 03 4a be 89 5e aa 3d 7b 48 06 3d 17 8f 17 be
       -0.19728014 0.083188124 0.032783967 -0.14800678
000220 61 58 2b be aa ba d5 3d 03 56 0a be 03 53 6b 3c
       -0.16732933 0.10435994 -0.13509373 0.014363053
000230 9a e7 c7 3d ec fd ab bd c8 9b d2 3d 2a ca 11 3e
       0.09760971 -0.08398041 0.10283619 0.14237276
000240 e0 1e 38 3e cc 04 e2 3d fd 54 25 be 2a 0e ed bd
       0.17980528 0.11036071 -0.16145702 -0.11574967
000250 fe fa 4f 3e ce e1 5f bd b6 59 8c bb e1 9b 55 bd
       0.2031059 -0.054658704 -0.0042831553 -0.05215061
000260 08 aa 81 3d ff 5c 07 3d 66 32 38 3e 99 de e6 3d
       0.06331259 0.033047672 0.17987975 0.11272926
000270 02 9a cd 3d c6 2a 49 3e 58 84 c0 3c 95 bc 32 3e
       0.1003914 0.19645223 0.023500606 0.17454751
000280 33 1c 39 bd e6 ff 0b bd 99 7f 40 3e 27 36 1b 3e
       -0.04519291 -0.03417959 0.18798675 0.15157376
000290 35 ea 94 bd 8a e2 1a be 3d 83 1b bd 7b 5a e2 bd
       -0.07271234 -0.1512548 -0.037966955 -0.11052414
0002a0 2f dc 1a be 71 c5 da bd 2b 35 cd bd 1c 06 20 3e
       -0.15123056 -0.1068219 -0.100199066 0.1562733
0002b0 ae 14 ba 3a 79 59 0f be 75 ec 8c 3d d7 7f f9 3b
       0.0014196837 -0.13998975 0.06881038 0.0076141167
0002c0 2e 68 45 3e ce 19 28 3b e5 73 2d 3e da b4 14 3c
       0.19278023 0.0025650146 0.16938742 0.0090763215
0002d0 90 df 7c bd 21 3f 45 be db c9 a6 3b 84 74 ee bd
       -0.061736643 -0.19262363 0.005089981 -0.11643317
0002e0 3a fb 29 be f2 36 87 bd 48 c9 09 be 4d 6d 9a 3d
       -0.16599742 -0.06602277 -0.13455689 0.07540379
0002f0 ca 36 23 be 5a 60 3e 3e e4 23 70 bd 99 10 79 3a
       -0.15938869 0.18591443 -0.058627978 0.00095010694
000300 f1 06 f6 bd f1 fa 1c bd 2d 15 fd bd c6 15 cd 3d
       -0.12013043 -0.038325254 -0.123575546 0.100139186
000310 d8 d8 c8 3d bb b8 47 be ac 50 ba bd 40 9e 05 be
       0.09806985 -0.19504063 -0.09097418 -0.13048649
000320 ea 50 13 3e d4 85 8e bd 90 80 2a be 34 01 86 bd
       0.14386335 -0.069591194 -0.16650605 -0.06543198
000330 a2 37 48 be f1 81 f4 3d e0 a3 4d 3e 24 59 26 be
       -0.19552472 0.11938847 0.20082045 -0.16244942
000340 77 ba b9 bb d1 2a 1b be a0 e2 14 3e 6c 2b 83 bb
       -0.0056679803 -0.15153052 0.14539576 -0.004002979
000350 ff 26 09 3e bb 1b 81 bd 58 13 0f 3e 22 c1 4e 3e
       0.13393782 -0.06304117 0.13972223 0.20190862
000360 4f bc 08 bd 1c 04 77 3d ef 08 eb bd b3 12 00 be
       -0.03338271 0.060306653 -0.11476313 -0.12507133
000370 f4 a1 48 3e 75 c2 0d 3e 6d 5d 21 be 5f 85 d3 3d
       0.1959303 0.1384371 -0.15758295 0.10328173
000380 9d e0 01 3d 6d 30 70 bd a3 e7 41 be aa a0 35 3e
       0.03170835 -0.058639932 -0.18936019 0.1773707
000390 b3 6a 19 be e2 1a bc bd eb f6 dd bc 3e c8 51 3e
       -0.14982109 -0.09184815 -0.027095279 0.20486543
0003a0 38 f7 f3 3d e3 f0 1d be a1 33 2a 3e ab cb df 3d
       0.119123876 -0.15423922 0.16621257 0.109275185
0003b0 a6 69 bd bd 63 9c 7d bd 7f 0d 37 3e 51 cb 4d 3e
       -0.092486665 -0.06191672 0.17876242 0.2009709
0003c0 46 b2 38 be b6 b3 d9 3c ff 40 eb 3d a2 88 93 bd
       -0.18036756 0.02657495 0.114870064 -0.07203795
0003d0 95 85 93 bd f5 89 a0 3c 9a e6 03 be 40 98 b6 bd
       -0.07203213 0.019597033 -0.12880936 -0.08915758
0003e0 a6 d9 d3 bd 2d ff 88 3d a9 ca f7 3d 56 12 ca bd
       -0.103442475 0.06689296 0.12099201 -0.098667786
0003f0 3b 58 df bc 04 ec 91 3d 70 a6 28 be a9 4e 03 3d
       -0.027263751 0.071250945 -0.16469741 0.032057438

linear2.bias f4 [111]
000000 fa d5 25 3c 12 bc 28 3c 9e 6f 26 3c f3 4c 25 3c
       0.010121817 0.010298746 0.010158448 0.010089147
000010 e6 e4 26 3c 26 46 25 3c a5 cf 24 3c f7 57 25 3c
       0.01018641 0.0100875255 0.010059272 0.010091773
000020 f3 d6 24 3c fa c9 25 3c 0e 67 24 3c 13 c9 24 3c
       0.0100610135 0.010118956 0.010034336 0.010057705
000030 54 c8 23 3c ca 9a 23 3c 50 3d 25 3c 67 80 23 3c
       0.009996492 0.009985635 0.010085419 0.009979344
000040 dd 55 24 3c 04 9f 26 3c 1d 34 25 3c cd 17 27 3c
       0.010030237 0.010169748 0.010083226 0.010198546
000050 1d 77 25 3c 93 8c 25 3c ed 0c 25 3c ec 3c 25 3c
       0.0100992 0.010104316 0.0100738825 0.010085326
000060 93 1c 27 3c c6 c4 24 3c 36 81 24 3c 85 ae 24 3c
       0.010199684 0.01005668 0.010040572 0.010051374
000070 61 35 24 3c 71 a6 25 3c f7 4b 24 3c a7 35 24 3c
       0.010022492 0.0101104835 0.010027877 0.010022557
000080 99 9c 23 3c 0a d7 23 3c 35 f0 26 3c a5 a2 26 3c
       0.009986066 0.01 0.010189106 0.010170613
000090 ff db 25 3c 01 28 27 3c 22 38 25 3c fd 65 25 3c
       0.010123252 0.010202409 0.010084184 0.010095117
0000a0 75 15 26 3c 0a 41 24 3c 5f 8d 24 3c 73 79 24 3c
       0.010136952 0.010025272 0.010043471 0.010038721
0000b0 5e de 24 3c f3 27 25 3c d4 ce 25 3c ff 55 24 3c
       0.010062782 0.010080325 0.010120112 0.010030269
0000c0 7d b4 24 3c 59 9e 23 3c 0a d7 23 3c 46 44 29 3c
       0.010052797 0.0099864835 0.01 0.010331219
0000d0 46 15 28 3c 41 10 26 3c c0 b1 24 3c 08 d5 28 3c
       0.010258978 0.010135711 0.0100521445 0.010304697
0000e0 31 05 27 3c 53 5c 25 3c b0 10 25 3c 00 eb 26 3c
       0.010194109 0.010092813 0.010074779 0.010187864
0000f0 cb f3 24 3c de 52 24 3c 73 54 24 3c c0 52 24 3c
       0.01006789 0.010029523 0.0100299 0.010029495
000100 0a d7 23 3c 65 da 23 3c 0a d7 23 3c 0a d7 23 3c
       0.01 0.0100008 0.01 0.01
000110 c5 c4 28 3c 0a 8c 28 3c 3e 5d 26 3c a3 8f 26 3c
       0.01030082 0.010287294 0.010154067 0.010166082
000120 51 93 26 3c da 10 27 3c a3 7a 25 3c 58 f7 24 3c
       0.010166959 0.010196889 0.01010004 0.010068737
000130 55 7b 25 3c 59 71 24 3c 79 92 25 3c 24 b7 24 3c
       0.010100205 0.01003679 0.010105723 0.01005343
000140 79 4a 25 3c 0e 72 24 3c 75 10 24 3c 0a d7 23 3c
       0.010088556 0.010036958 0.010013689 0.01
000150 ab 7a 24 3c bc 3b 28 3c 61 69 25 3c f1 a8 25 3c
       0.010039012 0.010268148 0.010095925 0.01011108
000160 87 60 25 3c 04 8b 26 3c 51 8b 26 3c f0 0a 26 3c
       0.010093815 0.01016498 0.010165052 0.010134444
000170 58 87 24 3c 9d b4 24 3c f5 6b 24 3c 2c d4 24 3c
       0.010042034 0.010052827 0.010035505 0.010060351
000180 c0 8c 25 3c dd bd 24 3c ad 2b 24 3c 1c 13 25 3c
       0.010104358 0.010055033 0.010020179 0.010075357
000190 ee 2c 24 3c aa 55 24 3c 08 24 25 3c 90 75 25 3c
       0.010020478 0.0100301895 0.010079391 0.01009883
0001a0 c5 30 25 3c a9 1e 25 3c 8d f5 24 3c 76 97 24 3c
       0.010082428 0.010078111 0.0100683095 0.010045877
0001b0 49 90 23 3c a0 75 23 3c 96 a5 26 3c
       0.009983131 0.009976774 0.010171315
