policy_net_move_select4.pth (torch, 185999 bytes, 18 tensors)

conv1.weight f4 [16, 1, 3, 3]
-0.097476006 -6.2750187 -6.252985 -0.12699652 -0.01072893 -0.024421288 -3.1981118 -0.49586427
-0.5854609 -3.2941875 0.0025768168 -0.00580077 -1.8269229 -0.051939324 -0.05858508 0.5787399
-0.03338494 -0.0020859793 -0.14955604 -0.099397026 -0.028432233 -0.054336604 -0.037856933 -0.1435042
-9.485948 -0.46491858 -10.941737 -12.490299 -0.43135315 -0.25033778 -1.8846339 -3.3631964
-0.48880103 -0.6272679 -2.9970891 -0.67936087 -1.6899447 -1.6868533 -1.6426964 0.04429292
0.17670251 0.050500687 -0.9482003 -0.11995663 -1.3157216 -1.0637892 0.044227168 -0.037804876
-0.5470593 -0.090695575 -0.047134165 -5.0210414 -2.7451103 -0.10371225 0.26048225 0.0035608283
-0.14176953 0.7604429 -0.26525426 -0.1519156 -9.635702 0.18043883 0.10330902 0.04328123
-0.7166037 -12.997573 -0.31742176 -0.48911747 -5.0179462 -0.4747578 -0.34819496 0.47930205
0.8336061 1.5633136 -1.6778579 -1.3457896 0.1531577 -0.48554555 -0.7516468 -0.009623683
-1.2968878 0.24931 0.11742793 -0.14748551 0.30032706 -0.06929756 0.033960268 0.30185857
-0.008427096 -8.916441 -0.15981063 -0.14151077 0.49810377 -2.3576684 -0.36737645 0.65854657
0.12175005 0.10189848 -7.7018495 -0.16332164 -5.1513214 -0.03357075 -0.05724189 -0.103292935
0.0065564928 -0.14082201 -3.730313 -0.0020573833 0.47767594 -0.33416033 0.056402955 0.079399124
-0.016330168 0.19405061 0.5751043 -0.00854319 0.80161697 -1.3647016 -1.7231679 1.6211476
0.35940763 0.6571304 -0.08441733 -0.22597085 -0.9275275 0.546971 -1.343502 -1.2034181
-1.131134 -0.3536912 -0.054494087 -0.13058141 0.058773357 -0.39425418 -1.3301334 -0.16963074
0.0975582 -0.010556072 -10.296358 0.01989281 0.09898631 -0.17090023 0.24644159 0.05458204
00000000: 80a1 c7bd f4cc c8c0 7418 c8c0 600b 02be
00000010: 65c8 2fbc 270f c8bc ddad 4cc0 ece1 fdbe
00000020: c4e0 15bf f8d3 52c0 d0df 283b 6314 bebb
00000030: 9cd8 e9bf 54be 54bd e9f6 6fbd 4c28 143f
00000040: a6be 08bd edb4 08bb 3825 19be ab90 cbbd
00000050: b7ea e8bc 0f90 5ebd df0f 1bbd c4f2 12be
00000060: 71c6 17c1 cf09 eebe 5b11 2fc1 44d8 47c1
00000070: 52da dcbe 462c 80be af3b f1bf 9c3e 57c0
00000080: 2144 fabe a194 20bf 4fd0 3fc0 98ea 2dbf
00000090: 1c50 d8bf cfea d7bf e043 d2bf 7e6c 353d
000000a0: 81f1 343e cfd9 4e3d 41bd 72bf d2ab f5bd
000000b0: 9169 a8bf 3f2a 88bf 8c27 353d 49d9 1abd
000000c0: 140c 0cbf 9abe b9bd c10f 41bd 5fac a0c0
000000d0: e3af 2fc0 1767 d4bd ee5d 853e c95c 693b
000000e0: 082c 11be 63ac 423f 68cf 87be c38f 1bbe
000000f0: d62b 1ac1 f5c4 383e ae93 d33d a947 313d
00000100: 5773 37bf 0ff6 4fc1 1b85 a2be 9b6d fabe
00000110: 0493 a0c0 7413 f3be 9c46 b2be 1467 f53e
00000120: 3667 553f a91a c83f 0cc4 d6bf d542 acbf
00000130: 5fd5 1c3e 6d99 f8be ed6b 40bf a7ac 1dbc
00000140: 6b00 a6bf 1f4b 7f3e 0e7e f03d 7106 17be
00000150: 78c4 993e e1eb 8dbd ec19 0b3d 358d 9a3e
00000160: cd11 0abc bea9 0ec1 66a5 23be 33e8 10be
00000170: 7507 ff3e 0ae4 16c0 c418 bcbe 8296 283f
00000180: 1758 f93d 26b0 d03d 8d75 f6c0 ca3d 27be
00000190: a0d7 a4c0 7c81 09bd 7976 6abd 3f8b d3bd
000001a0: d9d7 d63b a533 10be 73bd 6ec0 2ad5 06bb
000001b0: f191 f43e 1017 abbe c906 673d 029c a23d
000001c0: d8c6 85bc 34b5 463e 093a 133f bcf8 0bbc
000001d0: c536 4d3f 8bae aebf c490 dcbf c481 cf3f
000001e0: 4704 b83e b339 283f fee2 acbd e764 67be
000001f0: 7172 6dbf 4b06 0c3f e0f7 abbf 9b09 9abf
00000200: 00c9 90bf 0317 b5be 3135 5fbd 22b7 05be
00000210: 55bc 703d afdb c9be d041 aabf aeb3 2dbe
00000220: 98cc c73d 60f3 2cbc e2bd 24c1 3ff6 a23c
00000230: 56b9 ca3d 7800 2fbe 2f5b 7c3e 6b91 5f3d

conv1.bias f4 [16]
-2.2808113 1.4960642 -0.38726765 -0.35791242 -0.87597483 0.29842284 1.6387751 -0.99775463
0.40031293 -1.2226782 0.9782177 0.30530918 -0.09397391 0.34507817 -3.2016861 -0.034131683
00000000: d0f8 11c0 087f bf3f f247 c6be 4c40 b7be
00000010: e33f 60bf e1ca 983e 62c3 d13f d96c 7fbf
00000020: d1f5 cc3e b880 9cbf 7a6c 7a3f 7c51 9c3e
00000030: 6575 c0bd 16ae b03e 6de8 4cc0 aacd 0bbd

bn1.weight f4 [16]
2.329467 1.1289734 1.8935423 1.6130314 3.0414014 1.5448097 1.4674557 1.3253027
0.07354703 0.682262 1.519907 1.473795 -0.0219872 0.01531968 1.4043641 1.0869434
00000000: fd15 1540 3382 903f 985f f23f d077 ce3f
00000010: 52a6 4240 53bc c53f 97d5 bb3f 85a3 a93f
00000020: d39f 963d b9a8 2e3f 508c c23f 51a5 bc3f
00000030: 801e b4bc 65ff 7a3c 34c2 b33f f620 8b3f

bn1.bias f4 [16]
-1.6515014 -0.47287822 -0.80471426 -0.96955925 -2.5038795 -0.9861221 -0.51163274 -0.89618284
-0.032460492 -0.106714085 -0.9412136 -0.79459363 -0.07991824 -0.11839103 -1.3991 -0.18155508
00000000: 6664 d3bf 181d f2be c101 4ebf 0935 78bf
00000010: 903f 20c0 7f72 7cbf 5dfa 02bf 3d6c 65bf
00000020: 4bf5 04bd ea8c dabd 60f3 70bf 7d6a 4bbf
00000030: 2dac a3bd ff76 f2bd b515 b3bf 93e9 39be

bn1.running_mean f4 [16]
-27.943966 -4.948208 -25.063734 -31.273592 -11.2886 -10.262058 -7.4484243 -32.803844
-3.2253652 -11.522261 -10.202547 -12.45929 2.0969012 -1.0141929 -11.706808 -11.280172
00000000: 3e8d dfc1 b857 9ec0 8782 c8c1 5130 fac1
00000010: 1b9e 34c1 6431 24c1 7e59 eec0 2337 03c2
00000020: 626c 4ec0 2e5b 38c1 a23d 23c1 4059 47c1
00000030: a133 0640 13d1 81bf 164f 3bc1 967b 34c1

bn1.running_var f4 [16]
511.27942 56.154243 870.0736 900.508 72.25339 139.52841 246.1037 1062.5408
34.668903 279.1304 241.53993 182.72122 5.84873 21.366795 50.350403 288.28256
00000000: c4a3 ff43 f29d 6042 b684 5944 8320 6144
00000010: bc81 9042 4687 0b43 8c1a 7643 4ed1 8444
00000020: f5ac 0a42 b190 8b43 398a 7143 a2b8 3643
00000030: cc28 bb40 32ef aa41 d066 4942 2b24 9043

conv2.weight f4 [32, 16, 3, 3]
-0.87829494 -1.0892564 2.326625 0.37573746 0.06679791 -0.2317234 0.13959625 -0.109957196
-0.39707965 1.4125282 1.2277427 0.54041404 -0.6201748 -0.34953925 -0.14564651 -0.3614023
-0.14237505 -0.3991831 -0.82841605 -0.11290122 -0.21980785 -0.08304506 0.036396533 0.535082
0.017292058 -0.007574218 0.32915422 2.2762463 0.9549012 -2.7170851 -0.13796586 -0.26580402
0.78522784 0.28029376 -0.5719578 -0.27982786 -0.22074388 0.33329388 0.19236712 0.44519028
-0.22018023 -0.2664162 -0.47555533 0.32801363 -0.35319194 0.82527953 0.7266463 1.0146507
-1.6053702 -2.1582305 -0.6971928 1.4185867 -0.38020033 -0.4120646 -0.15697029 0.22962528
0.75137717 0.19070888 -0.5172682 0.0246552 0.044417854 0.058622442 -0.110950366 -1.6678613
1.0931102 1.9796462 0.4603647 0.20589226 0.2513213 -1.2746147 -0.4487237 -0.41168767
1.561678 0.6638529 0.9383135 0.003024339 -0.0031995864 -0.18897732 0.037994232 0.043878052
0.15530004 -0.99540883 0.16986579 -0.034014292 0.79822296 -0.47992834 -0.2632698 0.15574098
0.03699522 -0.07939213 0.6902843 -0.46887836 0.54407924 -0.119687796 0.31182277 -0.6270558
-0.19545747 -0.28047615 0.06805714 1.4957482 1.3527687 0.3893957 -0.39700297 0.21610299
-0.5564085 -0.25414664 -0.10541394 0.31714594 -0.765137 0.28128418 -0.12896334 0.61452705
-0.04159296 -0.027867952 0.9140202 -0.61681867 0.09692828 0.8845799 0.7344081 0.6366652
-0.39945444 0.9297567 -1.6614982 -0.26636946 -0.7787242 0.37077236 -0.5904595 0.8568677
-0.69383574 -0.03947861 0.33212045 0.24067631 -0.37869275 0.11291892 -0.30819386 -0.15183757
-0.28278965 -0.12297561 0.27438226 -0.26129183 0.34763494 -0.21745251 0.4785035 -0.93904585
0.44934496 1.2108636 0.65892637 0.17038397 -1.1926126 0.51314205 -0.1632822 0.41305447
-0.33147427 1.0784749 -0.2274562 -0.91799396 0.28522122 -0.18193512 -1.8593653 0.0921324
-0.3687819 -0.3485958 -0.3650631 0.07535152 -0.027057795 -0.024561228 -0.34072945 -0.2441143
0.59924084 0.2620685 -0.15653414 -0.42784598 -0.20306996 0.21884912 0.42111287 0.3604871
-0.4011971 -0.35833666 -0.18915169 -0.03297156 -5.7614193 1.9811918 1.8455482 1.970256
-0.5060021 0.78151155 -0.377067 -0.56444323 -0.69990516 0.7342231 0.84495825 -0.58079904
0.8066063 -0.9272235 0.75654167 0.2883961 -0.5605447 -0.23599179 0.24385437 0.044865977
-0.074925 -0.127488 0.1980639 -0.13215622 -0.0013349064 -0.20145349 -0.26541153 0.097369485
0.055246774 0.32245082 -0.07509763 0.0011542088 0.094158456 -0.105689 -0.20872732 0.009960392
-0.25395173 0.20118468 0.013520998 0.10817814 -0.043723267 0.042772163 -0.24391401 -0.076211974
0.15336058 -0.092329435 0.24647495 0.029255765 0.04772345 0.047477167 -0.098691754 0.03292792
0.13175817 0.06069503 -0.12486943 -0.019476015 0.0025717125 0.08497385 -0.05387912 -0.039387863
-0.16650331 -0.21487883 -0.4477773 0.43593034 -0.26238275 -0.029277707 0.10623156 -0.15680166
-0.11581436 0.38771105 -0.17721596 0.04593413 -0.28928512 0.04032766 -0.13197538 -0.49107492
00000000: f0d7 60bf c16c 8bbf 6de7 1440 a960 c03e
00000010: 58cd 883d e648 6dbe 52f2 0e3e 3d31 e1bd
00000020: 064e cbbe b9cd b43f ac26 9d3f 9358 0a3f
00000030: c7c3 1ebf cff6 b2be 5c24 15be b909 b9be
00000040: c4ca 11be ba61 ccbe 1313 54bf c138 e7bd
00000050: 4f15 61be 8713 aabd 8814 153d 22fb 083f
00000060: 13a8 8d3c 2531 f8bb e786 a83e 05ae 1140
00000070: 6874 743f b9e4 2dc0 ec46 0dbe 7717 88be
00000080: b104 493f aa82 8f3e d46b 12bf 9945 8fbe
00000090: af0a 62be 7fa5 aa3e e3fb 443e fbef e33e
000000a0: ed76 61be b467 88be fd7b f3be 67f1 a73e
000000b0: 93d5 b4be 8545 533f 7e05 3a3f 13e0 813f
000000c0: c57c cdbf 7320 0ac0 3a7b 32bf 4094 b53f
000000d0: 9ea9 c2be 22fa d2be d2bc 20be e422 6b3e
000000e0: 415a 403f 3049 433e b06b 04bf b4f9 c93c
000000f0: 7fef 353d 161e 703d f239 e3bd 7b7c d5bf
00000100: 09eb 8b3f 0c65 fd3f ecb4 eb3e 6cd5 523e
00000110: 2fad 803e 9326 a3bf 1dbf e5be bac8 d2be
00000120: 11e5 c73f 43f2 293f 5035 703f fd33 463b
00000130: 27b0 51bb 4583 41be d79f 1b3d 79b9 333d
00000140: f906 1f3e 1dd3 7ebf 4cf1 2d3e 9252 0bbd
00000150: 5758 4c3f 2bb9 f5be 4dcb 86be 907a 1f3e
00000160: 4d88 173d 5798 a2bd 79b6 303f d310 f0be
00000170: c748 0b3f e01e f5bd 3ca7 9f3e bb86 20bf
00000180: 0126 48be 929a 8fbe 8b61 8b3d ad74 bf3f
00000190: 8627 ad3f e05e c73e f943 cbbe 1a4a 5d3e
000001a0: ca70 0ebf 821f 82be 44e3 d7bd f460 a23e
000001b0: 05e0 43bf 7b04 903e f70e 04be a551 1d3f
000001c0: 615d 2abd 554b e4bc 3afd 693f d4e7 1dbf
000001d0: 5682 c63d d473 623f 2b02 3c3f 7efc 223f
000001e0: 4b85 ccbe 8904 6e3f f9ab d4bf 9461 88be
000001f0: 785a 47bf e0d5 bd3e 5b28 17bf ae5b 5b3f
00000200: 389f 31bf 53b4 21bd b10b aa3e da73 763e
00000210: 04e4 c1be 0942 e73d 96cb 9dbe 4f7b 1bbe
00000220: cec9 90be a3da fbbd d57b 8c3e 0bc8 85be
00000230: 35fd b13e dfab 5ebe 69fe f43e 4f65 70bf
00000240: 8b10 e63e 94fd 9a3f 66af 283f 2379 2e3e
00000250: 88a7 98bf 475d 033f 7333 27be e07b d33e
00000260: ffb6 a9be 770b 8a3f 47ea 68be a701 6bbf
00000270: 8408 923e 334d 3abe afff edbf e9af bc3d
00000280: fbd0 bcbe 267b b2be 8de9 babe e651 9a3d
00000290: 4fa8 ddbc a134 c9bc 1774 aebe 19f9 79be
000002a0: d967 193f d82d 863e 7c4a 20be a10e dbbe
000002b0: 92f1 4fbe fc19 603e 1b9c d73e c491 b83e
000002c0: b569 cdbe e777 b7be fbb0 41be 300d 07bd
000002d0: 8c5d b8c0 b197 fd3f ec3a ec3f 5931 fc3f
000002e0: 5b89 01bf 2411 483f ed0e c1be 5a7f 10bf
000002f0: fc2c 33bf 0cf6 3b3f 2f4f 583f 3faf 14bf
00000300: c07d 4e3f 855e 6dbf b7ac 413f a7a8 933e
00000310: dc7f 0fbf d5a7 71be f6b4 793e 63c5 373d
00000320: 4772 99bd 378c 02be 43d1 4a3e f653 07be
00000330: 07f8 aeba d349 4ebe 05e4 87be a769 c73d
00000340: 714a 623d 4618 a53e c9cc 99bd d248 973a
00000350: 26d6 c03d 7973 d8bd 9dbc 55be e930 233c
00000360: f605 82be 5b03 4e3e 2d87 5d3c 808c dd3d
00000370: 2b17 33bd dd31 2f3d 98c4 79be 0615 9cbd
00000380: 8e0a 1d3e 3717 bdbd ee63 7c3e c9a9 ef3c
00000390: aa79 433d 6b77 423d e71e cabd 6ddf 063d
000003a0: 9deb 063e 5a9b 783d 8bbb ffbd 2a8c 9fbc
000003b0: 2d8a 283b c506 ae3d 5ab0 5cbd 2b55 21bd
000003c0: d87f 2abe 3209 5cbe 1143 e5be 4332 df3e
000003d0: 0857 86be cdd7 efbc ef8f d93d 9d90 20be
000003e0: 1430 edbd 1082 c63e 1a78 35be 6d25 3c3d
000003f0: 2e1d 94be 9e2e 253d 8e24 07be 2c6e fbbe

conv2.bias f4 [32]
-0.54766876 -2.6794631 -5.9370375 -1.305178 0.99923754 -0.18468358 0.6143172 0.02195602
0.35782057 0.97721523 -0.1742699 2.8078268 -1.2776859 -1.3594424 2.4791226 0.8542568
2.3250477 0.108824745 -2.181773 0.7866525 -1.0430498 -3.8752868 0.11047362 -0.82452506
1.2754434 3.4400704 -0.2408585 2.1275263 3.6720016 0.1394706 1.182775 1.5432706
00000000: 0534 0cbf 537c 2bc0 36fc bdc0 1310 a7bf
00000010: 08ce 7f3f b11d 3dbe e443 1d3f 1cdd b33c
00000020: 4234 b73e c72a 7a3f cf73 32be 6fb3 3340
00000030: 368b a3bf 3502 aebf f2a9 1e40 93b0 5a3f
00000040: 95cd 1440 82df de3d 2ba2 0bc0 0f62 493f
00000050: a882 85bf b304 78c0 fe3f e23d 1314 53bf
00000060: bb41 a33f 1d2a 5c40 9ca3 76be 6429 0840
00000070: 1302 6b40 62d1 0e3e 2c65 973f e489 c53f

bn2.weight f4 [32]
0.0009545464 0.018904706 0.05212677 0.0026882256 0.016400823 0.02033425 0.029874498 0.02279755
0.016156645 0.05353661 0.3239552 0.011432999 0.02333017 0.05764283 0.013481789 0.025037982
0.08004641 0.49251983 0.03189531 0.0180224 0.04053824 -4.4435525e-05 0.4129975 0.044541344
0.041570257 0.026933996 0.02041805 0.029936017 0.015911039 0.2963172 0.016193962 0.011931733
00000000: 863a 7a3a 0bde 9a3c e182 553d f12c 303b
00000010: 055b 863c 0394 a63c 5dbb f43c edc1 ba3c
00000020: f15a 843c 3449 5b3d 75dd a53e 7951 3b3c
00000030: ea1e bf3c e31a 6c3d b9e2 5c3c 741c cd3c
00000040: 5fef a33d 8f2b fc3e a8a4 023d b6a3 933c
00000050: 6d0b 263d 4860 3ab8 6974 d33e fc70 363d
00000060: 9345 2a3d afa4 dc3c c143 a73c 613c f53c
00000070: de57 823c e3b6 973e 33a9 843c 517d 433c

bn2.bias f4 [32]
-0.05446734 -0.13390328 -0.0057314327 -0.023602169 -0.009054197 -0.0071139513 -0.004235285 -0.19412553
-0.007712779 -0.05273185 -0.26025692 -0.08685685 0.0071288734 -0.0072947885 -0.013799978 -0.02312484
-0.08069915 -0.45010763 0.0015148005 -0.09103173 -0.027562886 -0.018738829 -1.1505896 -0.12990886
0.007007434 -0.03427519 -0.004526234 0.013735345 -0.005434798 -0.12396744 -0.0068962555 -0.007923766
00000000: 2519 5fbd f11d 09be bece bbbb 5659 c1bc
00000010: 0e58 14bc 261c e9bb 25c8 8abb d8c8 46be
00000020: 7bbb fcbb 5afd 57bd 6540 85be 01e2 b1bd
00000030: 5399 e93b 1f09 efbb 4e19 62bc 4e70 bdbc
00000040: 9945 a5bd 8274 e6be 458c c63a d86e babd
00000050: 90cb e1bc 2c82 99bc 8546 93bf d406 05be
00000060: 9e9e e53b 2464 0cbd ce50 94bb 360a 613c
00000070: 6416 b2bb a4e2 fdbd fcf9 e1bb afd2 01bc

bn2.running_mean f4 [32]
-1.4031804 -3.7710173 -4.81641 -2.883354 -0.018865116 0.4384929 -2.275403 1.8054543
3.2669823 6.0549994 4.759943 2.732572 2.0746388 1.3138641 1.7051421 -0.3731993
4.1716146 7.843886 4.240852 2.3266957 1.4475073 -5.432959 -1.593592 -4.330619
5.7070155 2.5536757 5.6741796 -4.2082376 4.345468 5.729901 -1.2191304 0.8808414
00000000: 6a9b b3bf 5958 71c0 0820 9ac0 df88 38c0
00000010: 048b 9abc 2482 e03e 34a0 11c0 2019 e73f
00000020: 3d16 5140 8ec2 c140 7451 9840 76e2 2e40
00000030: e2c6 0440 b32c a83f 1942 da3f fb13 bfbe
00000040: de7d 8540 1d01 fb40 0fb5 8740 95e8 1440
00000050: eb47 b93f cdda adc0 d3fa cbbf 6e94 8ac0
00000060: df9f b640 6c6f 2340 e192 b540 e2a9 86c0
00000070: 130e 8b40 595b b740 770c 9cbf d27e 613f

bn2.running_var f4 [32]
2.8477626 5.45664 6.488572 10.30973 6.4289236 7.2591033 9.7653055 6.738087
13.511675 53.41606 46.76152 3.5668333 10.182738 22.312782 8.114502 4.9298487
9.2751255 44.10128 14.403361 7.241919 16.042482 9.455864 9.913247 8.17156
22.043566 6.3628774 20.727188 33.462154 22.77549 56.949043 9.306883 6.5083942
00000000: be41 3640 cb9c ae40 62a2 cf40 a7f4 2441
00000010: beb9 cd40 934a e840 b13e 1c41 699e d740
00000020: d22f 5841 0caa 5542 cc0b 3b42 ff46 6440
00000030: 7fec 2241 9480 b241 00d5 0141 52c1 9d40
00000040: ea66 1441 b667 3042 2b74 6641 cdbd e740
00000050: 0157 8041 384b 1741 a99c 1e41 b6be 0241
00000060: 3959 b041 b19c cb40 48d1 a541 3fd9 0542
00000070: 3434 b641 d2cb 6342 fee8 1441 c444 d040

linear1.weight f4 [64, 576]
0.013769881 0.627843 1.5935519 1.0900259 -0.27606788 0.57483196 0.8355095 0.4838095
-0.57257295 -0.4743881 0.2667799 0.753392 -0.43268228 0.10439785 0.13965204 0.56411177
0.17463091 -0.23285891 1.8598727 0.8414105 0.8843727 -0.5245198 0.9554512 -1.4644947
0.16864066 -1.7934653 -0.9521249 0.3454285 0.56618977 -0.04345872 0.1905069 -0.15289894
0.13336878 0.31902927 0.2546138 0.28474048 -1.6534572 -1.1586765 -4.263548 -3.702012
-4.3180704 -3.5174363 0.5447825 0.38557708 1.0466652 0.08238546 0.5713288 -0.52772164
0.6698117 1.1363851 0.3427504 0.9414309 -0.036785685 0.15670669 -3.2046268 -2.613061
-2.0432315 1.6068767 0.8199702 -0.8142505 1.1271459 -0.12963724 -2.8223298 1.1934135
1.8073527 -0.41517845 -1.6475707 1.1815639 0.022259815 -0.5089269 -0.06020392 -0.24435726
0.8620849 0.5908187 -1.9177476 0.02448632 -0.72574914 -3.3293288 -0.4153101 0.06199536
-0.39706066 1.8064084 -0.21594635 -0.595106 -0.061487433 0.49619225 -0.4757749 -0.11895164
0.018415175 0.17634794 -0.527331 -2.3579593 0.7707317 -0.44788828 0.39816424 0.23293813
-0.94500697 0.21080615 -0.069242716 -0.84297746 0.45434633 -0.078919105 0.56156766 -0.17177075
-0.24397048 0.084692076 0.3535386 0.24388467 0.43262747 0.37798524 0.11139555 -0.46293804
0.28903985 0.97237563 0.2579138 -0.3433772 -0.920111 0.8787806 -0.016695807 -0.08217161
-0.065966964 0.45182106 -0.38717663 -0.6710954 -0.6581062 -0.729582 -0.15209812 -0.8982967
-0.12875716 -1.0574036 1.1436039 -0.7858575 -0.21290435 -0.4233577 0.16893137 -0.08171161
-0.16132055 0.15069318 -0.15104748 -0.82826227 0.28045473 -0.07093783 0.016686419 0.017638626
-0.6426543 -0.10542503 0.681557 -0.50735813 -2.4888837 0.6545568 0.92768437 1.3107772
0.15308502 0.6285357 0.5894288 -0.12504649 0.46276277 -0.10417916 0.103954695 -0.8745511
0.563418 -0.33257172 -0.18938056 -0.272535 1.5417495 0.31396124 0.33869827 -0.34681484
0.23872565 0.6152019 -0.25329426 -0.2213512 -1.0482744 0.34519467 -0.10563388 0.6508719
0.30727765 -0.07281534 1.3869433 1.3262992 -1.4736333 0.07524542 1.0736974 0.51031697
-0.67775065 1.5422401 -0.5449671 -1.2460567 1.0504595 0.029869149 -0.21432143 -0.07147636
-0.26244953 0.12030702 0.32696438 0.21781822 -0.17057697 0.31850824 -1.4713101 -6.7407107
-8.366618 -2.6974072 -2.969322 -3.214139 -2.3747854 -1.0998099 -0.06817212 -0.12392367
-0.21429518 0.21688408 -0.021391286 1.7795528 -0.5580426 -0.2379944 -0.055756655 -0.37574396
1.7056578 1.4507439 0.64179254 -0.8930834 0.3962961 -0.063164525 -0.3689016 -0.8597462
-0.30907938 -0.70873255 0.0009419443 0.73353213 -0.7910554 -0.79538953 0.040574763 0.16058964
-0.33607063 0.3145806 0.2977288 0.37700275 0.032182597 -1.7212284 -0.32743242 0.5404627
0.49649134 -0.066755444 0.14805353 0.45855018 0.38444775 -0.016952876 0.46753478 -0.3405629
-0.36878422 -0.21820974 0.4422976 0.4070523 0.8788102 0.42122343 -0.9492246 -0.9106657
00000000: 119b 613c 52ba 203f 82f9 cb3f f885 8b3f
00000010: c558 8dbe 3028 133f f3e3 553f e1b5 f73e
00000020: 2494 12bf ffe2 f2be 6097 883e 4cde 403f
00000030: 8888 ddbe 8ace d53d f200 0f3e a169 103f
00000040: 72d2 323e 9172 6ebe 4f10 ee3f ae66 573f
00000050: 4066 623f ee46 06bf 7398 743f 9074 bbbf
00000060: 23b0 2c3e 4590 e5bf 75be 73bf 01dc b03e
00000070: d0f1 103f c501 32bd 3e14 433e 8a91 1cbe
00000080: d391 083e ce57 a33e bd5c 823e 81c9 913e
00000090: 7ca4 d3bf 834f 94bf fc6e 88c0 c4ed 6cc0
000000a0: a22d 8ac0 ad1d 61c0 de76 0b3f 5c6a c53e
000000b0: 20f9 853f b5b9 a83d 9b42 123f c418 07bf
000000c0: c878 2b3f 1175 913f fb7c af3e 9e01 713f
000000d0: 96ac 16bd b877 203e 9b18 4dc0 643c 27c0
000000e0: 4ec4 02c0 23ae cd3f 91e9 513f b972 50bf
000000f0: 5146 903f a0bf 04be 0da1 34c0 c6c1 983f
00000100: 5557 e73f 4592 d4be 99e3 d2bf 7c3d 973f
00000110: 375a b63c 0949 02bf 6398 76bd ca38 7abe
00000120: 99b1 5c3f e53f 173f c178 f5bf 8997 c83c
00000130: b2ca 39bf b913 55c0 87a3 d4be d9ee 7d3d
00000140: 894b cbbe 6438 e73f 0a21 5dbe de58 18bf
00000150: 3fda 7bbd e90c fe3e c598 f3be eb9c f3bd
00000160: 6cdb 963c 8e94 343e 2aff 06bf cee8 16c0
00000170: ac4e 453f 9d51 e5be 2fdc cb3e 5587 6e3e
00000180: faeb 71bf 91dd 573e 20cf 8dbd 5fcd 57bf
00000190: 15a0 e83e 57a0 a1bd e6c2 0f3f ace4 2fbe
000001a0: 66d3 79be 0a73 ad3d 0303 b53e e7bc 793e
000001b0: 5981 dd3e 4887 c13e 5a23 e43d 3706 edbe
000001c0: 08fd 933e 9ced 783f 470d 843e 23cf afbe
000001d0: 658c 6bbf c4f7 603f a5c5 88bc 9749 a8bd
000001e0: b019 87bd 1755 e73e 043c c6be e8cc 2bbf
000001f0: a679 28bf e3c5 3abf 9cbf 1bbe c6f6 65bf
00000200: ebd8 03be 0059 87bf 9d61 923f f52d 49bf
00000210: 9903 5abe 57c2 d8be 58fc 2c3e 6b58 a7bd
00000220: 3731 25be 504f 1a3e 31ac 1abe ff08 54bf
00000230: c397 8f3e da47 91bd f5b1 883c e17e 903c
00000240: fe84 24bf 14e9 d7bd 857a 2e3f 39e2 01bf
00000250: df49 1fc0 0991 273f b97c 6d3f 8cc7 a73f
00000260: 52c2 1c3e b7e7 203f cee4 163f 300c 00be
00000270: 3eef ec3e e25b d5bd 33e6 d43d 95e2 5fbf
00000280: 293c 103f d746 aabe faec 41be b589 8bbe
00000290: 0c58 c53f 87bf a03e dc69 ad3e b791 b1be
000002a0: 7f74 743e df7d 1d3f c9af 81be e4a9 62be
000002b0: db2d 86bf 5bbd b03e 9356 d8bd 8a9f 263f
000002c0: 7f53 9d3e 3520 95bd 5c87 b13f 2cc4 a93f
000002d0: 04a0 bcbf 451a 9a3d eb6e 893f 22a4 023f
000002e0: 1181 2dbf 2068 c53f f782 0bbf c97e 9fbf
000002f0: 7575 863f 25b0 f43c 1477 5bbe 3362 92bd
00000300: c95f 86be 8763 f63d e067 a73e bd0b 5f3e
00000310: bbab 2ebe 8313 a33e e453 bcbf e7b3 d7c0
00000320: abdd 05c1 52a2 2cc0 5f09 3ec0 74b4 4dc0
00000330: 7cfc 17c0 92c6 8cbf d39d 8bbd b1cb fdbd
00000340: 3270 5bbe dc16 5e3e c73c afbc 63c8 e33f
00000350: e1db 0ebf ceb4 73be 1761 64bd 8361 c0be
00000360: ff52 da3f fab1 b93f 844c 243f 1da1 64bf
00000370: 53e7 ca3e 675c 81bd ace0 bcbe 5418 5cbf
00000380: a73f 9ebe 7f6f 35bf d0ec 763a c3c8 3b3f
00000390: 9b82 4abf a69e 4bbf b931 263d 9c71 243e
000003a0: 7311 acbe b510 a13e e96f 983e 8106 c13e
000003b0: e6d1 033d 3651 dcbf 39a5 a7be c35b 0a3f
000003c0: 1d34 fe3e 14b7 88bd 589b 173e 17c7 ea3e
000003d0: 56d6 c43e c2e0 8abc b860 ef3e 435e aebe
000003e0: 49d1 bcbe 6072 5fbe d574 e23e 2969 d03e
000003f0: b5f9 603f 99aa d73e 6200 73bf 6321 69bf

linear1.bias f4 [64]
-0.89842033 -0.7954585 0.5530625 0.5586871 1.4009943 -1.5254819 -1.2003398 0.61889464
-0.5502104 -0.9184941 -1.0590225 1.1494329 -0.46873784 0.41369113 -1.3097565 1.1803488
1.6681808 -0.3834766 0.87953246 -1.4399472 -0.31282482 -1.1340195 -0.8828486 0.34569827
-0.5854564 -1.04476 -0.44161308 -0.73362035 -0.30867437 -0.91921055 -0.7970291 0.7260775
-0.67443186 -0.23183309 1.1628859 -1.1979135 -0.71103394 -1.2842728 1.1320214 -1.2776289
0.62002546 1.0706234 -1.0531564 0.6108118 0.23749119 -0.24885614 -0.20240995 0.65301615
-1.2754002 -0.82116264 0.5104325 -1.5441408 -0.8867257 -0.82267535 -0.7225912 0.08873586
-1.1251963 -0.6181194 -1.1412138 1.173288 -0.64581585 -0.9457136 1.2554339 -0.31024235
00000000: e0fe 65bf 2ba3 4bbf 8195 0d3f 1e06 0f3f
00000010: c853 b33f fe42 c3bf bca4 99bf e16f 1e3f
00000020: 97da 0cbf 6e22 6bbf 0d8e 87bf 9e20 933f
00000030: 68fe efbe 53cf d33e 1aa6 a7bf ab15 973f
00000040: f386 d53f 0b57 c4be 0a29 613f 3150 b8bf
00000050: 932a a0be 8d27 91bf 5e02 62bf 5dff b03e
00000060: 78e0 15bf b2ba 85bf 1c1b e2be 8bce 3bbf
00000070: 910a 9ebe 6251 6bbf 190a 4cbf 37e0 393f
00000080: 91a7 2cbf a765 6dbe 72d9 943f 3b55 99bf
00000090: 5206 36bf 0d63 a4bf 14e6 903f 5889 a3bf
000000a0: fdb9 1e3f 300a 893f d4cd 86bf 2a5e 1c3f
000000b0: e430 733e 25d4 7ebe 8e44 4fbe 112c 273f
000000c0: 5040 a3bf b737 52bf b4ab 023f 68a6 c5bf
000000d0: 7500 63bf da9a 52bf bdfb 38bf 26bb b53d
000000e0: 6f06 90bf 133d 1ebf 4b13 92bf 4d2e 963f
000000f0: 3054 25bf 491a 72bf 0fb2 a03f 16d8 9ebe

linear2.weight f4 [16, 64]
0.26894405 -0.33719242 0.65278006 -0.311788 0.02063461 0.7474862 -0.7594238 0.4814096
0.11531772 0.7095337 1.2581601 0.7055837 -0.19540198 0.3496409 -0.8758966 -0.22185974
1.2376415 0.3433552 -0.24620399 0.32052872 0.37340552 -0.6723355 -0.14977892 -0.19834699
-0.031352647 -0.22749424 -1.0003173 1.0250943 -0.3104542 -0.6458052 1.3818201 0.51982373
0.5074328 -0.117929906 0.3942551 0.23332468 -0.22942756 -0.6098496 0.1251855 0.25901482
0.8188696 0.41404152 0.73837495 -0.8808945 0.11573216 0.26767582 0.21181792 -0.31058514
-0.29729208 -0.21026061 0.46145335 -0.19376273 -0.21791449 0.15907146 0.5120705 -0.14383727
0.62461984 -0.6106616 0.50077564 -0.10706114 0.023770416 0.15190755 0.32045504 0.38326195
0.18033272 -1.1428075 0.41913882 0.09185909 0.7993052 1.0083351 0.5820758 -0.40806898
-0.45842865 1.4299879 -0.053236183 -0.12811251 1.0179025 0.31334022 0.034824185 -0.40589374
0.6586257 -0.83726484 0.31583202 -0.48655424 1.0624585 0.0002811884 -0.7672186 1.6994419
0.34323156 -0.036175795 -0.31656167 0.36343828 0.5230635 -0.3892507 0.61140114 -0.19819345
-0.6663278 0.34292227 -0.044156987 0.69510394 -0.6512174 0.07043908 0.030728692 -0.45300886
-0.23106438 1.114287 1.1446743 -0.71579576 -0.19012801 0.732622 -0.553185 0.5445753
1.1370155 -0.7014541 -0.006053777 1.1203 -1.086593 -1.1248841 0.4872207 0.58511496
-0.779547 -0.32017654 -0.37683827 -0.116802655 0.52074534 -0.92675346 0.5468008 0.6931167
0.3123418 0.45528212 -0.45507273 0.3234313 -0.8164582 0.19321251 -0.83383876 -1.1875011
-0.6724655 -0.15634087 -0.778706 1.4231356 -1.0587653 -0.26241547 -0.63288707 0.86114174
0.91151327 0.27735358 -1.1953787 0.7866481 0.5843975 0.2040619 0.74591744 -0.7394844
0.54379493 0.3634791 0.21237005 -0.04240621 0.054848336 -0.6799692 -0.8892488 -1.2016599
0.91031355 -0.20720996 0.18277383 -0.5045595 0.6845603 -0.05760403 0.46890685 -0.0853643
0.053350188 -0.29200715 -0.6995376 0.36313295 0.8740189 -1.3904597 0.93193114 -0.41297516
-1.3765523 0.3687087 -0.07315042 -0.38978398 0.9958368 0.36428317 -0.91466045 0.6963012
-0.19354834 -0.0308492 0.6478226 0.45205188 -0.4257865 0.35536706 -0.8725452 -0.43877158
0.44067192 -0.47465602 0.18157782 0.20354888 0.3781008 -0.067641124 0.57640827 0.3341197
0.5017354 0.61427444 -0.14423011 -0.65290123 0.16413039 0.16259116 1.3170283 -0.6263012
0.009455666 -0.8923945 -0.53544766 1.0684949 -0.5488823 -0.67358667 -0.7447535 -0.20987481
0.02224129 -0.34953496 -0.65740895 -0.74514997 0.12255118 -0.07896872 -0.77221215 -0.13185087
-0.2723111 0.3464464 0.09859883 -0.24333628 -0.17241575 0.14912859 -0.95839 -0.06235907
0.4305775 0.14081533 -0.1497883 0.5109 -0.19463438 0.3986227 0.20475794 0.5731435
-0.03928716 -0.6147433 -0.19379774 -0.52766186 0.0073015066 0.97717696 -0.33978575 -0.27032962
-0.13516961 0.29239094 0.7118082 -0.18121858 -0.36022127 0.15012681 0.24289744 -0.29890397
00000000: 09b3 893e 7ca4 acbe 981c 273f ada2 9fbe
00000010: ea09 a93c 415b 3f3f 9969 42bf 527b f63e
00000020: b22b ec3d 00a4 353f 640b a13f 22a1 343f
00000030: 7517 48be 2204 b33e c23a 60bf 332f 63be
00000040: 096b 9e3f 41cc af3e e61c 7cbe 571c a43e
00000050: 022f bf3e 2e1e 2cbf a55f 19be 791b 4bbe
00000060: a26b 00bd 40f4 68be 660a 80bf 4a36 833f
00000070: daf3 9ebe 7d53 25bf 7bdf b03f 2b13 053f
00000080: 1ee7 013f 3c85 f1bd cedb c93e aaec 6e3e
00000090: 0fef 6abe 1a1f 1cbf a130 003e 979d 843e
000000a0: 70a1 513f 40fd d33e 2406 3d3f 4d82 61bf
000000b0: fc04 ed3d ce0c 893e cce6 583e 0405 9fbe
000000c0: ab36 98be 8f4e 57be 9d43 ec3e bd69 46be
000000d0: fa24 5fbe a1e3 223e 0d17 033f 144a 13be
000000e0: 16e7 1f3f 5254 1cbf d532 003f df42 dbbd
000000f0: 2dba c23c a78d 1b3e af12 a43e e93a c43e
00000100: 24a9 383e 8447 92bf 5d99 d63e 9e20 bc3d
00000110: 449f 4c3f 2011 813f eb02 153f 6bee d0be
00000120: 29b7 eabe d809 b73f 2f0e 5abd ed2f 03be
00000130: a14a 823f 216e a03e cea3 0e3d 4ed1 cfbe
00000140: b29b 283f fd56 56bf bcb4 a13e a31d f9be
00000150: a4fe 873f 786c 9339 7068 44bf 5087 d93f
00000160: 0cbc af3e 122d 14bd 5f14 a2be 9514 ba3e
00000170: 7de7 053f de4b c7be c984 1c3f 39f3 4abe
00000180: 7594 2abf 8293 af3e f5dd 34bd 55f2 313f
00000190: 2fb6 26bf 5d42 903d bdba fb3c c7f0 e7be
000001a0: 249c 6cbe f5a0 8e3f b084 923f 643e 37bf
000001b0: ebb0 42be 1e8d 3b3f 889d 0dbf 4969 0b3f
000001c0: b989 913f 7f92 33bf c35e c6bb fe65 8f3f
000001d0: 7b15 8bbf 34fc 8fbf fe74 f93e 18ca 153f
000001e0: 6490 47bf 2eee a3be f2f0 c0be 3b36 efbd
000001f0: 914f 053f b73f 6dbf 23fb 0b3f 1970 313f
00000200: 44eb 9f3e bd1a e93e 4bff e8be ca98 a53e
00000210: 6803 51bf 80d9 453e 7576 55bf 0900 98bf
00000220: b326 2cbf d217 20be 4759 47bf 4f29 b63f
00000230: 9f85 87bf 525b 86be e304 22bf c973 5c3f
00000240: ef58 693f 4a01 8e3e 2b02 99bf c561 493f
00000250: 139b 153f 9af5 503e 72f4 3e3f da4e 3dbf
00000260: 2536 0b3f ef19 ba3e 8977 593e 22b2 2dbd
00000270: a6a8 603d 7612 2ebf cfa5 63bf fecf 99bf
00000280: 4f0a 693f d92e 54be 1029 3b3e d02a 01bf
00000290: 583f 2f3f 34f2 6bbd 8f14 f03e 7ad3 aebd
000002a0: ba85 5a3d f681 95be e514 33bf 90ec b93e
000002b0: b4bf 5f3f 95fa b1bf 0a93 6e3f 7b71 d3be
000002c0: de32 b0bf 63c7 bc3e e3cf 95bd c491 c7be
000002d0: 29ef 7e3f 5383 ba3e 3027 6abf cc40 323f
000002e0: 8931 46be 76b7 fcbc b4d7 253f 5873 e73e
000002f0: b000 dabe acf2 b53e 1f5f 5fbf aba6 e0be
00000300: c09f e13e 1d06 f3be 89ef 393e 1e6f 503e
00000310: 6e96 c13e 6e87 8abd 7e8f 133f bd11 ab3e
00000320: bb71 003f 1741 1d3f 0fb1 13be 8924 27bf
00000330: cc11 283e 4c7e 263e 6294 a83f 4755 20bf
00000340: f0eb 1a3c f773 64bf 1913 09bf 71c4 883f
00000350: 8d83 0cbf 2d70 2cbf 2aa8 3ebf 6ce9 56be
00000360: 5e33 b63c 3ff6 b2be f44b 28bf 26c2 3ebf
00000370: 1dfc fa3d 5aba a1bd b2af 45bf ea03 07be
00000380: 5c6c 8bbe 6c61 b13e 2fee c93d 252d 79be
00000390: c18d 30be 2ab5 183e 0c59 75bf 396c 7fbd
000003a0: a774 dc3e e531 103e 1b62 19be 58ca 023f
000003b0: 3c4e 47be 4618 cc3e 11ac 513e 88b9 123f
000003c0: 93eb 20bd d15f 1dbf ea72 46be d914 07bf
000003d0: 7a41 ef3b 4528 7a3f 66f8 adbe a568 8abe
000003e0: e769 0abe 44b4 953e 1039 363f 5d91 39be
000003f0: ec6e b8be d8ba 193e 1bba 783e f109 99be

linear2.bias f4 [16]
-2.0972114 -3.5182593 -2.9252741 2.6970727 2.6779232 2.91808 2.8729436 -3.441186
-2.774321 -3.9118814 -1.3989142 2.6436255 -2.2882235 0.14279088 4.5855517 -2.6179602
00000000: b638 06c0 292b 61c0 b137 3bc0 d79c 2c40
00000010: 1863 2b40 d3c1 3a40 4fde 3740 643c 5cc0
00000020: 7a8e 31c0 445c 7ac0 9f0f b3bf 2931 2940
00000030: 4172 12c0 c637 123e d7bc 9240 a98c 27c0

linear3.weight f4 [111, 16]
-1.0786039 -1.3393872 -0.41591778 0.5350287 1.5235454 0.70608175 -0.6638682 -0.62286097
-0.7100078 -1.3304231 -0.0877957 -0.41233504 0.073134184 0.7894505 1.8966299 -0.5513976
-1.0147436 -1.0881898 -0.044787962 -0.03975181 -0.7884424 0.40028617 1.1644186 0.4520647
0.6670961 -1.9340621 -1.0380006 0.44606373 -0.24912162 0.22502045 0.33984244 -0.75505143
-0.523272 -0.98721856 -0.03920797 -1.1096541 0.5010502 0.33858687 1.0559862 0.31609476
-0.24877167 -2.1277952 1.0570999 0.72719735 -0.3596524 0.48752043 0.32459566 -1.9027148
-0.05244903 0.51303107 -1.7769808 0.889608 -0.10147065 -0.27099764 0.8245416 -1.2823585
0.12708692 -0.5203194 0.011316118 0.10262762 -0.23262471 0.23102058 0.37294996 -1.0949073
-0.055652514 1.1722658 -2.7836704 0.6941236 0.19756979 -0.40384635 1.066914 -1.5630274
-0.15140238 -0.7535734 -0.20506646 0.10688481 0.07828578 0.44761583 0.74644643 -1.3222972
-0.00097624044 -1.0527205 0.4202213 1.5319669 -0.367453 -0.27927843 0.23981336 -0.6887173
0.4937515 0.18070266 0.5981738 -0.012451433 -0.6788173 0.12239837 -0.23983741 -1.1353067
-0.30581862 -1.1300448 0.17121728 1.4407626 -0.58617806 -0.15838596 0.26706746 -0.7046662
0.5717756 0.055979222 0.25953317 0.03255539 -0.92257416 -0.060539924 -0.12382105 -0.6290433
0.37461108 -0.75306404 0.4393968 1.1595304 -0.12847032 -0.46076924 0.09376328 -0.47957787
0.39839053 0.08617113 0.53287756 0.017910864 -0.5482526 0.24789822 -0.40486658 -0.84501326
0.07427996 -1.0330056 0.45544085 1.5981333 -0.36188114 -0.35246465 0.21812 -0.7405677
0.64783496 0.19356874 0.5948178 0.062211 -0.8009402 0.14343552 -0.2683382 -1.1926703
0.021754995 -0.05564023 0.05538765 -0.0065765134 0.0022004691 -0.038643714 0.026350047 -0.0049316557
-0.047025707 0.030161815 -0.04030544 -0.041840915 0.0019424899 -0.07792685 -0.032619983 -0.041824605
0.02324594 -1.6410809 -0.44652066 -0.051454883 -0.022757938 -1.3085239 0.39604118 -0.6600421
0.44652888 0.08378222 -0.30849406 -0.31145954 0.058075484 -1.2688824 -0.36849847 -0.5157136
0.01701525 0.006528755 0.04078364 0.0134023065 0.031164102 -0.018203016 0.02130856 -0.052855194
-0.018207526 -0.0069875657 -0.034834318 -0.029677438 -0.016357737 -0.031254966 -0.07649346 -0.021801617
0.053948566 -0.116917424 -0.050406955 -0.07294966 -0.0461608 -0.17084685 0.0030929972 -0.024885017
0.037212197 0.032710142 -0.03361413 -0.06682216 0.027157221 -0.107906334 -0.05153522 -0.035548646
0.032331493 0.00640518 0.013893334 -0.02155642 -3.365145e-05 -0.038645197 -0.013510206 0.016022459
-0.018936606 -0.00819599 -0.0102720205 0.01327147 0.008603122 -0.012896211 -0.002800375 -0.01815426
0.023099164 -0.059807926 -0.015995268 -0.02978373 -0.003792611 -0.07733722 0.014169002 -0.023525828
0.019940859 0.014530193 -0.026809404 -0.027690828 0.020290643 -0.06258817 -0.01923734 -0.0029637595
0.0022798688 0.0010122445 0.0027482337 0.00052999443 0.003774545 -0.00545773 0.007732604 -0.0013761324
0.0019795417 0.0014089625 -0.0057464535 0.0022370475 0.0010624655 -0.0005231824 -0.00049175957 0.0030922766
00000000: b10f 8abf 0a71 abbf 2df3 d4be a4f7 083f
00000010: 8903 c33f c6c1 343f 44f3 29bf d173 1fbf
00000020: 12c3 35bf 4e4b aabf 3bce b3bd 941d d3be
00000030: 60c7 953d 6e19 4a3f c5c4 f23f 6528 0dbf
00000040: 1ee3 81bf ce49 8bbf 9573 37bd cbd2 22bd
00000050: 5cd7 49bf 4ff2 cc3e ab0b 953f 0675 e73e
00000060: cfc6 2a3f 598f f7bf 34dd 84bf 7762 e43e
00000070: bd19 7fbe c36b 663e d4ff ad3e 0d4b 41bf
00000080: 27f5 05bf 5bba 7cbf 8998 20bd 2509 8ebf
00000090: d344 003f 425b ad3e 8e2a 873f 2cd7 a13e
000000a0: 00be 7ebe cc2d 08c0 0d4f 873f 9b29 3a3f
000000b0: 5c24 b8be 479c f93e 6731 a63e 298c f3bf
000000c0: cbd4 56bd 0156 033f 1b74 e3bf 5abd 633f
000000d0: d8cf cfbd 34c0 8abe 2915 533f 5324 a4bf
000000e0: 1323 023e a733 05bf 3d67 393c 6e2e d23d
000000f0: 2c35 6ebe a990 6c3e 4cf3 be3e ec25 8cbf
00000100: e4f3 63bd ce0c 963f a827 32c0 16b2 313f
00000110: bc4f 4a3e f3c4 cebe a390 883f 4811 c8bf
00000120: 3a09 1bbe 30ea 40bf f1fc 51be 6ce6 da3d
00000130: 4c54 a03d e72d e53e 1d17 3f3f 0941 a9bf
00000140: 63ea 7fba 8cbf 86bf 3f27 d73e 7e17 c43f
00000150: cd22 bcbe 95fd 8ebe a291 753e c74f 30bf
00000160: ffcc fc3e 1e0a 393e eb21 193f 1801 4cbc
00000170: f8c6 2dbf ffab fa3d f097 75be bb51 91bf
00000180: 4294 9cbe 4fa5 90bf 9553 2f3e e96a b83f
00000190: c40f 16bf ee2f 22be 11bd 883e 0165 34bf
000001a0: e35f 123f 784a 653d 88e1 843e cd58 053d
000001b0: d22d 6cbf b6f8 77bd e495 fdbd fb08 21bf
000001c0: 06cd bf3e cec8 40bf 9ef8 e03e 7e6b 943f
000001d0: b98d 03be f2e9 ebbe f606 c03d 3b8b f5be
000001e0: d8f9 cb3e 7d7a b03d aa6a 083f ceb9 923c
000001f0: 485a 0cbf 08d9 7d3e ac4a cfbe ca52 58bf
00000200: 1720 983d 8739 84bf 8b2f e93e a28f cc3f
00000210: 7c48 b9be 3f76 b4be d95a 5f3e d895 3dbf
00000220: 83d8 253f e236 463e fb45 183f f6d0 7e3d
00000230: 6b0a 4dbf c3e0 123e a063 89be 6ca9 98bf
00000240: 8837 b23c 03e7 63bd 29de 623d cb7f d7bb
00000250: bf35 103b df48 1ebd 0edc d73c ba99 a1bb
00000260: 079e 40bd e915 f73c 5117 25bd 6161 2bbd
00000270: 259b fe3a 1d98 9fbd 889c 05bd 4750 2bbd
00000280: 456e be3c f00e d2bf 5b9e e4be 5bc2 52bd
00000290: db6e babc b67d a7bf e9c5 ca3e 85f8 28bf
000002a0: 6f9f e43e 0396 ab3d eff2 9dbe a077 9fbe
000002b0: 8fe0 6d3d bd6a a2bf d5ab bcbe ce05 04bf
000002c0: 9163 8b3c 2bef d53b bf0c 273d 5995 5b3c
000002d0: dc4b ff3c 7e1e 95bc 4a8f ae3c b07e 58bd
000002e0: f327 95bc f3f7 e4bb 6eae 0ebd 191e f3bc
000002f0: a900 86bc 3505 00bd 9aa8 9cbd 4e99 b2bc
00000300: 2cf9 5c3d 6772 efbd 8677 4ebd a266 95bd
00000310: 1b13 3dbd 7af2 2ebe e2b3 4a3b aadb cbbc
00000320: d16b 183d 12fb 053d f8ae 09bd 0eda 88bd
00000330: d278 de3c fffd dcbd 9816 53bd 759b 11bd
00000340: 076e 043d 8be2 d13b dea0 633c 1797 b0bc
00000350: f824 0db8 6d4a 1ebd e959 5dbc 8841 833c
00000360: f120 9bbc 7948 06bc fa4b 28bc 9470 593c
00000370: 1cf4 0c3c a14a 53bc 7f86 37bb 3eb8 94bc
00000380: 753a bd3c 28f9 74bd 8208 83bc 02fd f3bc
00000390: 748d 78bb fa62 9ebd 1a25 683c 3db9 c0bc
000003a0: 035b a33c 0c10 6e3c 659f dbbc e0d7 e2bc
000003b0: 9038 a63c 3a2e 80bd a097 9dbc a23b 42bb
000003c0: da69 153b 4aad 843a b61b 343b 53ef 0a3a
000003d0: 5b5e 773b c2d6 b2bb c961 fd3b 575f b4ba
000003e0: 33bb 013b f0ac b83a bf4c bcbb 6e9b 123b
000003f0: 6d42 8b3a 2d26 09ba 6de9 00ba cba7 4a3b

linear3.bias f4 [111]
3.495726 0.95456207 1.7243569 0.48068583 0.40031064 0.7105099 0.67396057 0.6430327
0.8447291 -0.67568153 1.023504 -0.703496 -0.43077186 -0.90056396 -0.76134866 -0.9887585
-0.88546336 3.4476051 1.6615807 2.1726336 0.91935897 0.82594526 1.1338433 0.9215806
0.8537083 0.9526526 0.2845523 1.1198013 -0.7583081 -0.34101856 -0.85858756 -0.82070327
-0.96440667 -0.8971614 3.2107348 2.3187358 2.1325512 1.0142401 1.5842618 1.0845424
0.84345466 1.4194652 1.4715327 -0.58349484 2.1317434 -0.90830684 -0.6092607 -0.97678006
-0.88259894 -0.9975785 -0.93505067 3.390085 1.9347312 1.7461694 0.8189391 1.4933988
1.3818649 0.9177959 2.2432814 1.9802645 -0.4924871 2.4646485 -0.84857845 -0.40282443
-0.883219 -0.6994907 -1.002432 -0.89367 3.0409446 2.03141 2.6781683 1.3396599
1.2317563 1.3671703 1.1542286 1.6560365 1.3785145 -0.38790017 1.8131753 -0.70815504
2.418846 -0.846243 -0.6772245 -0.94155335 -0.99565625 3.2862868 2.4012992 2.6828797
1.0056393 0.94798344 1.2326583 0.9961211 1.601497 0.9289619 1.258376 1.8741076
-0.81211644 1.8129058 -0.9165706 -0.69030344 -1.001817 -0.9441905 2.43127 0.999103
1.1918412 1.062171 -0.5642784 -0.6653343 -0.8472776 -1.0003122 -0.9985662
00000000: fab9 5f40 2e5e 743f bab7 dc3f 741c f63e
00000010: 84f5 cc3e fae3 353f ae88 2c3f cb9d 243f
00000020: 2b40 583f 77f9 2cbf 2e02 833f 5018 34bf
00000030: 218e dcbe 5c8b 66bf bfe7 42bf 471f 7dbf
00000040: baad 62bf 90a5 5c40 adae d43f 6e0c 0b40
00000050: 1c5b 6b3f 2671 533f c721 913f b5ec 6b3f
00000060: a18c 5a3f 0ae1 733f d7b0 913e a655 8f3f
00000070: 7b20 42bf fc99 aebe 65cc 5bbf 9c19 52bf
00000080: 5be3 76bf 5fac 65bf ae7c 4d40 2b66 1440
00000090: b87b 0840 9fd2 813f 17c9 ca3f 49d2 8a3f
000000a0: a5ec 573f 09b1 b53f 2f5b bc3f eb5f 15bf
000000b0: 7c6e 0840 cc86 68bf 82f8 1bbf 420e 7abf
000000c0: 01f2 61bf 4e61 7fbf 7b5f 6fbf 27f7 5840
000000d0: 46a5 f73f 7b82 df3f fea5 513f b127 bf3f
000000e0: f3e0 b03f acf4 6a3f ec91 0f40 4f79 fd3f
000000f0: 4527 fcbe cdbc 1d40 703c 59bf 013f cebe
00000100: a41a 62bf d311 33bf b14f 80bf 8fc7 64bf
00000110: d69e 4240 9f02 0240 1c67 2b40 fa79 ab3f
00000120: 31aa 9d3f 70ff ae3f c3bd 933f 01f9 d33f
00000130: 2a73 b03f da9a c6be 2116 e83f a649 35bf
00000140: 5fce 1a40 62a3 58bf 965e 2dbf a409 71bf
00000150: 54e3 7ebf 8652 5240 e3ae 1940 4db4 2b40
00000160: cab8 803f 0baf 723f bfc7 9d3f cb01 7f3f
00000170: dbfd cc3f 72d0 6d3f 7712 a13f c2e2 ef3f
00000180: dde6 4fbf 4c0d e83f 5fa4 6abf bab7 30bf
00000190: 8a3b 80bf 78b6 71bf ed99 1b40 37c5 7f3f
000001a0: 418e 983f 38f5 873f 8d74 10bf 5953 2abf
000001b0: 2fe7 58bf 3b0a 80bf 09a2 7fbf
