policy_net_move_select5.pth (torch, 185999 bytes, 18 tensors)

conv1.weight f4 [16, 1, 3, 3]
000000 dd f2 d4 ba 55 e5 a3 c0 1c 24 a9 c0 e3 6a ad be
       -0.0016246695 -5.1217446 -5.285658 -0.3387061
000010 9c be 62 bd 03 36 11 be e5 99 51 c0 de 73 80 bd
       -0.05535756 -0.1418076 -3.275018 -0.062721
000020 d5 70 fd bd 94 28 c4 bf a7 e2 36 3e cb 23 34 3d
       -0.123750366 -1.5324883 0.17859899 0.043979447
000030 2f 05 8e c0 18 59 2f bd 41 bb 3a bd 56 6f 93 3f
       -4.438133 -0.042809576 -0.045588735 1.1518352
000040 43 cb 19 be a1 ab 24 3e 1b 6e 67 be a9 84 b7 bd
       -0.15018944 0.16081096 -0.22600596 -0.0896085
000050 49 4f 40 bd 63 7e 01 be 45 b5 ab 3d 6e bd 1a be
       -0.046950612 -0.12645869 0.08384184 -0.15111324
000060 86 1e 0f c1 e7 f7 ae be 79 00 2a c1 67 62 2e c1
       -8.944952 -0.3417351 -10.625115 -10.899024
000070 1c a5 71 bf 0e 96 9c be 6c 4c 2f bf bf 56 34 bf
       -0.9439256 -0.30583233 -0.68475986 -0.70444864
000080 8d fc fb be e0 07 f5 3c 70 a8 05 bf 0f 45 ca be
       -0.49216118 0.029910982 -0.5221014 -0.39505813
000090 4b 36 d3 bf 52 4e bf bf e6 31 d2 bf 73 70 80 3c
       -1.6500944 -1.4945776 -1.6421478 0.01567862
0000a0 0f 7c d2 3c 36 8f 0a 3d f2 1b 89 bf bd 08 2a 3d
       0.025693921 0.033827983 -1.0711653 0.04151224
0000b0 d3 95 d3 bf f1 b1 59 bf e0 b9 ba 3d c6 ae a5 be
       -1.6530098 -0.8503714 0.09117484 -0.32359904
0000c0 38 d8 cd be 6a ad db 3d af b4 bf be 85 fc 7b c0
       -0.40204024 0.107264355 -0.37442538 -3.9372876
0000d0 75 15 6c c0 72 03 54 bf 3c 45 bc 3e e5 0a f0 39
       -3.6888096 -0.8281776 0.36771572 0.00045784484
0000e0 a3 5a 3e be 69 4d 3e 3f 0e 08 87 be 67 f2 73 be
       -0.18589263 0.7433687 -0.26373333 -0.23822938
0000f0 5a 77 0b c1 86 2e c2 3d cc ae a1 3d b2 92 a5 bd
       -8.716639 0.0948153 0.07894668 -0.080846205
000100 c9 77 3d be de 2a 48 c1 06 a4 4f be bb ef 9a be
       -0.18502726 -12.510466 -0.20277414 -0.30261025
000110 25 6f 4e c0 ef b2 b0 bd 3b 5f 01 be b6 d5 c8 3e
       -3.2255337 -0.08627879 -0.12633984 0.39225549
000120 f8 43 79 3f cf 65 8f 3f 9a 60 9a bf ae a7 65 bf
       0.9736934 1.1202945 -1.206073 -0.89708984
000130 81 df b2 3e 41 59 e0 be 5c f8 29 bf 34 39 29 bf
       0.34936145 -0.43818095 -0.6639459 -0.6610291
000140 84 2f 32 c0 5f 80 89 3e ef 1c 14 bd 59 bd f5 bd
       -2.7841501 0.26855752 -0.036160406 -0.11999006
000150 de 8a 3e 3e 2f b1 c3 be 37 b8 3f bd c8 b3 d1 3e
       0.18607661 -0.38221118 -0.04680654 0.40957475
000160 69 a9 93 3c 08 f6 0f c1 3c 44 01 bf 25 19 37 be
       0.018025117 -8.997566 -0.5049474 -0.17880686
000170 f5 a8 05 3f 11 b2 e5 bf fe 13 29 be 7d b0 c5 3e
       0.5221093 -1.7944967 -0.16511533 0.38611212
000180 7e aa a6 3d 15 32 be 3d 41 7d e0 c0 11 0d 90 bc
       0.081379876 0.09286896 -7.01529 -0.017584356
000190 ce 40 8e c0 98 da e1 3d b7 ee 0b be cc 83 a1 be
       -4.4454107 0.110280216 -0.13665281 -0.31545866
0001a0 6c 97 7d 3d c1 05 b8 3a 78 62 32 c0 f6 e6 64 3e
       0.061911985 0.0014039801 -2.78726 0.2235373
0001b0 f1 91 f4 3e 10 17 ab be c9 06 67 3d 02 9c a2 3d
       0.47767594 -0.33416033 0.056402955 0.079399124
0001c0 d8 c6 85 bc 34 b5 46 3e 09 3a 13 3f bc f8 0b bc
       -0.016330168 0.19405061 0.5751043 -0.00854319
0001d0 c5 36 4d 3f 8b ae ae bf c4 90 dc bf c4 81 cf 3f
       0.80161697 -1.3647016 -1.7231679 1.6211476
0001e0 47 04 b8 3e b3 39 28 3f fe e2 ac bd e7 64 67 be
       0.35940763 0.6571304 -0.08441733 -0.22597085
0001f0 71 72 6d bf 4b 06 0c 3f e5 60 9f bf 4e 26 b0 bf
       -0.9275275 0.546971 -1.2451445 -1.376169
000200 ec a6 99 bf 23 34 1f 3c dc b9 28 3e ad ce 10 bd
       -1.2004066 0.00971702 0.1647715 -0.03535335
000210 ef 2d 0d bf bc c8 23 bf ec 7e 11 bf f5 c6 06 be
       -0.55148214 -0.6397817 -0.5683429 -0.13161834
000220 91 df 95 3e 94 a8 36 be 0d e6 f9 c0 b1 50 44 3e
       0.2927213 -0.17837745 -7.8093324 0.19171406
000230 26 c4 ad 3d a8 11 c4 be 31 e3 f5 3e b5 9e 35 3d
       0.08484678 -0.3829472 0.48024896 0.044340808

conv1.bias f4 [16]
000000 e3 07 b6 bf ba c9 a5 3f 83 75 13 be 4e 03 2d be
       -1.4221157 1.2952187 -0.14400296 -0.16895792
000010 0f 6a e6 be 58 dc e8 bd 73 21 a6 3f 21 80 d6 be
       -0.4500279 -0.11370152 1.2978958 -0.4189463
000020 76 d3 23 3f 56 41 b0 bf 2e 61 86 3f 45 57 09 3f
       0.6399454 -1.3769939 1.0498407 0.5364879
000030 65 75 c0 bd 16 ae b0 3e f5 f6 2c c0 0e fc 28 3d
       -0.09397391 0.34507817 -2.702573 0.041256003

bn1.weight f4 [16]
000000 42 33 f4 3f ec 2d 44 3f f5 c1 f2 3f 49 89 e9 3f
       1.9078143 0.7663257 1.8965441 1.8245021
000010 13 b0 32 40 95 79 ad 3f 58 31 cb 3f 88 aa ba 3f
       2.7919967 1.3552729 1.5874434 1.4583292
000020 13 a7 a5 3e 31 78 5e 3f bb 4d dd 3f f5 6c a6 3f
       0.3235403 0.8690215 1.7289346 1.3002001
000030 80 1e b4 bc 65 ff 7a 3c b7 f1 bb 3f 43 48 72 3f
       -0.0219872 0.01531968 1.468314 0.9464151

bn1.bias f4 [16]
000000 b8 6f ad bf 76 a1 b8 be c0 bf 48 bf ef ca 64 bf
       -1.3549719 -0.36060685 -0.7841759 -0.8937215
000010 c1 6e 10 c0 e1 9b 77 bf 45 77 16 bf c1 9c 35 bf
       -2.25676 -0.9672223 -0.5877574 -0.7094231
000020 11 7a 23 be 7e 35 ae bd 85 f4 82 bf 6b a6 26 bf
       -0.15964533 -0.085062966 -1.0230871 -0.65097684
000030 2d ac a3 bd ff 76 f2 bd ca 10 94 bf 1b 92 84 be
       -0.07991824 -0.11839103 -1.1567624 -0.2589272

bn1.running_mean f4 [16]
000000 71 49 dc c1 d8 a5 ff c0 08 03 ea c1 ad 9d f1 c1
       -27.53586 -7.9889946 -29.25148 -30.20199
000010 41 99 59 c1 c5 16 79 c1 d3 1e 31 c1 29 50 f5 c1
       -13.5999155 -15.568059 -11.070025 -30.66414
000020 87 3e 97 c0 8e 7f 44 c1 f1 91 30 c1 41 0f 3a c1
       -4.7263827 -12.281141 -11.03563 -11.628724
000030 8c a2 2f 40 fe b2 01 c0 61 f4 47 c1 ff f2 5b c1
       2.744296 -2.0265498 -12.497163 -13.746825

bn1.running_var f4 [16]
000000 e9 eb cc 43 68 21 c0 42 84 31 56 44 a0 59 12 44
       409.84305 96.06525 856.7737 585.4004
000010 78 6c a7 42 23 8f 38 43 15 03 88 43 67 01 5a 44
       83.71185 184.55913 272.02408 872.0219
000020 4e 38 5a 42 51 6c 8c 43 e5 77 4c 43 c6 c2 f6 42
       54.554985 280.84622 204.46834 123.38042
000030 b3 7b d6 40 84 3f bd 41 ba 8a 32 42 ad 11 6b 43
       6.7026 23.656013 44.635475 235.06905

conv2.weight f4 [32, 16, 3, 3]
000000 f5 af e7 be 9c 54 bf bf dd f7 c7 3f e3 54 3e 3f
       -0.45251432 -1.4947696 1.5622517 0.74348277
000010 18 ff a6 3c 7b df 41 be 1f 0e 8d 3e ab 1d 14 bc
       0.02038531 -0.18932907 0.27549836 -0.0090402765
000020 9a 6b c4 be fb 68 6b 3f 33 eb 6e 3f d7 6e e1 3e
       -0.38363343 0.9195706 0.93327636 0.44029877
000030 a6 d8 1c bf 84 45 93 be 62 44 bc bd dc 34 5d be
       -0.6126808 -0.28763974 -0.091927305 -0.21602196
000040 1b f2 63 be f4 cb 7a be 41 f6 4b bf cd 75 f6 bc
       -0.22260325 -0.24491864 -0.7967263 -0.030085469
000050 b1 38 13 be 37 7e 23 be e4 65 49 bd 36 21 15 3f
       -0.14377095 -0.15966116 -0.049169436 0.582538
000060 4f 68 15 3e 9d f8 28 3e cb 1b 10 3f c1 e3 04 40
       0.14590572 0.16501088 0.5629241 2.076401
000070 c7 7d 97 3f ab 14 28 c0 73 99 cc be 45 7c d4 be
       1.1835259 -2.6262615 -0.39960822 -0.4150106
000080 53 8c 19 3f 81 cb e7 3e ff de 43 bf 29 52 02 bf
       0.5997974 0.4527245 -0.7651214 -0.50906616
000090 2e eb 1c 3d da 82 12 3e aa e3 9f 3d 8c 80 bb 3e
       0.038310222 0.14307728 0.07807095 0.3662151
0000a0 36 e7 b7 bd a3 b4 f6 be 86 cd d0 be 73 6c 10 3f
       -0.08979647 -0.4818469 -0.40781802 0.5641548
0000b0 ee a1 d9 be bd 85 2c 3f 38 1c e6 3e c6 d3 7c 3f
       -0.42506355 0.6739157 0.44943404 0.9876064
0000c0 82 eb e5 bf 32 a3 e9 bf a8 ed d1 be 82 33 c9 3f
       -1.7962496 -1.8252928 -0.4100163 1.5718844
0000d0 c9 9b 8e be c8 af e3 be 84 32 a9 be 00 df 1b 3c
       -0.2785323 -0.44470048 -0.33046353 0.009513617
0000e0 b4 9f 48 3f a6 67 5e 3e d8 85 d0 be 29 18 2d bf
       0.7836869 0.21719226 -0.40727115 -0.6761499
0000f0 5e d8 8d 3d 16 fe 21 3f 15 d0 0c 3f 56 30 b2 bf
       0.069260344 0.6327833 0.5500501 -1.3921001
000100 e0 d4 c3 3f 3f 55 04 40 32 81 08 3f ca fe 82 3e
       1.5299339 2.067703 0.53322136 0.25585014
000110 b7 58 25 3f a1 fe 99 bf eb 3d 83 be b8 81 b2 be
       0.64588493 -1.2030832 -0.25633177 -0.34864593
000120 68 c4 18 3f ee 47 8a 3e 34 1e 83 3e 83 f8 d9 3e
       0.5967469 0.27008003 0.2560898 0.42572412
000130 62 61 82 3f c2 5a 21 3f a5 e4 1f be e9 43 42 bf
       1.0185969 0.6302911 -0.15614565 -0.7588487
000140 64 be ab be 18 34 7f bf 91 9b af bc aa 97 16 bf
       -0.33543694 -0.99688864 -0.021436485 -0.5882517
000150 e0 eb 00 3f 31 6f 37 bf 5d 4c 38 3d bb 7e 4e 3f
       0.50359917 -0.7165404 0.0449947 0.80662125
000160 96 b5 cf bd 7f ed 18 be da 0b 57 3f 57 9b 7c bf
       -0.10142057 -0.14934348 0.8400246 -0.9867453
000170 73 6d 83 3f 21 2e d4 bd 97 6d 50 3f 0c 63 9a be
       1.0267776 -0.10360361 0.8141722 -0.30153692
000180 3e cd 60 bd 49 10 19 bf 0f 54 ed 3e 71 79 a2 3f
       -0.054883234 -0.59790474 0.46353194 1.2693311
000190 34 a0 c8 3f fc 9e ae 3e a3 9b c2 be 51 ad af 3e
       1.567389 0.3410567 -0.38009366 0.34311917
0001a0 41 ae 0f bf 95 e3 e8 be 10 e6 c5 bd d3 e9 f8 3e
       -0.56125265 -0.4548613 -0.096630216 0.48615894
0001b0 05 e0 43 bf 7b 04 90 3e f7 0e 04 be a5 51 1d 3f
       -0.765137 0.28128418 -0.12896334 0.61452705
0001c0 61 5d 2a bd 55 4b e4 bc 3a fd 69 3f d4 e7 1d bf
       -0.04159296 -0.027867952 0.9140202 -0.61681867
0001d0 56 82 c6 3d d4 73 62 3f 2b 02 3c 3f 7e fc 22 3f
       0.09692828 0.8845799 0.7344081 0.6366652
0001e0 4b 85 cc be 89 04 6e 3f f9 ab d4 bf 94 61 88 be
       -0.39945444 0.9297567 -1.6614982 -0.26636946
0001f0 78 5a 47 bf e0 d5 bd 3e 3a 93 62 bf f8 d2 ac 3d
       -0.7787242 0.37077236 -0.885059 0.084386766
000200 da a3 ab bf 33 44 b0 bc 0e 28 1c 3f 64 9c 3c 3e
       -1.3409379 -0.021516895 0.6099862 0.18419033
000210 69 ee 25 be 7f 6b f1 3e 19 7a db bd aa 8d d3 bb
       -0.16204228 0.47152326 -0.10716648 -0.0064560967
000220 1a b1 24 bf 50 6e a4 3e 60 9e ce 3e 1e 22 8c be
       -0.64332736 0.32115412 0.40355206 -0.2736978
000230 ef 2e 98 3e ce c9 09 be b7 b1 69 3f e4 fd 9d bf
       0.29723307 -0.13455889 0.91286796 -1.2343106
000240 8b 10 e6 3e 94 fd 9a 3f 66 af 28 3f 23 79 2e 3e
       0.44934496 1.2108636 0.65892637 0.17038397
000250 88 a7 98 bf 47 5d 03 3f 73 33 27 be e0 7b d3 3e
       -1.1926126 0.51314205 -0.1632822 0.41305447
000260 ff b6 a9 be 77 0b 8a 3f 47 ea 68 be a7 01 6b bf
       -0.33147427 1.0784749 -0.2274562 -0.91799396
000270 84 08 92 3e 33 4d 3a be af ff ed bf e9 af bc 3d
       0.28522122 -0.18193512 -1.8593653 0.0921324
000280 fb d0 bc be 26 7b b2 be 8d e9 ba be e6 51 9a 3d
       -0.3687819 -0.3485958 -0.3650631 0.07535152
000290 4f a8 dd bc a1 34 c9 bc 17 74 ae be 19 f9 79 be
       -0.027057795 -0.024561228 -0.34072945 -0.2441143
0002a0 d9 67 19 3f d8 2d 86 3e 7c 4a 20 be a1 0e db be
       0.59924084 0.2620685 -0.15653414 -0.42784598
0002b0 92 f1 4f be fc 19 60 3e 1b 9c d7 3e c4 91 b8 3e
       -0.20306996 0.21884912 0.42111287 0.3604871
0002c0 b5 69 cd be e7 77 b7 be fb b0 41 be 30 0d 07 bd
       -0.4011971 -0.35833666 -0.18915169 -0.03297156
0002d0 8c 5d b8 c0 b1 97 fd 3f ec 3a ec 3f 59 31 fc 3f
       -5.7614193 1.9811918 1.8455482 1.970256
0002e0 5b 89 01 bf 24 11 48 3f ed 0e c1 be 5a 7f 10 bf
       -0.5060021 0.78151155 -0.377067 -0.56444323
0002f0 fc 2c 33 bf 0c f6 3b 3f 2f 4f 58 3f 3f af 14 bf
       -0.69990516 0.7342231 0.84495825 -0.58079904
000300 c0 7d 4e 3f 85 5e 6d bf b7 ac 41 3f a7 a8 93 3e
       0.8066063 -0.9272235 0.75654167 0.2883961
000310 dc 7f 0f bf d5 a7 71 be f6 b4 79 3e 63 c5 37 3d
       -0.5605447 -0.23599179 0.24385437 0.044865977
000320 47 72 99 bd 37 8c 02 be 43 d1 4a 3e f6 53 07 be
       -0.074925 -0.127488 0.1980639 -0.13215622
000330 07 f8 ae ba d3 49 4e be 05 e4 87 be a7 69 c7 3d
       -0.0013349064 -0.20145349 -0.26541153 0.097369485
000340 71 4a 62 3d 46 18 a5 3e c9 cc 99 bd d2 48 97 3a
       0.055246774 0.32245082 -0.07509763 0.0011542088
000350 26 d6 c0 3d 79 73 d8 bd 9d bc 55 be e9 30 23 3c
       0.094158456 -0.105689 -0.20872732 0.009960392
000360 f6 05 82 be 5b 03 4e 3e 2d 87 5d 3c 80 8c dd 3d
       -0.25395173 0.20118468 0.013520998 0.10817814
000370 2b 17 33 bd dd 31 2f 3d 98 c4 79 be 06 15 9c bd
       -0.043723267 0.042772163 -0.24391401 -0.076211974
000380 8e 0a 1d 3e 37 17 bd bd ee 63 7c 3e c9 a9 ef 3c
       0.15336058 -0.092329435 0.24647495 0.029255765
000390 aa 79 43 3d 6b 77 42 3d e7 1e ca bd 6d df 06 3d
       0.04772345 0.047477167 -0.098691754 0.03292792
0003a0 9d eb 06 3e 5a 9b 78 3d 8b bb ff bd 2a 8c 9f bc
       0.13175817 0.06069503 -0.12486943 -0.019476015
0003b0 2d 8a 28 3b c5 06 ae 3d 5a b0 5c bd 2b 55 21 bd
       0.0025717125 0.08497385 -0.05387912 -0.039387863
0003c0 d8 7f 2a be 32 09 5c be 11 43 e5 be 43 32 df 3e
       -0.16650331 -0.21487883 -0.4477773 0.43593034
0003d0 08 57 86 be cd d7 ef bc ef 8f d9 3d 9d 90 20 be
       -0.26238275 -0.029277707 0.10623156 -0.15680166
0003e0 14 30 ed bd 10 82 c6 3e 1a 78 35 be 6d 25 3c 3d
       -0.11581436 0.38771105 -0.17721596 0.04593413
0003f0 2e 1d 94 be 9e 2e 25 3d 8e 24 07 be 2c 6e fb be
       -0.28928512 0.04032766 -0.13197538 -0.49107492

conv2.bias f4 [32]
000000 04 6b a5 be 53 7c 2b c0 5b 96 8d c0 2c 0d 82 bf
       -0.3230821 -2.6794631 -4.424604 -1.016027
000010 06 bb 26 3f bf e5 85 be bc d4 0c 3f 1c dd b3 3c
       0.65129125 -0.26151845 0.55012107 0.02195602
000020 23 bc ab 3e d9 e3 5f 3f 3a f2 81 be 40 f4 23 40
       0.33541974 0.8745704 -0.25380117 2.5617828
000030 10 6c 89 bf 42 f9 71 bf ac 7e 1a 40 42 bf 10 3f
       -1.0736103 -0.9452096 2.4139814 0.56541836
000040 24 de 0c 40 64 ed 79 3e 09 62 05 c0 ae 66 49 3f
       2.2010584 0.24406964 -2.0841086 0.786723
000050 b6 6d 73 bf 90 68 5b c0 95 53 71 3d ad b4 4e bf
       -0.9508928 -3.428257 0.0589176 -0.8074444
000060 9a 8f 8b 3f 91 bb 09 40 f5 a2 9a be 4d 8e c3 3f
       1.0903199 2.1520731 -0.3020245 1.5277802
000070 1e c3 45 40 2f 7a c2 3e 11 2b 8e 3f fd ae c2 3f
       3.090034 0.37983844 1.1106893 1.5209652

bn2.weight f4 [32]
000000 63 a1 1e 3e 0b de 9a 3c 73 11 d1 3d bf 14 2f 3e
       0.15491252 0.018904706 0.10208406 0.17097758
000010 63 66 c8 3d 9a b0 8d 3d 2a 0c 7a 3d ed c1 ba 3c
       0.09785154 0.0691845 0.061046757 0.02279755
000020 6d 51 df 3d e3 82 90 3e 62 8d c1 3e 70 7a fe 3d
       0.109042026 0.2822486 0.3780318 0.12425697
000030 2c b6 ea 3d e6 05 a6 3d 40 11 bd 3d d2 68 ed 3d
       0.11460528 0.08106594 0.09231806 0.115922585
000040 d4 aa b5 3d af a1 14 3f 89 c2 9f 3d b0 eb a3 3c
       0.088704735 0.5805921 0.078007765 0.020009845
000050 f6 c2 04 3e dc 1a 96 3d 0c 4e 33 3f 64 f1 64 3e
       0.12964997 0.07329342 0.70040965 0.22357708
000060 22 fa 0a 3e d2 ea 06 3e fe 0d cc 3d f3 00 0e 3e
       0.1357198 0.13175514 0.09963606 0.1386755
000070 48 a6 d1 3d 00 2c 36 3f 2b 21 d6 3d f5 5d 8d 3d
       0.10236794 0.7116089 0.10455545 0.069026865

bn2.bias f4 [32]
000000 27 d6 d6 be f1 1d 09 be f4 79 ca bc bf ab e4 bd
       -0.4196026 -0.13390328 -0.024716355 -0.111655705
000010 ec 98 d9 bd 95 a4 c4 bc 4d 5d 86 bc d8 c8 46 be
       -0.10624871 -0.02400426 -0.016401911 -0.19412553
000020 6f 9d cb bd 35 73 b1 be bb b4 aa be c4 b9 40 be
       -0.099421374 -0.34658208 -0.3334101 -0.18820864
000030 b4 3e 0c be b9 33 24 bd 3f af 02 be 49 de d4 bd
       -0.13695794 -0.04008839 -0.12762164 -0.1039396
000040 9c d1 8e bd 19 a4 03 bf d4 cd eb bc a7 73 b5 bd
       -0.069735736 -0.5142227 -0.02878467 -0.088599496
000050 c3 5f ee bd f2 8f 37 bd 7f c6 61 bf c0 03 ff be
       -0.11639359 -0.04481501 -0.88193506 -0.4980755
000060 75 9d 40 bb de 1d 93 be b5 84 b8 bd ed 5b 51 3d
       -0.0029390727 -0.28733724 -0.09009687 0.051113058
000070 d8 a7 86 bd 4a 07 7a bd 4f 17 f7 bd 6a b9 ad bd
       -0.065749824 -0.061042108 -0.12064993 -0.084826306

bn2.running_mean f4 [32]
000000 41 fb 04 bf e7 9d 48 c0 4f 86 32 c0 45 3b 58 c0
       -0.51945883 -3.1346376 -2.7894475 -3.3786175
000010 a7 46 99 be a4 52 25 40 09 a2 67 c0 ee 01 bf 3f
       -0.29936716 2.583169 -3.6192648 1.4922464
000020 42 61 bc 40 bc c7 7a 40 99 ad 3e 40 6a 86 bb 3f
       5.8868723 3.9184408 2.9793456 1.4650395
000030 36 d1 ed 3f b0 bc 0a 3f c2 6a c2 3f 36 5f 9e 3e
       1.8579471 0.54194164 1.518883 0.30932015
000040 9a c7 04 40 98 dc ec 40 96 79 35 40 c6 35 37 40
       2.0746827 7.401928 2.835546 2.862657
000050 1d 00 f8 40 b8 99 86 c0 00 8a 34 c0 24 75 be bf
       7.750014 -4.2062645 -2.8209229 -1.4879498
000060 9d 50 98 40 bd 88 b0 3f d6 28 4e 40 89 1b e2 c0
       4.7598405 1.3791729 3.2212424 -7.065861
000070 4a 80 11 3e d7 95 70 40 8f 23 6c 3e a9 5a 64 3e
       0.14209095 3.7591455 0.2306044 0.22300209

bn2.running_var f4 [32]
000000 d7 b2 9c 40 9c 4d 63 40 de 45 38 41 e3 90 9c 41
       4.896831 3.551612 11.517057 19.570745
000010 78 61 0d 41 ff e2 2f 41 8d d4 f8 41 4c 64 b3 40
       8.836296 10.992919 31.103785 5.6059933
000020 b7 53 8a 41 60 5e 0b 42 fd d4 05 42 a0 bd df 40
       17.290876 34.842163 33.457996 6.9918976
000030 28 2a 04 41 44 eb 11 41 44 c6 30 41 a0 7a 00 41
       8.260292 9.119938 11.048405 8.029938
000040 80 a3 e2 40 95 5d 43 42 8c 86 d8 41 a9 4d c7 40
       7.0824585 48.84139 27.065697 6.22823
000050 2c e5 19 42 96 51 ff 40 24 b9 df 41 e1 33 3a 41
       38.4738 7.978709 27.9654 11.637666
000060 7f c0 8b 41 75 8b bb 40 ea ab 10 41 81 06 ad 42
       17.468992 5.8607736 9.041971 86.5127
000070 ff a3 04 42 10 63 f3 41 0e c8 79 41 dd 9d 19 41
       33.160152 30.42337 15.611341 9.601041

linear1.weight f4 [64, 576]
000000 04 e2 d9 be fe ee 49 bf f4 84 3b bf 67 ed 03 3f
       -0.4255525 -0.788803 -0.73249745 0.5153412
000010 3c 1e e9 be 2b f7 e1 3d 8e 06 78 3f c9 01 99 3d
       -0.4553088 0.11033472 0.96885 0.074710436
000020 e8 b3 2e bf 07 45 31 bf 97 86 6f bc 5c 13 56 3f
       -0.68243265 -0.6924595 -0.014619491 0.8362329
000030 1e 46 a6 be f8 25 ec bc 1f 8f ff 3d 8d 3d 0c 3f
       -0.3247537 -0.028826699 0.1247847 0.5478142
000040 7b 29 52 3e d5 85 90 be 4f 10 ee 3f ae 66 57 3f
       0.20523636 -0.28227106 1.8598727 0.8414105
000050 40 66 62 3f ee 46 06 bf 73 98 74 3f 90 74 bb bf
       0.8843727 -0.5245198 0.9554512 -1.4644947
000060 23 b0 2c 3e 45 90 e5 bf 75 be 73 bf 01 dc b0 3e
       0.16864066 -1.7934653 -0.9521249 0.3454285
000070 d0 f1 10 3f c5 01 32 bd 3e 14 43 3e 8a 91 1c be
       0.56618977 -0.04345872 0.1905069 -0.15289894
000080 d3 91 08 3e ce 57 a3 3e bd 5c 82 3e 81 c9 91 3e
       0.13336878 0.31902927 0.2546138 0.28474048
000090 c0 13 ff bf bc 34 93 bf c3 8f 82 c0 fd e9 86 c0
       -1.9927902 -1.1500468 -4.080049 -4.216063
0000a0 bb 1b 8d c0 9a b0 4e c0 9d 57 41 3d ff f5 ce 3e
       -4.409635 -3.229529 0.047202695 0.40422055
0000b0 f4 1e 82 3f f6 ce c2 be e0 d5 6c 3e 06 df 1a bf
       1.0165696 -0.38048524 0.23128462 -0.60496557
0000c0 80 93 6a 3f 61 e1 9e 3f 53 cf 34 3e 05 17 6e 3f
       0.9163132 1.241253 0.17657213 0.93003875
0000d0 fa 45 87 bc 16 eb c4 bd 65 97 3c c0 42 c3 a6 bf
       -0.01651286 -0.096151516 -2.9467404 -1.3028338
0000e0 24 84 f1 3e bc f0 18 40 ad 26 a0 3f 9b 68 3a bf
       0.47171128 2.3896933 1.2511803 -0.72815865
0000f0 64 a1 10 3f 03 b3 83 be b9 9a 30 c0 ca fa 56 3f
       0.5649626 -0.25722513 -2.7594435 0.83976424
000100 65 49 bf 3f 15 37 15 bf e8 3b bf bf b3 6a 8e 3f
       1.4944273 -0.58287174 -1.4940157 1.1126312
000110 ad 48 b2 bd 51 1c 8d be 21 d1 36 bd 6d e0 f3 be
       -0.08705268 -0.27560666 -0.044633035 -0.4763216
000120 22 0e d0 3e b5 23 d4 bc 81 a5 4e 3f bf 01 78 bd
       0.40635782 -0.025895933 0.8072129 -0.06054854
000130 c1 d9 89 bf 81 5e 73 c0 f5 6b 61 bf ab ec 69 3e
       -1.0769578 -3.802643 -0.88055354 0.22844188
000140 a2 54 c7 be 9d 90 fb 3f e7 e0 06 bf 13 d4 12 bf
       -0.38931757 1.9653507 -0.52686924 -0.5735485
000150 99 53 7f 3e 59 bb bc 3e 5b 66 c2 be b8 6d a4 3e
       0.24934234 0.36861685 -0.37968716 0.3211496
000160 6e ca e3 ba 70 f6 f8 3d 93 8c 1c 3d a3 f0 e2 bf
       -0.0017379054 0.12156379 0.03822 -1.7729686
000170 46 c6 87 bf b7 5a 2a bf 8a 2d 13 3c 76 e6 09 bd
       -1.0607383 -0.6654467 0.008983025 -0.03366705
000180 33 b6 12 bf 8e 8a 08 3e 79 c0 20 be 41 29 95 bf
       -0.57309264 0.13334104 -0.15698422 -1.1653215
000190 3e 00 ad 3e 24 0b e5 be 05 55 81 3e d4 22 80 be
       0.33789247 -0.44735062 0.25260177 -0.25026572
0001a0 97 b1 02 bf 4d cb d7 be 1f a9 87 3d 46 58 05 3f
       -0.5105223 -0.42147294 0.06624054 0.5208782
0001b0 9d a0 85 3f 98 32 ed 3e fc de 10 3e a2 28 89 be
       1.043964 0.46327662 0.14147562 -0.26788813
0001c0 6c 03 58 3c f7 28 9d 3f e1 46 72 be 4e 0c 46 bf
       0.01318441 1.2278126 -0.2365985 -0.77362525
0001d0 7e 9c 91 bf bb 45 79 3f 92 60 52 bd fc f6 d3 be
       -1.1375883 0.97372025 -0.051361628 -0.41399372
0001e0 b9 ba e3 bc 56 24 f3 3d 4b c1 54 bf 01 c8 83 bf
       -0.027798997 0.11872165 -0.8310744 -1.0295411
0001f0 bd d8 1f bf b9 bf 90 bf 9c bf 1b be c6 f6 65 bf
       -0.6244009 -1.1308509 -0.15209812 -0.8982967
000200 eb d8 03 be 00 59 87 bf 9d 61 92 3f f5 2d 49 bf
       -0.12875716 -1.0574036 1.1436039 -0.7858575
000210 99 03 5a be 57 c2 d8 be 58 fc 2c 3e 6b 58 a7 bd
       -0.21290435 -0.4233577 0.16893137 -0.08171161
000220 37 31 25 be 50 4f 1a 3e 31 ac 1a be ff 08 54 bf
       -0.16132055 0.15069318 -0.15104748 -0.82826227
000230 c3 97 8f 3e da 47 91 bd f5 b1 88 3c e1 7e 90 3c
       0.28045473 -0.07093783 0.016686419 0.017638626
000240 d7 e0 64 bf 05 c6 3e bf a3 13 c9 3e 19 8e 6b bf
       -0.8940558 -0.74520904 0.39272794 -0.920137
000250 0a 1e 37 c0 2c 72 c9 3e ba f2 37 3f 42 1a a7 3f
       -2.8612084 0.3934492 0.71854746 1.3054888
000260 dd 22 1f 3f 91 91 3e 3f d8 19 08 3f d6 0e e3 bd
       0.6216257 0.74440867 0.53164434 -0.11086814
000270 a9 1c 8d 3e 6c e5 82 be e1 c9 74 3e c1 fa b1 bf
       0.27560928 -0.2556566 0.23905136 -1.3904649
000280 f8 b6 2e 3e 7e 14 84 bc bb 5c 21 be 49 80 3c bf
       0.17061985 -0.016123053 -0.1575803 -0.7363325
000290 e5 97 9e 3f 30 6c 83 3e 39 6e ee 3e c3 87 f9 be
       1.2390105 0.25668478 0.46568468 -0.4873639
0002a0 74 76 34 3f 5b 60 f7 3e ec 6a 98 be 2e e8 b2 be
       0.70493245 0.483157 -0.29769075 -0.34942764
0002b0 d4 cf 43 bf 67 de 4d 3f 70 11 a1 3d 4a dd 52 3f
       -0.76488996 0.80417484 0.07864654 0.8236891
0002c0 bf b2 87 3e b9 21 9c 3e fa b8 d4 3f b9 2b b8 3f
       0.2650356 0.30494478 1.661895 1.4388343
0002d0 eb 8c b6 bf f4 80 1e 3e 11 31 0a 3f 70 ed 10 3f
       -1.4261755 0.15478879 0.5398112 0.566123
0002e0 cd fb ae bf 90 b7 e0 3f 1f dd db be 32 8c 62 bf
       -1.3670594 1.7556019 -0.4294214 -0.8849517
0002f0 3f 84 a7 3f f1 26 9e 3e 6c 5b 92 bd 40 47 6d bf
       1.3087233 0.30889085 -0.071463436 -0.92686844
000300 b6 99 54 bf 2a bf 30 3e 5e 8f 9a 3e 01 4c 02 3f
       -0.83047044 0.17260423 0.30187505 0.5089722
000310 84 1f fb bd 5c 04 1a 3e 28 0a 95 bf ea c4 8c c0
       -0.122618705 0.15040725 -1.1643724 -4.3990374
000320 89 c8 ac c0 4a 79 40 c0 13 b2 2b c0 b0 e2 43 c0
       -5.3994794 -3.007403 -2.6827438 -3.060711
000330 81 75 1e c0 e9 8b ab bf 3a c8 3f be d8 b7 84 3e
       -2.4759219 -1.3402072 -0.18728724 0.25921512
000340 f7 03 28 bc a8 43 83 be b1 6d d9 3e 12 7f 9c 3f
       -0.010254852 -0.25637555 0.424665 1.2226279
000350 51 b1 ff be f1 83 8f be 05 ba 90 be 7d fa 05 bf
       -0.4993997 -0.2803035 -0.28266922 -0.5233534
000360 7f bb 73 3f 49 9b 28 3f 96 0e b3 3f ff 49 16 bf
       0.9520797 0.65861946 1.3988826 -0.5870666
000370 a0 27 8e 3d 5f 3e da bd 4f e2 6c be 6d 44 93 bf
       0.069411516 -0.106564276 -0.23133205 -1.1505257
000380 e3 d8 ed 3b 65 15 a3 bf b6 ba f3 3b 9c 2a b2 3f
       0.007258521 -1.2740904 0.007438029 1.3919253
000390 a0 ef 68 bf 97 1b 91 be ca a5 a6 3e 0c 70 05 3f
       -0.9099064 -0.28341362 0.32548362 0.52124095
0003a0 81 e5 e5 be f7 ef 83 3d 4c 60 82 be 6c e4 7f 3e
       -0.4490166 0.06442254 -0.25464094 0.2498948
0003b0 d3 79 68 3e 3e 52 e9 be d2 25 94 3e 01 7f ea 3e
       0.22702722 -0.45570558 0.28935105 0.4580002
0003c0 31 f9 55 3e 4b 9b ea bd 37 13 97 3e 2f 6a 2a 3f
       0.2089584 -0.11455401 0.29506847 0.66568273
0003d0 a9 e9 c0 3e 1e 0c fb 3c f6 83 20 3e 78 2d 0c bf
       0.3767827 0.030645426 0.15675339 -0.5475688
0003e0 49 82 42 bf 51 e4 c7 3e 83 2c 83 be 1b 01 28 3d
       -0.7598005 0.3904138 -0.25619897 0.04101668
0003f0 48 38 ab 3f 16 45 e0 3e 7f 74 56 bf 37 e3 ec bf
       1.3376551 0.43802708 -0.8377151 -1.850684

linear1.bias f4 [64]
000000 52 85 35 bf 87 da 28 bf 3c df 1d 3f 8d 52 2b 3f
       -0.70906556 -0.65958446 0.61668754 0.6692284
000010 7c ee c5 3f 9f e2 06 c0 a3 2a c4 bf ec 2d 35 3f
       1.5463405 -2.1075819 -1.5325512 0.70773196
000020 32 74 c2 be 8b d9 85 bf 48 b1 8f bf b4 f3 a1 3f
       -0.37979275 -1.0457014 -1.1225977 1.2652497
000030 a0 c9 17 bf de 6a 36 3f 67 09 9c bf 6c 8a 9a 3f
       -0.5929203 0.71256816 -1.2190369 1.2073493
000040 f2 a7 b9 3f 88 a9 9b be 16 d6 61 3f 8b f7 99 bf
       1.4504378 -0.3040278 0.88217294 -1.2028669
000050 6b 2a 47 bf 83 09 b2 bf 07 97 78 bf 3a 5f 83 3d
       -0.777991 -1.3909153 -0.9710545 0.064146474
000060 99 11 54 bf 76 12 51 bf fc 5b 81 be 0a 60 8d bf
       -0.8283935 -0.81668794 -0.2526549 -1.1044934
000070 88 47 08 be 94 7d 08 bf 7b 6d 83 bf 48 f4 4c 3f
       -0.13308537 -0.53316617 -1.0267786 0.80060244
000080 37 e7 15 bf 11 51 1f be d2 db bd 3f bc 54 bd bf
       -0.5855593 -0.15558268 1.4832709 -1.4791484
000090 b4 7b 5c bf e7 00 b0 bf 62 f8 97 3f 3c 58 97 bf
       -0.86126256 -1.3750275 1.1872675 -1.1823802
0000a0 65 c1 1c 3f 11 f4 8c 3f 05 91 88 bf 56 fa 77 3f
       0.61232597 1.1011983 -1.0669256 0.9686636
0000b0 f7 ff f7 bd e8 82 d1 be bb 32 11 be 79 a4 6b 3f
       -0.12109368 -0.40920186 -0.14179508 0.9204784
0000c0 ea d6 b8 bf ca 44 91 bf c8 24 78 3e b3 4c e7 bf
       -1.4440587 -1.1349118 0.24232781 -1.8070282
0000d0 dd 12 4d bf 46 29 2b bf a3 49 8b bf b2 74 ca bd
       -0.8010691 -0.66859853 -1.0881847 -0.09885539
0000e0 26 13 82 bf 7b d7 80 bf 69 1e 4d bf 4f 8a 6e 3f
       -1.0162094 -1.006576 -0.8012453 0.9317979
0000f0 d4 b3 14 bf 25 cd 36 bf ed 8f b7 3f be 33 02 bf
       -0.58086896 -0.71406776 1.4340798 -0.508602

linear2.weight f4 [16, 64]
000000 5a 7a 19 3f e7 0a bb 3d bd ef 2a 3f 6a 49 03 be
       0.5995232 0.09132939 0.6677206 -0.12820974
000010 e4 29 32 3e 08 ea 69 3f 19 59 30 bf da 93 c5 3e
       0.17398793 0.9137273 -0.6888595 0.38589364
000020 5a e6 51 3e b7 76 36 3f 42 f1 8c 3f 4b e3 88 3e
       0.20498028 0.71274894 1.1011126 0.2673591
000030 3d d0 d9 be 9c 86 ae 3e 1f 96 8c bf d8 7a 17 bf
       -0.42541686 0.34087074 -1.0983313 -0.5917182
000040 5b 1d 89 3f 7b d4 7c bd 79 e1 5f be 15 af 1b 3f
       1.0712084 -0.061726075 -0.21863355 0.6081403
000050 94 b4 d4 3d fa 05 4e bf fd 8f 22 bd 63 1b ef be
       0.10386005 -0.8047787 -0.0396881 -0.46700582
000060 4f e3 72 be 37 aa a1 be 1f b6 d5 be e6 1f 5b 3f
       -0.23719524 -0.31575176 -0.4174051 0.8559555
000070 5c be dc be a7 f4 6e be a1 9b a5 3f b6 9a 4f 3f
       -0.43113983 -0.23335515 1.2938119 0.81095445
000080 67 21 35 3f bb 07 7c 3e e7 71 30 3e 3a 47 1d 3e
       0.7075409 0.24612324 0.1723095 0.15359202
000090 98 fd 8e bd 41 6a 41 be 1f e6 3a 3e da a3 9d 3e
       -0.06981963 -0.18888189 0.18251847 0.3078907
0000a0 d9 f8 6e 3f 82 eb c7 bd ae f5 55 3f 33 40 6e bf
       0.9334846 -0.097617164 0.83578 -0.9306671
0000b0 5b e5 85 3e 2b f6 99 be 40 43 a0 3e 9c 17 18 be
       0.26151547 -0.30070624 0.31301308 -0.14852756
0000c0 84 df b5 be 7b e9 aa be a5 72 e9 3e 7f 5c 33 be
       -0.3552209 -0.33381256 0.4559528 -0.17515753
0000d0 df f1 fc be 51 17 bf 3d 2d 33 02 3e 5c fc cb be
       -0.49403283 0.09330619 0.12714835 -0.39840972
0000e0 ad 39 78 3f a1 49 5b bf 33 91 56 3f 2e ec bd be
       0.96963006 -0.85659224 0.83815306 -0.37094253
0000f0 e7 00 5d be cb 31 23 3f 84 2f 8a 3e 49 0a 33 3e
       -0.21582375 0.63747853 0.26989377 0.17484392
000100 05 50 08 3f 27 15 48 bf ba b3 a9 3e 0d 4b a4 3e
       0.532471 -0.78157276 0.33144933 0.3208851
000110 c3 c5 b5 3e 70 c7 9a 3f d7 f5 12 3f 85 ac 38 bf
       0.35502443 1.2092113 0.5740637 -0.72138244
000120 0f 95 0a bf 4f da a1 3f 10 5c af be be 51 95 be
       -0.54133695 1.2644747 -0.34249926 -0.29163927
000130 ee 25 81 3f 18 a7 24 3f ff 39 8d 3e 07 d7 f5 be
       1.00897 0.64317465 0.2758331 -0.48015615
000140 f1 75 c8 3e e9 6f 6b bf 1b fe fa 3d 12 b0 08 3d
       0.39152482 -0.91967636 0.12255498 0.03337104
000150 a9 45 62 3f 86 34 3b bb 72 8a 11 bf 77 79 99 3f
       0.8838754 -0.0028565242 -0.56851876 1.1990193
000160 4f e8 f6 bd 76 63 12 3d a4 32 8e 3e 28 eb f3 3e
       -0.12056028 0.035739385 0.2777301 0.47640347
000170 7a 51 95 3e cb b2 0a 3c cd 99 c3 3e d7 1b b5 be
       0.29163724 0.008465479 0.38203278 -0.35372803
000180 2b 60 3e bf 32 69 45 3f 6d f3 65 be a8 79 c3 3e
       -0.7436549 0.7711364 -0.22456141 0.38178754
000190 5a ae 21 bf 2d 60 b9 3e 9b f7 13 be df ca b8 be
       -0.63156664 0.3620619 -0.14449923 -0.36092278
0001a0 bc d5 ec be 1c 4b 1c 3f 9d 53 49 3f ee 4c c9 be
       -0.46256816 0.6105211 0.7864321 -0.39316505
0001b0 8d 20 e8 bd da 36 d7 3e f3 34 ce be 44 31 17 3f
       -0.113343336 0.42034036 -0.40274772 0.5905955
0001c0 13 0b 3f 3f 3c 3f 94 bf d4 d2 03 bf 29 aa 60 3f
       0.7462627 -1.1581798 -0.51493573 0.87759644
0001d0 4e 76 f4 be 8a 3e 52 bf 82 0e c0 3e 3c 59 d3 3e
       -0.4774651 -0.8212668 0.3751107 0.41279018
0001e0 d6 00 03 bf 59 0f 30 be 95 0f 5d 3e b0 e6 90 be
       -0.5117315 -0.17193355 0.21587975 -0.28301
0001f0 8b bf c8 3e 59 13 ab be 8b 6d 2a 3e d0 f7 06 3f
       0.39208636 -0.334132 0.1664335 0.5272188
000200 96 bc dc 3e b5 16 8f 3e 2b 2c d2 be de 96 3b 3e
       0.4311263 0.27947012 -0.41049322 0.1831927
000210 63 94 01 bf 31 8f 4c 3e da ef 0e bf a5 33 a0 bf
       -0.50617045 0.19976498 -0.55834734 -1.2515761
000220 8c 9e 05 bf b0 24 ec 3e d9 05 33 bf eb c2 a6 3f
       -0.5219505 0.4612174 -0.699308 1.3028234
000230 df 62 83 bf 8c e4 76 3d 8c fa 77 be 1e 3e 72 3f
       -1.0264548 0.060276553 -0.2421667 0.94626033
000240 72 c9 5d 3f 05 06 ba 3e 85 4c 81 bf af 36 5a 3f
       0.86635506 0.36332718 -1.0101477 0.8523969
000250 9a c6 26 3f 67 50 df 3d bb a7 0f 3f c0 be 07 bf
       0.6514679 0.109040074 0.5611531 -0.53025436
000260 b3 21 a7 3e 12 6a 8b 3e 18 3d 1b 3e 49 6c 5f 3c
       0.32642898 0.27229363 0.15160024 0.013636657
000270 43 78 1f 3e 1a 21 25 bf ec 62 42 bf 84 b0 91 bf
       0.1557322 -0.64503634 -0.7593219 -1.1381993
000280 ba 23 62 3f 11 38 d4 bd 14 4b 30 3e 04 dc 65 be
       0.88335764 -0.10362256 0.1721614 -0.2244721
000290 b5 f5 30 3f cb 6e 03 be 98 fe c6 3e 40 00 40 bc
       0.6912492 -0.12835233 0.38866115 -0.01171881
0002a0 a3 7b 06 3e d4 35 f4 bd 3a 4c c6 be 22 fe a5 3e
       0.13133101 -0.119243294 -0.3873003 0.3242045
0002b0 14 02 30 3f 66 64 ab bf 36 02 61 3f d7 84 70 be
       0.6875317 -1.3390014 0.87894 -0.23488174
0002c0 0b a9 97 bf 60 6e 8e 3e 01 e1 13 be 72 16 f5 bc
       -1.1848463 0.27818584 -0.14441301 -0.02991793
0002d0 d4 d2 2c 3f e3 5e de 3d 79 b7 7a bf 4f 46 15 3f
       0.675092 0.10857942 -0.9793621 0.5831041
0002e0 8d ae 8b be 74 ac ad bc 73 d0 26 3f 26 68 d9 3e
       -0.2728161 -0.021200396 0.6516182 0.4246227
0002f0 52 97 5f be 06 53 c9 3d 07 ec 1f bf bb 04 d1 be
       -0.21835068 0.098302886 -0.62469524 -0.40823922
000300 c3 3e 6d 3d 42 b4 f3 be 27 98 e4 3d cb 64 65 3e
       0.057921182 -0.47598463 0.11161833 0.2240173
000310 5e d3 c1 3e 10 08 e6 bd de 6d b9 3e b3 69 d2 3e
       0.37856573 -0.112320065 0.36216635 0.41096267
000320 05 c1 0c 3f a0 fd 19 3f 30 d4 01 be f2 f1 09 bf
       0.54982024 0.60152626 -0.126786 -0.53884804
000330 7f 9b dc 3e ab 49 10 be 61 2e ad 3f 70 28 28 bf
       0.43087384 -0.14090602 1.3529779 -0.656867
000340 de 38 a9 3e fa 2d 5c bf 12 88 13 bf ce 92 a2 3f
       0.330512 -0.86007655 -0.576295 1.2701051
000350 c4 67 03 bf c4 84 ef be 55 d4 51 bf bf 24 c7 bd
       -0.5133021 -0.4678098 -0.8196462 -0.09723806
000360 b0 8a 91 3e 96 11 a2 bc b0 ba 95 bf 9f 1d e4 be
       0.28426123 -0.019783776 -1.1697598 -0.4455385
000370 60 5d ee 3d 11 44 0d bf ba fb 78 bf 86 1c 3e be
       0.116389036 -0.55181986 -0.97259104 -0.18565568
000380 f2 ef d4 be 40 10 8d 3d 2a 06 aa 3e d6 7d 35 be
       -0.41589314 0.06887865 0.33207828 -0.17723784
000390 7a 72 2e 3e 29 8a e8 bd 68 81 86 bf 34 45 0a bf
       0.17035857 -0.11354477 -1.0508242 -0.54011846
0003a0 2b fd 00 3f 3c 71 dd 3d 8b 37 6a be 4d 40 5d 3e
       0.50386304 0.10812613 -0.2287275 0.2160656
0003b0 1f ea 96 3e 99 65 12 3f 49 2e 2a 3e f5 ed bd 3e
       0.29475495 0.57186276 0.16619219 0.3709561
0003c0 5d c9 85 bd f3 af 10 bf 62 b0 10 be bb 7b 43 bf
       -0.065325476 -0.5651848 -0.14129785 -0.7636067
0003d0 54 22 1d bd 66 1f 4c 3f ff 59 c3 3d 46 10 3d 3c
       -0.038362816 0.7973541 0.0953865 0.011539524
0003e0 d9 5a af be 9d 2f b8 3e a4 bf f7 3e db d1 26 3e
       -0.34249 0.35973826 0.48388398 0.16290991
0003f0 36 fd 03 bf 26 c9 0b 3d ab e5 e2 bd 28 5f 1e bf
       -0.51558244 0.034127377 -0.11078962 -0.61863947

linear2.bias f4 [16]
000000 02 c1 1c c0 16 bf 80 c0 0e 33 44 c0 f7 b2 38 40
       -2.4492803 -4.023326 -3.0656161 2.8859231
000010 72 00 41 40 f1 8e 4d 40 31 e8 4d 40 3c 86 76 c0
       3.0156522 3.2118495 3.2172968 -3.851943
000020 fb d1 31 c0 c3 8f 8e c0 2d e7 b2 bf 30 4d 39 40
       -2.7784412 -4.455049 -1.3976799 2.8953362
000030 20 85 28 c0 bd ec 20 3e 56 52 a4 40 e2 cc 38 c0
       -2.6331253 0.15715308 5.135051 -2.887505

linear3.weight f4 [111, 16]
000000 76 f4 95 bf 98 3a ac bf 7a 25 e6 be 27 af 47 3f
       -1.1715229 -1.3455381 -0.44950467 0.78001636
000010 10 3b d1 3f 05 52 31 3f bb 4d 20 bf 4f 27 54 bf
       1.634615 0.69265777 -0.6261861 -0.8287248
000020 0a bd 40 bf c0 c7 ac bf 6a 5c 86 be 5b 57 05 bf
       -0.7528845 -1.3498459 -0.2624238 -0.5208642
000030 44 d6 8a 3d 30 11 37 3f 1a 87 e9 3f 7c 89 17 bf
       0.06779149 0.715106 1.8244355 -0.5919416
000040 a6 99 b4 be 11 22 4e bf 24 a8 26 bf 36 15 b0 be
       -0.35273474 -0.8052073 -0.6510031 -0.34391183
000050 b5 35 8c bd 7e 35 d4 3e aa d8 9f 3f f0 b4 bb bd
       -0.06846181 0.4144706 1.2487996 -0.091653705
000060 af 1a 50 bd 05 60 07 c0 10 8d b2 3d ed 35 de 3e
       -0.050806697 -2.1152356 0.08718312 0.43400517
000070 9b b3 78 be 78 d3 18 3f ba 6e 9d 3e 5e 44 dd bf
       -0.24287264 0.59697676 0.3074854 -1.7286489
000080 93 ea 73 bf e0 30 c3 bf 62 33 ec 3c 98 77 6a bf
       -0.95279807 -1.524929 0.028833095 -0.91588736
000090 c0 9e 70 3d f7 87 14 3f 7a 60 95 3f 40 ad 3b 3f
       0.058745146 0.58019966 1.1670067 0.73311234
0000a0 d1 fc 69 be 45 6f 2b c0 8f c0 ea 3e 15 05 14 3f
       -0.22850348 -2.6786664 0.45850036 0.57820255
0000b0 6d 2f d4 be ba 43 c1 3e 21 8f a2 3e 0f c5 ef bf
       -0.41442433 0.37746984 0.31749824 -1.8732013
0000c0 94 bb 50 3d 5b ab 09 3f 12 34 e5 bf 8d c2 72 3f
       0.05096014 0.5377709 -1.7906516 0.9482811
0000d0 37 73 7e be 16 e8 7c be 89 c0 83 3f 82 33 a7 bf
       -0.24848638 -0.24697909 1.0293132 -1.3062594
0000e0 ea ef 4b bd 06 6a 25 bf d8 3d 71 3c 7d 02 9c 3d
       -0.049789347 -0.64614904 0.014724217 0.07617662
0000f0 40 4e 73 be b7 b6 5d 3e 4a 7d 02 3f f2 d8 a0 bf
       -0.23760319 0.21651731 0.50972426 -1.2566206
000100 69 f2 d5 bc e0 a5 8a 3f fa 50 31 c0 73 3e 50 3f
       -0.026116567 1.0831871 -2.7705674 0.8134529
000110 12 e3 4e bd ae d2 54 be 26 49 9e 3f 15 a0 c3 bf
       -0.05050952 -0.20783493 1.2366073 -1.5283228
000120 14 63 8d be c5 64 7f bf 11 3d 72 be 90 1e 20 3e
       -0.27614653 -0.9976314 -0.23656107 0.15636659
000130 84 92 4a 3d 28 ee dc 3e 42 cb 3f 3f a4 d9 b6 bf
       0.049456134 0.4315045 0.7491952 -1.4285169
000140 aa 37 b7 3e a9 a8 8a bf fe 5b 3d 3f 6b e3 f0 3f
       0.35784656 -1.0832721 0.73968494 1.8819402
000150 3e 1b 69 be f6 f9 8d be 33 c4 c4 3e 7e 5c 77 bf
       -0.22764298 -0.27729768 0.38430938 -0.96625507
000160 1c cb 31 3f b8 da bd 3e 75 c0 5c 3f c7 9e 04 3e
       0.69450545 0.37080932 0.86231166 0.12951194
000170 5c e2 6d bf c5 50 66 3e 14 61 a8 be 29 c1 d1 bf
       -0.9292352 0.22491749 -0.32886565 -1.6387073
000180 8c 30 60 bf 25 be 87 bf b4 ff d8 be d2 dc 97 3f
       -0.87574077 -1.0604903 -0.42382586 1.1864264
000190 b4 8d a8 bf a5 fc bd 3e 3f 38 50 3f 3f 2a 14 bf
       -1.3168244 0.37106815 0.81335825 -0.5787696
0001a0 20 f7 f1 3e 8d 71 c7 be 65 7a cc bf 34 3d 91 bc
       0.47258854 -0.3895382 -1.5974852 -0.01772938
0001b0 83 df a1 bf bc da 02 bf 5e 3a a3 3e 03 90 7d 3d
       -1.2646335 -0.5111501 0.31880468 0.06190492
0001c0 a9 c9 e8 3e 7d ea 72 bf dd 8d 25 3f 4b 72 9b 3f
       0.45466354 -0.9488905 0.6466959 1.2144254
0001d0 df d0 97 3c 7a dc 9b bd f6 e8 91 3e f5 98 5b bf
       0.018532215 -0.07610412 0.28498048 -0.8578027
0001e0 72 20 87 3e 20 7c 15 3f df 6e e1 3e d9 f6 ce 3d
       0.2639194 0.58392525 0.440299 0.10105676
0001f0 66 bd 26 bf b7 ed 83 3f 73 ed 2a bf 2b b9 bb bf
       -0.6513275 1.030692 -0.6676857 -1.4665884
000200 95 a0 7a 3e d8 87 a0 bf ca 42 3b 3f 68 dc 06 40
       0.2447532 -1.2541456 0.7314879 2.1072025
000210 49 3b ed be f9 d0 ed be 38 be 93 3e fd bd 72 bf
       -0.46334293 -0.46448496 0.28856063 -0.9482115
000220 5e b7 4d 3f 80 3e cd 3e fd 73 67 3f b6 6b c9 bb
       0.8035792 0.40086746 0.9041136 -0.0061468733
000230 f0 d7 9a bf 9d 4c 14 3e 4a ca 9e be 2b 3d d5 bf
       -1.2097149 0.1448235 -0.3101371 -1.6659292
000240 1d 61 09 3d fa 37 24 bd bc 50 25 3c e2 72 93 bc
       0.03353988 -0.040092446 0.010090049 -0.017999116
000250 23 9e e0 3c a6 35 2d bd ae 0a c0 3b ab 63 d5 bb
       0.027419155 -0.04228749 0.005860648 -0.0065121255
000260 8a 03 b0 bc 20 37 d0 3c fa c5 e8 3b 56 f7 c2 3b
       -0.021486063 0.02541691 0.007103679 0.005949895
000270 e9 cd e9 3b 41 57 de bc 26 cc 2a bd 9b 5e 88 3b
       0.007135142 -0.027141215 -0.041698597 0.0041616685
000280 b2 d8 4c 3e f3 53 f9 bf 8a 51 47 bf b5 9a 7a be
       0.20004538 -1.9478744 -0.77858794 -0.24473079
000290 95 82 90 3e 0e b7 c9 bf 09 fd e2 3e 3e f4 1b bf
       0.28224626 -1.5758989 0.44333676 -0.6091956
0002a0 bf 57 0f 3f e5 9d 62 3e 3f 26 96 be 6f 01 b5 be
       0.55993265 0.22130544 -0.29326054 -0.35352656
0002b0 06 94 0d bd 1b 11 a1 bf 85 87 aa be 47 96 a8 be
       -0.034564994 -1.2583345 -0.33306518 -0.32927153
0002c0 1e 5e d1 bb c8 2e 88 3b 1a bc 1b 3c 42 8b 46 bc
       -0.0063893935 0.0041559674 0.009505296 -0.012118163
0002d0 b1 38 79 3a 92 4f 04 bc d0 ef a2 3c b4 5e ac ba
       0.0009507044 -0.008075612 0.019889742 -0.0013150782
0002e0 52 d8 c8 39 d5 03 9c 3b fe 74 19 bb 74 f6 a1 3b
       0.00038308144 0.004761199 -0.002341568 0.0049427096
0002f0 b1 31 fa 3b 16 6e 8a bb 0a f8 e6 3a d1 3b a2 3c
       0.007635318 -0.004224549 0.0017621529 0.019803913
000300 e9 14 5a 3d 4a 11 11 be f6 6e 54 bd 9c 52 f5 bd
       0.053242598 -0.14166752 -0.051863633 -0.11978647
000310 33 d1 01 bd 5c cc 19 be 78 77 c3 bb a1 f3 52 3b
       -0.03169365 -0.15019363 -0.0059651695 0.0032188671
000320 b2 38 9c bc 2e dc 9c 3d 79 47 89 bc cd 1b 2e bd
       -0.019070003 0.076591834 -0.016757714 -0.04250698
000330 e4 d0 2c 3d a4 a0 87 3c 4e 07 83 bd ec aa 40 3c
       0.0421914 0.016556092 -0.06397878 0.011759501
000340 fb 8b 88 3b 59 c6 ea bc 2e cf 07 bc 1f 1d 0f bc
       0.0041670776 -0.028659033 -0.008289142 -0.00873497
000350 2b 85 45 bd c5 ab df bc ff 02 5f 3c 04 84 af bc
       -0.048222702 -0.027303586 0.013611554 -0.021425255
000360 9b 8a 91 3c e5 4b 9d 3a 55 05 99 3c 25 75 41 3c
       0.017766288 0.0012000768 0.0186793 0.011807715
000370 02 e9 05 3d 26 d2 8e 3c 12 63 b1 3c 0b c9 ac bc
       0.032692917 0.017434191 0.021653686 -0.021091959
000380 e4 4c 6e 3c 51 50 43 bc e5 2f 58 bb 45 c4 9f bb
       0.014544699 -0.011921004 -0.0032987532 -0.004875692
000390 0b 09 92 bc 69 ca cf bc b3 92 b4 ba 77 36 84 3a
       -0.017826578 -0.025365071 -0.001377663 0.0010087033
0003a0 d6 c8 dc bb ac 2e 1a 3c 49 46 82 ba 58 36 1b bb
       -0.0067378087 0.0094105415 -0.000993916 -0.0023683514
0003b0 5b 59 5d ba 9a 58 fe 3b 0b c8 98 bb 70 58 5b 3b
       -0.0008443796 0.007762027 -0.004662519 0.003346946
0003c0 1c c1 5d 3b 5b 14 d7 b8 04 b2 1e 3c 24 1b f9 bb
       0.0033837026 -0.000102557904 0.009685997 -0.0076021124
0003d0 39 c0 8d ba 7a 4e 81 3b c6 ea 09 bc 7f 4d 59 ba
       -0.0010814733 0.0039461227 -0.008417791 -0.0008289441
0003e0 18 3e 2a 3c 0f a0 3e bb 19 97 c8 b9 52 ef 3a 3b
       0.010390781 -0.0029087102 -0.0003825955 0.0028523994
0003f0 36 93 94 bb a8 e9 75 3b 08 7c 92 3b 63 96 f6 3b
       -0.0045341505 0.0037523303 0.004470352 0.0075252517

linear3.bias f4 [111]
000000 7f 32 3b 40 f0 d3 a4 3f 74 ca e6 3f 0a b0 27 3f
       2.924957 1.2877178 1.8030534 0.6550299
000010 b1 c1 ea 3e 9e 97 b2 3f f8 71 1e 3f 1e 54 8a 3f
       0.458509 1.395252 0.6189265 1.080692
000020 ee 2c 4e 3f 32 d6 1f bf 18 14 28 3d 05 fe 50 bf
       0.8053731 -0.6243621 0.041034788 -0.81637603
000030 d4 e3 00 40 a7 2a 62 bf 5a 54 e1 be 4c 15 60 bf
       2.0139055 -0.8834633 -0.44009668 -0.87532496
000040 f6 ae 69 bf f6 d9 45 40 a0 66 86 3f 0c 92 f1 3f
       -0.91282594 3.0914283 1.0500069 1.8872695
000050 5d 1f 3b 3f 26 6c 79 3f fd 87 ac 3f a9 8b 78 3e
       0.7309473 0.97430646 1.3479 0.24272026
000060 84 7b d8 3f 88 5c c4 3e ac 37 21 3f 87 24 d0 3f
       1.6912694 0.38351846 0.62975574 1.6261147
000070 47 75 33 bf b1 fc d1 3e 98 19 77 bf 8d 1b f1 be
       -0.70100826 0.410131 -0.9652343 -0.47091332
000080 a0 d7 80 bf 64 48 24 bf 5b b7 27 40 d2 fe 6d 40
       -1.0065804 -0.6417296 2.6205661 3.718678
000090 9a c7 04 40 d1 a4 08 40 b7 e0 25 40 dc 28 f9 3f
       2.0746827 2.1350596 2.5918405 1.9465594
0000a0 c1 3b ca 3f 64 55 88 3f f7 54 02 bf bf 0c 40 bf
       1.5799485 1.0651059 -0.50910896 -0.7501945
0000b0 b3 3d 3f 40 39 dd 53 bf b5 60 fd be 35 c7 5d bf
       2.9881408 -0.82759434 -0.49487844 -0.8663209
0000c0 25 77 10 bf 1c 46 7c bf 9b ac 1c bf 5a 31 6b 40
       -0.564318 -0.9854448 -0.61200875 3.6748872
0000d0 eb fb 09 40 f8 c8 e7 3f 8e 04 d6 3d b5 27 5d 3f
       2.1560009 1.8108206 0.104500875 0.86388713
0000e0 7f 7c bd 3f 1a 3d 2a 3f d7 5f 0f 40 3c 69 d5 3f
       1.4803618 0.66499484 2.2402246 1.667274
0000f0 e0 eb 25 bf 42 de c4 3f 58 31 25 bf 90 8f 86 be
       -0.6481304 1.5380328 -0.6452842 -0.26281404
000100 5e bb 4f bf e5 76 b1 be 3b e6 75 bf a2 ac 52 bf
       -0.81145275 -0.34661022 -0.9605443 -0.82294667
000110 1c 61 56 40 92 9d 37 40 4e e2 35 40 37 0e dd 3f
       3.349677 2.8689923 2.8419375 1.7269963
000120 49 ed 6a 3f f2 a9 cf 3f d5 c7 9e 3f 3b 3b a1 3f
       0.9176832 1.6223738 1.2404734 1.2596201
000130 18 e7 6b 3f 57 89 29 bf 5c 6b 04 3f f7 a1 21 bf
       0.92149496 -0.6622519 0.5172632 -0.63137764
000140 f4 00 7b 40 0f c2 6a bf 9b 54 3e 3d f0 7c 81 bf
       3.9219332 -0.9170236 0.046467405 -1.0116253
000150 11 dc 06 bf de 08 51 40 15 c0 1e 40 a5 df 26 40
       -0.52679545 3.2661662 2.4804738 2.6074002
000160 f5 d4 a7 3f 13 cd 2d 3f a5 75 3d 3f 01 89 79 3f
       1.3111864 0.67891043 0.74007636 0.97474676
000170 6a b7 16 3f 62 f4 2f 3f 79 75 a6 3f 20 b3 08 40
       0.5887362 0.68732274 1.30046 2.135933
000180 ea 10 2d bf 58 30 8e 40 92 bc 5f bf 21 5a cc 3c
       -0.67603934 4.4434013 -0.8739711 0.02494532
000190 52 5f 5f bf 87 b4 53 bf f0 10 2e 40 62 97 57 3f
       -0.8725482 -0.8269734 2.7197838 0.84215367
0001a0 75 14 07 40 24 73 93 3f fe 23 13 bf 83 af 51 bf
       2.1106236 1.1519513 -0.57476795 -0.81908435
0001b0 22 8a 6d bf 09 2c 7c bf a1 d8 81 bf
       -0.927889 -0.9850469 -1.0144235
