policy_net_move_select2.pth (torch, 185999 bytes, 18 tensors)

conv1.weight f4 [16, 1, 3, 3]
0.010650361 -5.099543 -5.3018274 -0.29165056 -0.07606502 -0.1790336 -3.340686 -0.054802768
-0.076699875 -1.4959687 0.2152123 0.057224095 -4.439219 -0.031696197 -0.031717792 1.1667416
-0.12759288 0.22061434 -0.2747624 -0.1404874 -0.055428457 -0.19342987 0.08618147 -0.18824242
-8.878189 -0.3642717 -10.543749 -10.883152 -0.90123224 -0.3109854 -0.6664413 -0.70724297
-0.50146717 0.013942219 -0.53839195 -0.3499805 -1.653874 -1.441168 -1.6321054 -0.026796851
0.047954977 0.014882921 -1.1052592 0.036525097 -1.6976792 -0.85561705 0.12125086 -0.35426193
-0.4104899 0.1481175 -0.39026248 -3.9138687 -3.663826 -0.83437115 0.34873748 -0.004735834
-0.22858337 0.7372951 -0.24689883 -0.25585833 -8.6818285 0.13269143 0.122710876 -0.09837735
-0.19278671 -12.48214 -0.1952225 -0.31000352 -3.1855211 -0.07800037 -0.11903245 0.427625
0.981671 1.1268725 -1.2124509 -0.8515313 0.36241823 -0.43042293 -0.69194335 -0.68837744
-2.7744079 0.27930796 -0.07656295 -0.14608324 0.21403946 -0.3810969 -0.06801196 0.42187116
0.06927482 -8.947738 -0.5201392 -0.13577919 0.52411944 -1.7915218 -0.12654528 0.39317423
0.059948046 0.07355036 -7.039575 0.009811019 -4.431565 0.11124912 -0.10211413 -0.336502
0.07183317 -0.0063338517 -2.819138 0.2520226 0.47767594 -0.33416033 0.056402955 0.079399124
-0.016330168 0.19405061 0.5751043 -0.00854319 0.80161697 -1.3647016 -1.7231679 1.6211476
0.35940763 0.6571304 -0.08441733 -0.22597085 -0.9275275 0.546971 -1.2524308 -1.4208053
-1.167143 -0.04275291 0.100996725 -0.08593984 -0.52168965 -0.6247951 -0.536589 -0.12540331
0.29258323 -0.16643807 -7.75985 0.2241921 0.13832878 -0.4599934 0.46311158 0.06291786
00000000: da7e 2e3c 752f a3c0 92a8 a9c0 3953 95be
00000010: fac7 9bbd 9654 37be cdcd 55c0 de78 60bd
00000020: d314 9dbd e77b bfbf 9d60 5c3e d063 6a3d
00000030: 150e 8ec0 dfd3 01bd 84ea 01bd ca57 953f
00000040: b5a7 02be bae8 613e a8ad 8cbe eedb 0fbe
00000050: f308 63bd 7b12 46be e97f b03d 9fc2 40be
00000060: 100d 0ec1 d281 babe 32b3 28c1 6421 2ec1
00000070: 28b7 66bf 7a39 9fbe e69b 2abf e00d 35bf
00000080: 2760 00bf e86d 643c 0ed4 09bf a530 b3be
00000090: 25b2 d3bf 3178 b8bf d4e8 d0bf 1285 dbbc
000000a0: 706c 443d 7fd7 733c 2279 8dbf 579b 153d
000000b0: 8d4d d9bf b809 5bbf 5f52 f83d d261 b5be
000000c0: bb2b d2be 1dac 173e 7cd0 c7be d37c 7ac0
000000d0: 207c 6ac0 5999 55bf b88d b23e 0e2f 9bbb
000000e0: c211 6abe 5fbf 3c3f 0cd3 7cbe ddff 82be
000000f0: c5e8 0ac1 43e0 073e d74f fb3d 107a c9bd
00000100: e169 45be d8b6 47c1 68e8 47be c8b8 9ebe
00000110: 94df 4bc0 a8be 9fbd 49c7 f3bd aaf1 da3e
00000120: ca4e 7b3f 5c3d 903f 9731 9bbf f5fd 59bf
00000130: e28e b93e 6560 dcbe 3323 31bf 8139 30bf
00000140: e68f 31c0 7401 8f3e 09cd 9cbd d896 15be
00000150: 292d 5b3e 221f c3be db49 8bbd 7fff d73e
00000160: f5df 8d3d ef29 0fc1 d827 05bf b309 0bbe
00000170: b12c 063f 9650 e5bf 1695 01be 224e c93e
00000180: 158c 753d 92a1 963d 3344 e1c0 65be 203c
00000190: 61cf 8dc0 94d6 e33d 3721 d1bd fd49 acbe
000001a0: 451d 933d 338c cfbb c26c 34c0 1b09 813e
000001b0: f191 f43e 1017 abbe c906 673d 029c a23d
000001c0: d8c6 85bc 34b5 463e 093a 133f bcf8 0bbc
000001d0: c536 4d3f 8bae aebf c490 dcbf c481 cf3f
000001e0: 4704 b83e b339 283f fee2 acbd e764 67be
000001f0: 7172 6dbf 4b06 0c3f a74f a0bf f3dc b5bf
00000200: f164 95bf ad1d 2fbd 5fd7 ce3d 3a01 b0bd
00000210: 748d 05bf 92f2 1fbf e65d 09bf ba69 00be
00000220: 78cd 953e be6e 2abe b150 f8c0 9d92 653e
00000230: 0fa6 0d3e 4184 ebbe f61c ed3e 14db 803d

conv1.bias f4 [16]
-1.4253719 1.29879 -0.15945575 -0.16768076 -0.47797564 -0.093152985 1.2911195 -0.405511
0.6372283 -1.3585391 1.0379055 0.51461804 -0.09397391 0.34507817 -2.715266 0.04773188
00000000: 9672 b6bf c03e a63f 5e48 23be 81b4 2bbe
00000010: 39b9 f4be fec6 bebd 6743 a53f 239f cfbe
00000020: 6521 233f 9ce4 adbf 16da 843f 02be 033f
00000030: 6575 c0bd 16ae b03e ebc6 2dc0 8182 433d

bn1.weight f4 [16]
1.9122922 0.7592483 1.892699 1.8278147 2.7738528 1.3627182 1.5914079 1.4487196
0.3464344 0.8559321 1.7380853 1.289784 -0.0219872 0.01531968 1.4695457 0.9624804
00000000: fec5 f43f 195e 423f f643 f23f d5f5 e93f
00000010: ce86 3140 8d6d ae3f 41b3 cb3f a56f b93f
00000020: da5f b13e 5e1e 5b3f 9479 de3f a417 a53f
00000030: 801e b4bc 65ff 7a3c 131a bc3f 1e65 763f

bn1.bias f4 [16]
-1.3456718 -0.3692115 -0.7967833 -0.87708527 -2.2712696 -0.96265656 -0.5972558 -0.7185464
-0.14682233 -0.11037025 -1.0156153 -0.6591073 -0.07991824 -0.11839103 -1.1546031 -0.24342033
00000000: f93e acbf 4a09 bdbe fef9 4bbf a988 60bf
00000010: 7b5c 11c0 a970 76bf c2e5 18bf a8f2 37bf
00000020: 9858 16be cc09 e2bd afff 81bf 42bb 28bf
00000030: 2dac a3bd ff76 f2bd 09ca 93bf 2e43 79be

bn1.running_mean f4 [16]
-24.962236 -5.1502266 -24.522043 -24.742926 -12.076239 -12.901899 -7.8135357 -27.502407
-3.81344 -11.75909 -9.406154 -11.411092 2.1379082 -1.898824 -11.637357 -9.228173
00000000: a9b2 c7c1 a8ce a4c0 252d c4c1 83f1 c5c1
00000010: 4638 41c1 2e6e 4ec1 7c08 fac0 ee04 dcc1
00000020: 670f 74c0 3c25 3cc1 9b7f 16c1 d593 36c1
00000030: 7dd3 0840 aa0c f3bf 9d32 3ac1 99a6 13c1

bn1.running_var f4 [16]
456.48282 93.79912 921.76556 687.5549 99.9701 189.46388 253.99812 918.529
58.96901 286.7662 205.27295 161.48853 7.4846377 28.674343 56.862877 228.67494
00000000: cd3d e443 2699 bb42 ff70 6644 83e3 2b44
00000010: b1f0 c742 c176 3d43 85ff 7d43 dba1 6544
00000020: 44e0 6b42 1362 8f43 e045 4d43 107d 2143
00000030: 2782 ef40 0e65 e541 9673 6342 c9ac 6443

conv2.weight f4 [32, 16, 3, 3]
-0.4072381 -1.4713011 1.5415558 0.7628956 0.0059230174 -0.18901965 0.2713324 -0.010455139
-0.3831512 0.8804588 0.9466805 0.47590783 -0.6295575 -0.31409347 -0.054440025 -0.20943111
-0.24375297 -0.3037307 -0.80095524 -0.030652868 -0.14169036 -0.15896173 -0.043778315 0.58973336
0.16036516 0.18245728 0.588613 2.0904236 1.2356105 -2.5864697 -0.3999992 -0.4063726
0.58781564 0.4617804 -0.74926573 -0.51804006 0.08130124 0.17202269 0.10621595 0.35493144
-0.10016538 -0.49232858 -0.41781676 0.5723015 -0.44087902 0.67098856 0.4614753 0.9990827
-1.8254195 -1.8316152 -0.39466482 1.5580187 -0.2856096 -0.45542926 -0.34221298 -0.029602386
0.76402766 0.26494768 -0.4121814 -0.7218951 0.033324044 0.66353285 0.61059356 -1.3496677
1.5148731 2.0963266 0.54940134 0.23647717 0.67503375 -1.208545 -0.268114 -0.35541847
0.5326731 0.24353385 0.25272042 0.43906194 1.0370803 0.68693465 -0.13298424 -0.778096
-0.33874872 -0.98346394 -0.052360497 -0.6269694 0.49291763 -0.7322266 0.0324052 0.904681
-0.120156914 -0.22179909 0.80244243 -0.9471895 0.98291427 -0.14079432 0.8684008 -0.323123
-0.012176146 -0.6015013 0.49216017 1.315209 1.6134913 0.3235558 -0.39021057 0.381949
-0.5838081 -0.48221707 -0.069118 0.5009776 -0.765137 0.28128418 -0.12896334 0.61452705
-0.04159296 -0.027867952 0.9140202 -0.61681867 0.09692828 0.8845799 0.7344081 0.6366652
-0.39945444 0.9297567 -1.6614982 -0.26636946 -0.7787242 0.37077236 -0.8471605 0.11146357
-1.3182359 -0.026934331 0.601467 0.17598864 -0.16733266 0.4750679 -0.124682 -0.017255217
-0.6705321 0.37830383 0.38448864 -0.30409893 0.32008207 -0.17445718 0.8793845 -1.2435595
0.44934496 1.2108636 0.65892637 0.17038397 -1.1926126 0.51314205 -0.1632822 0.41305447
-0.33147427 1.0784749 -0.2274562 -0.91799396 0.28522122 -0.18193512 -1.8593653 0.0921324
-0.3687819 -0.3485958 -0.3650631 0.07535152 -0.027057795 -0.024561228 -0.34072945 -0.2441143
0.59924084 0.2620685 -0.15653414 -0.42784598 -0.20306996 0.21884912 0.42111287 0.3604871
-0.4011971 -0.35833666 -0.18915169 -0.03297156 -5.7614193 1.9811918 1.8455482 1.970256
-0.5060021 0.78151155 -0.377067 -0.56444323 -0.69990516 0.7342231 0.84495825 -0.58079904
0.8066063 -0.9272235 0.75654167 0.2883961 -0.5605447 -0.23599179 0.24385437 0.044865977
-0.074925 -0.127488 0.1980639 -0.13215622 -0.0013349064 -0.20145349 -0.26541153 0.097369485
0.055246774 0.32245082 -0.07509763 0.0011542088 0.094158456 -0.105689 -0.20872732 0.009960392
-0.25395173 0.20118468 0.013520998 0.10817814 -0.043723267 0.042772163 -0.24391401 -0.076211974
0.15336058 -0.092329435 0.24647495 0.029255765 0.04772345 0.047477167 -0.098691754 0.03292792
0.13175817 0.06069503 -0.12486943 -0.019476015 0.0025717125 0.08497385 -0.05387912 -0.039387863
-0.16650331 -0.21487883 -0.4477773 0.43593034 -0.26238275 -0.029277707 0.10623156 -0.15680166
-0.11581436 0.38771105 -0.17721596 0.04593413 -0.28928512 0.04032766 -0.13197538 -0.49107492
00000000: 8381 d0be 9853 bcbf b351 c53f 204d 433f
00000010: df15 c23b 5e8e 41be 15ec 8a3e 084c 2bbc
00000020: 652c c4be bf65 613f a759 723f 31aa f33e
00000030: ae2a 21bf dcd0 a0be 81fc 5ebd 1c75 56be
00000040: 619a 79be 9782 9bbe 670b 4dbf b91b fbbc
00000050: 4717 11be ddc6 22be e450 33bd c4f8 163f
00000060: c436 243e 15d6 3a3e 57af 163f 80c9 0540
00000070: 7c28 9e3f b888 25c0 b2cc ccbe 1210 d0be
00000080: 167b 163f 7b6e ec3e e1cf 3fbf 469e 04bf
00000090: 4481 a63d b726 303e bf87 d93d 93b9 b53e
000000a0: 8223 cdbd 7e12 fcbe 14ec d5be 5a82 123f
000000b0: e5ba e1be e8c5 2b3f 7e46 ec3e e2c3 7f3f
000000c0: 59a7 e9bf 5e72 eabf 8211 cabe 286d c73f
000000d0: 6c3b 92be 062e e9be 8a36 afbe b480 f2bc
000000e0: 5197 433f 39a7 873e 7109 d3be 1ece 38bf
000000f0: cb7e 083d 4add 293f dc4f 1c3f e9c1 acbf
00000100: 5de7 c13f 372a 0640 91a5 0c3f 1227 723e
00000110: 03cf 2c3f 9ab1 9abf 3d46 89be 69f9 b5be
00000120: 445d 083f f060 793e 9264 813e bacc e03e
00000130: 0cbf 843f f3da 2f3f 052d 08be 4d31 47bf
00000140: 7970 adbe 4bc4 7bbf f677 56bd 1181 20bf
00000150: b35f fc3e 3473 3bbf 51bb 043d 2d99 673f
00000160: d414 f6bd 4d1f 63be de6c 4d3f 037b 72bf
00000170: 45a0 7b3f 632c 10be 844f 5e3f 6170 a5be
00000180: 757e 47bc fdfb 19bf 6bfc fb3e c558 a83f
00000190: e286 ce3f 1ba9 a53e aec9 c7be d28e c33e
000001a0: 7374 15bf 28e5 f6be bd8d 8dbd 1140 003f
000001b0: 05e0 43bf 7b04 903e f70e 04be a551 1d3f
000001c0: 615d 2abd 554b e4bc 3afd 693f d4e7 1dbf
000001d0: 5682 c63d d473 623f 2b02 3c3f 7efc 223f
000001e0: 4b85 ccbe 8904 6e3f f9ab d4bf 9461 88be
000001f0: 785a 47bf e0d5 bd3e 83df 58bf 0347 e43d
00000200: f4bb a8bf 63a5 dcbc bef9 193f 5e36 343e
00000210: 4159 2bbe 1a3c f33e 4759 ffbd d05a 8dbc
00000220: fea7 2bbf 0ab1 c13e b2db c43e dbb2 9bbe
00000230: cce1 a33e e7a4 32be 581f 613f f52c 9fbf
00000240: 8b10 e63e 94fd 9a3f 66af 283f 2379 2e3e
00000250: 88a7 98bf 475d 033f 7333 27be e07b d33e
00000260: ffb6 a9be 770b 8a3f 47ea 68be a701 6bbf
00000270: 8408 923e 334d 3abe afff edbf e9af bc3d
00000280: fbd0 bcbe 267b b2be 8de9 babe e651 9a3d
00000290: 4fa8 ddbc a134 c9bc 1774 aebe 19f9 79be
000002a0: d967 193f d82d 863e 7c4a 20be a10e dbbe
000002b0: 92f1 4fbe fc19 603e 1b9c d73e c491 b83e
000002c0: b569 cdbe e777 b7be fbb0 41be 300d 07bd
000002d0: 8c5d b8c0 b197 fd3f ec3a ec3f 5931 fc3f
000002e0: 5b89 01bf 2411 483f ed0e c1be 5a7f 10bf
000002f0: fc2c 33bf 0cf6 3b3f 2f4f 583f 3faf 14bf
00000300: c07d 4e3f 855e 6dbf b7ac 413f a7a8 933e
00000310: dc7f 0fbf d5a7 71be f6b4 793e 63c5 373d
00000320: 4772 99bd 378c 02be 43d1 4a3e f653 07be
00000330: 07f8 aeba d349 4ebe 05e4 87be a769 c73d
00000340: 714a 623d 4618 a53e c9cc 99bd d248 973a
00000350: 26d6 c03d 7973 d8bd 9dbc 55be e930 233c
00000360: f605 82be 5b03 4e3e 2d87 5d3c 808c dd3d
00000370: 2b17 33bd dd31 2f3d 98c4 79be 0615 9cbd
00000380: 8e0a 1d3e 3717 bdbd ee63 7c3e c9a9 ef3c
00000390: aa79 433d 6b77 423d e71e cabd 6ddf 063d
000003a0: 9deb 063e 5a9b 783d 8bbb ffbd 2a8c 9fbc
000003b0: 2d8a 283b c506 ae3d 5ab0 5cbd 2b55 21bd
000003c0: d87f 2abe 3209 5cbe 1143 e5be 4332 df3e
000003d0: 0857 86be cdd7 efbc ef8f d93d 9d90 20be
000003e0: 1430 edbd 1082 c63e 1a78 35be 6d25 3c3d
000003f0: 2e1d 94be 9e2e 253d 8e24 07be 2c6e fbbe

conv2.bias f4 [32]
-0.32506013 -2.6794631 -4.408436 -1.0090493 0.6648442 -0.23482321 0.54622245 0.02195602
0.33789364 0.873244 -0.27440503 2.563307 -1.0944301 -0.9496185 2.4294872 0.57759607
2.1705189 0.25886023 -2.1037905 0.786723 -0.9760819 -3.4133472 0.05445265 -0.8139146
1.0945859 2.1422975 -0.33058012 1.5048319 3.10234 0.36001626 1.1268634 1.5281094
00000000: 486e a6be 537c 2bc0 e811 8dc0 8728 81bf
00000010: 3b33 2a3f 7f75 70be 3cd5 0b3f 1cdd b33c
00000020: 6500 ad3e eb8c 5f3f d17e 8cbe 390d 2440
00000030: 4916 8cbf 331a 73bf b87c 1b40 56dd 133f
00000040: c8e9 0a40 5489 843e 81a4 06c0 ae66 493f
00000050: 81e0 79bf 4874 5ac0 be09 5f3d b55c 50bf
00000060: 641b 8c3f 671b 0940 cc41 a9be 559e c03f
00000070: bd8c 4640 0d54 b83e 0f3d 903f 1799 c33f

bn2.weight f4 [32]
0.17138767 0.018904706 0.08575869 0.16412318 0.10345566 0.07791546 0.058614668 0.02279755
0.11906888 0.29360852 0.37362924 0.10047203 0.11535225 0.09285308 0.08574421 0.11985106
0.09400948 0.57848185 0.066346124 0.020009845 0.13917372 0.07424809 0.70068675 0.2399077
0.12712781 0.12817353 0.09631671 0.11798175 0.105134316 0.6950506 0.08707951 0.06994852
00000000: 4080 2f3e 0bde 9a3c 41a2 af3d e80f 283e
00000010: 90e0 d33d 2492 9f3d ef15 703d edc1 ba3c
00000020: 63da f33d db53 963e 554c bf3e 48c4 cd3d
00000030: cd3d ec3d c129 be3d a99a af3d 7974 f53d
00000040: 0b88 c03d 6317 143f 7ae0 873d b0eb a33c
00000050: 8e83 0e3e 620f 983d 3560 333f 5daa 753e
00000060: cb2d 023e ec3f 033e b241 c53d 6aa0 f13d
00000070: a950 d73d d6ee 313f be56 b23d 2b41 8f3d

bn2.bias f4 [32]
-0.41339612 -0.13390328 -0.02431143 -0.1001863 -0.08816775 -0.03880403 -0.004809189 -0.19412553
-0.10177984 -0.34671202 -0.34967107 -0.19272567 -0.12904271 -0.03148229 -0.11024339 -0.094961174
-0.06730249 -0.52122337 -0.029666487 -0.088599496 -0.11202035 -0.04204593 -0.8793387 -0.4939466
-0.028740918 -0.2881643 -0.08553505 0.067458555 -0.06621104 -0.07398319 -0.10356394 -0.06355074
00000000: a8a8 d3be f11d 09be c428 c7bc 7a2e cdbd
00000010: 4b91 b4bd f9f0 1ebd 6796 9dbb d8c8 46be
00000020: f371 d0bd 3d84 b1be 1608 b3be e159 45be
00000030: c623 04be 93f3 00bd 49c7 e1bd 017b c2bd
00000040: e3d5 89bd e56e 05bf 2207 f3bc a773 b5bd
00000050: ed6a e5bd 5a38 2cbd 571c 61bf 92e6 fcbe
00000060: 1372 ebbc 458a 93be 002d afbd b627 8a3d
00000070: a799 87bd 8084 97bd 5519 d4bd e426 82bd

bn2.running_mean f4 [32]
-0.21353474 -3.1408355 -3.0629637 -2.694997 -0.37118435 3.4150584 -2.6099331 1.0510163
5.606835 5.2446556 4.7846155 2.9537983 1.4586606 -0.72355425 0.9052821 -0.3434401
2.1814249 8.727978 2.5682247 2.9591205 7.143451 -4.0509343 -1.799655 -3.2052596
5.5155945 2.009726 4.480063 -7.418818 2.5527568 6.641133 0.9229173 1.8210391
00000000: daa8 5abe 7303 49c0 9907 44c0 d57a 2cc0
00000010: e00b bebe 5190 5a40 2509 27c0 b487 863f
00000020: 316b b340 38d4 a740 921b 9940 080b 3d40
00000030: 64b5 ba3f da3a 39bf 91c0 673f 61d7 afbe
00000040: 779c 0b40 cca5 0b41 cb5d 2440 3b62 3d40
00000050: 2797 e440 41a1 81c0 185b e6bf f922 4dc0
00000060: c07f b040 5a9f 0040 ad5c 8f40 f566 edc0
00000070: 5e60 2340 2984 d440 4f44 6c3f cf17 e93f

bn2.running_var f4 [32]
1.8740102 6.6028814 8.3078985 11.408435 3.671678 10.326202 12.09635 6.9442635
9.981142 30.73945 28.057999 4.2723956 9.102827 12.914977 4.2366242 10.316692
8.117316 29.152145 5.5855227 5.9601955 15.560493 14.201924 15.174247 8.359151
19.948845 4.05413 8.370168 56.926502 17.110136 40.661385 12.976248 8.517439
00000000: 91df ef3f ce4a d340 27ed 0441 f388 3641
00000010: c6fc 6a40 2038 2541 a68a 4141 6837 de40
00000020: c2b2 1f41 65ea f541 c876 e041 77b7 8840
00000030: 2ea5 1141 bfa3 4e41 6d92 8740 2c11 2541
00000040: 87e0 0141 9837 e941 9abc b240 ecb9 be40
00000050: c8f7 7841 153b 6341 b7c9 7241 15bf 0541
00000060: 3c97 9f41 6fbb 8140 35ec 0541 bdb4 6342
00000070: 8fe1 8841 42a5 2242 b69e 4f41 6e47 0841

linear1.weight f4 [64, 576]
-0.5264227 -0.7266985 -0.773527 0.5065673 -0.45428592 0.08832293 0.94954735 0.095810905
-0.7037138 -0.67626184 -0.08785116 0.79232514 -0.329776 -0.052965317 0.11989096 0.5470382
0.2696582 -0.23446701 1.8598727 0.8414105 0.8843727 -0.5245198 0.9554512 -1.4644947
0.16864066 -1.7934653 -0.9521249 0.3454285 0.56618977 -0.04345872 0.1905069 -0.15289894
0.13336878 0.31902927 0.2546138 0.28474048 -1.9945295 -1.1424211 -4.047667 -4.1919055
-4.403148 -3.2065237 -0.0018809547 0.41265094 1.0473524 -0.3844345 0.2344498 -0.6347562
0.94678557 1.2442522 0.17464754 0.952614 -0.0019270354 -0.0732281 -2.9368875 -1.2995822
0.46905565 2.3863318 1.2391422 -0.74300545 0.55878997 -0.24722709 -2.7497885 0.82721597
1.4733896 -0.5956556 -1.4810816 1.1111382 -0.069001324 -0.28046677 -0.04280267 -0.48072785
0.41590106 -0.054994542 0.8065021 -0.025343576 -1.095531 -3.7864304 -0.90809095 0.18283428
-0.34871408 1.9639534 -0.5052318 -0.56333494 0.23048346 0.3474688 -0.39022332 0.3332965
-0.053097423 0.13346718 0.044957045 -1.781236 -1.0182964 -0.6978761 0.017955512 0.0062758867
-0.59709525 0.08183392 -0.11284726 -1.1791914 0.28156674 -0.45281953 0.26893872 -0.27372894
-0.56148624 -0.34482127 0.077098146 0.47185853 1.0371221 0.48479944 0.13609347 -0.3084821
-0.0048427726 1.2301451 -0.23828156 -0.7951797 -1.1682079 0.956435 -0.088990435 -0.41718224
-0.043395918 0.12091601 -0.8130837 -1.0627022 -0.61610144 -1.0866967 -0.15209812 -0.8982967
-0.12875716 -1.0574036 1.1436039 -0.7858575 -0.21290435 -0.4233577 0.16893137 -0.08171161
-0.16132055 0.15069318 -0.15104748 -0.82826227 0.28045473 -0.07093783 0.016686419 0.017638626
-0.8935842 -0.7807023 0.40899247 -0.99932045 -2.9201634 0.3279674 0.69923156 1.2988398
0.57073575 0.7965581 0.5578075 -0.11455149 0.3913701 -0.25350505 0.24820033 -1.3286965
0.16635555 -0.08603342 -0.15693161 -0.72856265 1.259342 0.20217413 0.48796597 -0.51463115
0.70776415 0.46329856 -0.31200063 -0.35927725 -0.8007548 0.80437523 0.072434366 0.82814056
0.24206004 0.32148936 1.7099715 1.4389191 -1.4306444 0.17518337 0.5897409 0.57426894
-1.3801357 1.8637 -0.33423412 -0.8518595 1.3432959 0.3596726 -0.06466939 -0.8993602
-0.85794955 0.17653473 0.23597668 0.4813914 -0.11725468 0.1423804 -1.1615705 -4.386584
-5.389704 -3.0094872 -2.6751852 -3.002462 -2.4800267 -1.2906721 -0.25270864 0.26037192
0.007643169 -0.25722578 0.38610852 1.2628199 -0.48266095 -0.26081532 -0.2330431 -0.46444264
0.9629028 0.68007565 1.4559728 -0.6548318 0.10551016 -0.07589983 -0.20648474 -1.1805722
0.07771732 -1.2302294 -0.013548359 1.3320131 -0.8849471 -0.29627678 0.3461819 0.5854254
-0.49777856 0.007091953 -0.26006866 0.2357993 0.24548562 -0.4475838 0.30200014 0.468845
0.23267989 -0.12229473 0.26358688 0.6687348 0.36869353 0.03331677 0.17391765 -0.5726957
-0.7667461 0.41561532 -0.25785387 0.041700136 1.3441794 0.47183284 -0.7665426 -1.7900331
00000000: a3c3 06bf ea08 3abf de05 46bf 65ae 013f
00000010: 2a98 e8be a7e2 b43d 8915 733f 8238 c43d
00000020: 9626 34bf 7f1f 2dbf 4feb b3bd d2d5 4a3f
00000030: 66d8 a8be 29f2 58bd 6489 f53d b20a 0c3f
00000040: a410 8a3e 1f18 70be 4f10 ee3f ae66 573f
00000050: 4066 623f ee46 06bf 7398 743f 9074 bbbf
00000060: 23b0 2c3e 4590 e5bf 75be 73bf 01dc b03e
00000070: d0f1 103f c501 32bd 3e14 433e 8a91 1cbe
00000080: d391 083e ce57 a33e bd5c 823e 81c9 913e
00000090: be4c ffbf db3a 92bf 7d86 81c0 1724 86c0
000000a0: 97e6 8cc0 af37 4dc0 5e8a f6ba fc46 d33e
000000b0: a50f 863f 99d4 c4be 9c13 703e 627f 22bf
000000c0: 8a60 723f a843 9f3f ced6 323e 83de 733f
000000d0: 9494 fcba 9df8 95bd f7f5 3bc0 b658 a6bf
000000e0: 1028 f03e a9b9 1840 369c 9e3f 9b35 3ebf
000000f0: dc0c 0f3f 1929 7dbe 89fc 2fc0 6dc4 533f
00000100: 0898 bc3f e37c 18bf 1594 bdbf c739 8e3f
00000110: 9150 8dbd 5799 8fbe da51 2fbd f621 f6be
00000120: fcf0 d43e f541 61bd ec76 4e3f 559d cfbc
00000130: 5c3a 8cbf e054 72c0 a678 68bf e938 3b3e
00000140: a78a b2be d362 fb3f df56 01bf b836 10bf
00000150: db03 6c3e 6ee7 b13e 5acb c7be d7a5 aa3e
00000160: af7c 59bd 9fab 083e e124 383d 8bff e3bf
00000170: 8957 82bf 02a8 32bf 7017 933c f4a5 cd3b
00000180: 3cdb 18bf 8b98 a73d 771c e7bd beef 96bf
00000190: 8429 903e f6d7 e7be 56b2 893e 3326 8cbe
000001a0: 90bd 0fbf 6a8c b0be a2e5 9d3d 7197 f13e
000001b0: 6bc0 843f a237 f83e 165c 0b3e 5ef1 9dbe
000001c0: 1fb0 9ebb 6575 9d3f 1500 74be e690 4bbf
000001d0: d687 95bf edd8 743f 9e40 b6bd e998 d5be
000001e0: ebbf 31bd d0a2 f73d 4126 50bf a006 88bf
000001f0: d3b8 1dbf e118 8bbf 9cbf 1bbe c6f6 65bf
00000200: ebd8 03be 0059 87bf 9d61 923f f52d 49bf
00000210: 9903 5abe 57c2 d8be 58fc 2c3e 6b58 a7bd
00000220: 3731 25be 504f 1a3e 31ac 1abe ff08 54bf
00000230: c397 8f3e da47 91bd f5b1 883c e17e 903c
00000240: efc1 64bf 1bdc 47bf 7667 d13e 77d3 7fbf
00000250: f5e3 3ac0 58eb a73e d700 333f 6240 a63f
00000260: bd1b 123f 3beb 4b3f 79cc 0e3f f999 eabd
00000270: a961 c83e 6acb 81be 3a28 7e3e ba12 aabf
00000280: 1c59 2a3e 4a32 b0bd aeb2 20be 1583 3abf
00000290: 1e32 a13f bc06 4f3e add6 f93e debe 03bf
000002a0: 0830 353f 7835 ed3e 8cbe 9fbe 30f3 b7be
000002b0: 44fe 4cbf 89eb 4d3f 7858 943d 0501 543f
000002c0: 96de 773e 419a a43e 59e0 da3f 802e b83f
000002d0: 5b1f b7bf 4563 333e 42f9 163f 4a03 133f
000002e0: 49a8 b0bf b98d ee3f bc20 abbe 7713 5abf
000002f0: 1ff1 ab3f 0227 b83e 6371 84bd 783c 66bf
00000300: 95a2 5bbf 85c5 343e dfa3 713e ef78 f63e
00000310: 3923 f0bd 2bcc 113e 58ae 94bf e55e 8cc0
00000320: 7578 acc0 709b 40c0 3c36 2bc0 5628 40c0
00000330: c2b8 1ec0 be34 a5bf 0763 81be 784f 853e
00000340: 8c73 fa3b 19b3 83be 04b0 c53e 15a4 a13f
00000350: 561f f7be 9689 85be daa2 6ebe 6dcb edbe
00000360: cc80 763f 7019 2e3f 515d ba3f 0fa3 27bf
00000370: b615 d83d 5f71 9bbd bc70 53be fd1c 97bf
00000380: 422a 9f3d 2878 9dbf f0f9 5dbc 687f aa3f
00000390: e58b 62bf 97b1 97be c13e b13e 70de 153f
000003a0: d5dc febe 9d63 e83b b827 85be 5f75 713e
000003b0: 9560 7b3e b429 e5be c39f 9a3e 740c f03e
000003c0: a343 6e3e a975 fabd dcf4 863e 3432 2b3f
000003d0: 66c5 bc3e 2a77 083d 7817 323e 2f9c 12bf
000003e0: 7949 44bf 88cb d43e 6c05 84be c3cd 2a3d
000003f0: 120e ac3f 1394 f13e 233c 44bf ce1f e5bf

linear1.bias f4 [64]
-0.7159688 -0.658719 0.6127214 0.6704009 1.5475477 -2.081148 -1.5176289 0.7028727
-0.38566777 -1.0455638 -1.1362816 1.2758858 -0.59526837 0.7016399 -1.2440869 1.2171472
1.4644879 -0.30973288 0.8785792 -1.2096629 -0.7417078 -1.3879024 -0.96582204 0.07473058
-0.8197148 -0.8204963 -0.23980285 -1.0872943 -0.14277062 -0.53970695 -1.0109975 0.7984608
-0.5916481 -0.1538535 1.4617586 -1.4700617 -0.86391234 -1.3582864 1.1949029 -1.1872156
0.61686695 1.0853045 -1.0685784 0.95020837 -0.11231087 -0.41131783 -0.14392264 0.9251375
-1.4502873 -1.1173799 0.26486623 -1.7828735 -0.7963254 -0.6864298 -1.080646 -0.10170356
-1.0311904 -0.9892499 -0.80235094 0.95218533 -0.59485686 -0.7164615 1.433749 -0.5033081
00000000: bb49 37bf cfa1 28bf 4fdb 1c3f 659f 2b3f
00000010: 0b16 c63f 8731 05c0 aa41 c2bf 77ef 333f
00000020: 3f76 c5be 09d5 85bf ad71 91bf 3a50 a33f
00000030: 8263 18bf ac9e 333f 3d3e 9fbf 7bcb 9b3f
00000040: 5774 bb3f 4f95 9ebe 91ea 603f 3cd6 9abf
00000050: 90e0 3dbf c9a6 b1bf 1d40 77bf 590c 993d
00000060: d4d8 51bf 0c0c 52bf e18e 75be 762c 8bbf
00000070: 7632 12be 3c2a 0abf 5e68 81bf ed67 4c3f
00000080: 4076 17bf c68b 1dbe e81a bb3f fb2a bcbf
00000090: 5c29 5dbf 54dc adbf 94f2 983f aef6 97bf
000000a0: feea 1d3f 42eb 8a3f 2dc7 88bf db40 733f
000000b0: 3e03 e6bd 4098 d2be 7560 13be d0d5 6c3f
000000c0: 04a3 b9bf 4e06 8fbf 8c9c 873e 3335 e4bf
000000d0: fbdb 4bbf ddb9 2fbf 9c52 8abf f549 d0bd
000000e0: 0cfe 83bf 7b3f 7dbf df66 4dbf 6bc2 733f
000000f0: 8a48 18bf 056a 37bf 1685 b73f cdd8 00bf

linear2.weight f4 [16, 64]
0.6105238 0.07652503 0.64871824 -0.13838811 0.18358305 0.89874196 -0.6845796 0.35508966
0.19442086 0.70134366 1.0784744 0.29642805 -0.43419537 0.32744604 -1.0974009 -0.6101265
1.0471649 -0.049401205 -0.17576839 0.5917185 0.09489439 -0.79667884 -0.048407618 -0.47235316
-0.25295433 -0.33562186 -0.4178252 0.8573971 -0.460976 -0.22004566 1.2775874 0.84171504
0.7042748 0.2538117 0.15675606 0.11985587 -0.10563972 -0.1773833 0.1649092 0.3346934
0.8928298 -0.092452854 0.80707103 -0.992165 0.27091625 -0.28903186 0.29458866 -0.15121114
-0.34328225 -0.30856648 0.48835674 -0.2048058 -0.48929408 0.109513246 0.1715945 -0.38557547
0.9571097 -0.87594396 0.7931498 -0.4051983 -0.23553537 0.6414985 0.26726323 0.18615606
0.50437474 -0.75131375 0.26795697 0.3510652 0.35868993 1.1873349 0.5273722 -0.75296736
-0.55285484 1.2220796 -0.36224213 -0.22522733 0.97836554 0.65087485 0.27038142 -0.43164632
0.37940183 -0.88198614 0.12923887 -0.0074994178 0.8983375 -0.040803093 -0.5515857 1.1734929
-0.16554897 0.038128898 0.280234 0.49400994 0.25788942 0.040701784 0.33411086 -0.35294122
-0.7067452 0.7393689 -0.2331764 0.35159433 -0.66608405 0.31622764 -0.15155916 -0.3736217
-0.49849322 0.6165869 0.7477496 -0.36700273 -0.115540095 0.40291017 -0.4082595 0.6116059
0.69914335 -1.1685039 -0.49763402 0.8258013 -0.43093196 -0.7950875 0.39578807 0.44259778
-0.5211953 -0.20067427 0.20054743 -0.29737642 0.38736287 -0.28485852 0.14375171 0.4987813
0.4110434 0.26817074 -0.3816523 0.18977492 -0.49120924 0.1868591 -0.54211366 -1.2229741
-0.4934111 0.5068741 -0.7129091 1.2981853 -0.9797192 0.09092031 -0.18848313 0.904208
0.8644245 0.33241838 -0.9875134 0.83781403 0.61581075 0.093567826 0.5269644 -0.5015105
0.29131296 0.27461445 0.13707979 -0.0033110718 0.16949967 -0.61110026 -0.74370587 -1.1078522
0.84963894 -0.052525975 0.1807514 -0.24070653 0.66449565 -0.10181629 0.37090498 -0.010679402
0.119081356 -0.10078982 -0.3796128 0.27493492 0.6605761 -1.2989804 0.8493182 -0.21248357
-1.1699198 0.24333604 -0.13250615 -0.013827627 0.6055697 0.121085495 -0.9433596 0.58421266
-0.282814 -0.032414008 0.6293369 0.41411075 -0.19171037 0.13509962 -0.5936286 -0.39251342
0.06589777 -0.47401175 0.08818827 0.18770288 0.3689995 -0.08950176 0.38289547 0.39763606
0.5013078 0.5652127 -0.12705377 -0.5783702 0.37950197 -0.21594697 1.3241466 -0.6428316
0.32501462 -0.8345837 -0.57855564 1.2728276 -0.52779824 -0.4276743 -0.7821169 -0.1298454
0.3337811 -0.03539008 -1.1275088 -0.44731793 0.066615306 -0.6034642 -0.9795425 -0.21299362
-0.380608 0.015196249 0.30070722 -0.1271895 0.19737299 -0.1191736 -1.0199575 -0.5296262
0.5287779 0.096501656 -0.23786709 0.24367575 0.34539843 0.5336542 0.16253744 0.36026144
-0.004443457 -0.49488363 -0.114806525 -0.7481091 0.009710112 0.75543326 0.06401446 -0.013260657
-0.34174177 0.39423957 0.4962675 0.16669111 -0.5332145 -0.021388736 -0.13876244 -0.6278658
00000000: 4a4b 1c3f 28b9 9c3d 6612 263f 9db5 0dbe
00000010: 32fd 3b3e f413 663f 9c40 2fbf 50ce b53e
00000020: 4316 473e 428b 333f 730b 8a3f 6bc5 973e
00000030: db4e debe 02a7 a73e a277 8cbf 4031 1cbf
00000040: 8009 863f eb58 4abd a1fc 33be dd7a 173f
00000050: fd57 c23d 25f3 4bbf 1147 46bd 46d8 f1be
00000060: 3b83 81be a1d6 abbe 2fed d5be 607e 5b3f
00000070: 0c05 ecbe a653 61be fc87 a33f a37a 573f
00000080: 5a4b 343f 9bf3 813e a984 203e ff76 f53d
00000090: a359 d8bd f8a3 35be f5dd 283e ef5c ab3e
000000a0: 7e90 643f ec57 bdbd 359c 4e3f 87fe 7dbf
000000b0: 89b5 8a3e fcfb 93be 53d4 963e 18d7 1abe
000000c0: b1c2 afbe 6dfc 9dbe e509 fa3e 9db8 51be
000000d0: c184 fabe 7b48 e03d 78b6 2f3e 266a c5be
000000e0: 2405 753f dd3d 60bf de0b 4b3f 2776 cfbe
000000f0: 2f30 71be 3f39 243f bad6 883e b29f 3e3e
00000100: b41e 013f 1956 40bf a831 893e d1be b33e
00000110: 35a6 b73e 97fa 973f dd01 073f 78c2 40bf
00000120: e587 0dbf 1b6d 9c3f cd77 b9be fea1 66be
00000130: 2a76 7a3f bc9f 263f 6f6f 8a3e bf00 ddbe
00000140: f540 c23e d8c9 61bf 3257 043e adbd f5bb
00000150: 72f9 653f 2521 27bd b834 0dbf 0435 963f
00000160: ab85 29be 0c2d 1c3d d57a 8f3e dfee fc3e
00000170: 150a 843e eab6 263d 9410 ab3e b6b4 b4be
00000180: 41ed 34bf 4847 3d3f cbc5 6ebe 2c04 b43e
00000190: 7c84 2abf 97e8 a13e 5332 1bbe 584b bfbe
000001a0: 813a ffbe a4d8 1d3f 856c 3f3f c8e7 bbbe
000001b0: 49a0 ecbd 3e4a ce3e 6407 d1be 3492 1c3f
000001c0: 0ffb 323f 8991 95bf e3c9 febe b767 533f
000001d0: 1da3 dcbe db8a 4bbf bca4 ca3e 2d9c e23e
000001e0: 0e6d 05bf 8e7d 4dbe 4e5c 4d3e b941 98be
000001f0: 6d54 c63e fad8 91be a633 133e 4360 ff3e
00000200: 4874 d23e ad4d 893e ee67 c3be 5b54 423e
00000210: c77f fbbe fe57 3f3e f6c7 0abf 6a8a 9cbf
00000220: 61a0 fcbe 80c2 013f 3681 36bf f02a a63f
00000230: e1ce 7abf 6d34 ba3d b901 41be 2d7a 673f
00000240: ed4a 5d3f be32 aa3e aecd 7cbf fb7a 563f
00000250: c6a5 1d3f 7da0 bf3d 24e7 063f fe62 00bf
00000260: f926 953e 449a 8c3e a55e 0c3e 91fe 58bb
00000270: 5291 2d3e 1171 1cbf 8263 3ebf 1ace 8dbf
00000280: f081 593f 7a25 57bd e516 393e c67b 76be
00000290: 631c 2a3f 0f85 d0bd 42e7 bd3e a9f8 2ebc
000002a0: ede0 f33d e56a cebd 9c5c c2be 45c4 8c3e
000002b0: 841b 293f fd44 a6bf eb6c 593f 4b95 59be
000002c0: efbf 95bf 152d 793e b1af 07be 458d 62bc
000002d0: 9e06 1b3f acfb f73d 0480 71bf f68e 153f
000002e0: ffcc 90be 8dc4 04bd 391c 213f 5306 d43e
000002f0: b94f 44be 8e57 0a3e 0bf8 17bf 85f7 c8be
00000300: 69f5 863d abb1 f2be 0d9c b43d 2f35 403e
00000310: 81ed bc3e b34c b7bd e00a c43e f496 cb3e
00000320: b555 003f c8b1 103f 621a 02be 1210 14bf
00000330: 154e c23e 3421 5dbe a37d a93f 9d90 24bf
00000340: 5168 a63e 47a7 55bf 391c 14bf 04ec a23f
00000350: c91d 07bf 20f8 dabe d038 48bf 31f6 04be
00000360: 5be5 aa3e 30f5 10bd 3552 90bf db06 e5be
00000370: 9b6d 883d a17c 1abf 4cc3 7abf 001b 5abe
00000380: 0ddf c2be b0f9 783c 4cf6 993e f73d 02be
00000390: 251c 4a3e 4a11 f4bd f88d 82bf 9595 07bf
000003a0: fd5d 073f a9a2 c53d 6e93 73be 2386 793e
000003b0: 10d8 b03e 909d 083f 3770 263e 3074 b83e
000003c0: 6b9a 91bb 6361 fdbe af1f ebbd 1484 3fbf
000003d0: 2917 1f3c 1364 413f 031a 833d 3a43 59bc
000003e0: c7f8 aebe c5d9 c93e c616 fe3e 13b1 2a3e
000003f0: bf80 08bf 6e37 afbc be17 0ebe d0bb 20bf

linear2.bias f4 [16]
-2.4229727 -3.9934864 -3.0540273 2.8577619 2.9829586 3.1850789 3.209105 -3.826631
-2.7662694 -4.422265 -1.3946536 2.884076 -2.6083035 0.1405012 5.1103554 -2.870951
00000000: fc11 1bc0 4895 7fc0 2f75 43c0 92e5 3640
00000010: cbe8 3e40 55d8 4b40 fa61 4d40 86e7 74c0
00000020: 8f0a 31c0 3283 8dc0 0284 b2bf b494 3840
00000030: 72ee 26c0 8cdf 0f3e 0888 a340 a9bd 37c0

linear3.weight f4 [111, 16]
-1.1337668 -1.2984035 -0.42844465 0.7905803 1.6206685 0.6589071 -0.6631424 -0.8128817
-0.72444284 -1.3426025 -0.3359128 -0.4906327 0.10722472 0.68903583 1.8206133 -0.59056693
-0.38724282 -0.78266805 -0.6021326 -0.39818755 -0.09050999 0.3883378 1.2373598 -0.076301455
-0.024444437 -2.0676498 0.13842256 0.40170157 -0.1924796 0.59205294 0.33117786 -1.7255492
-0.92159116 -1.4974813 0.052686688 -0.9032339 0.049182214 0.55281097 1.1905658 0.73688155
-0.21670407 -2.6650488 0.42683834 0.55407614 -0.40425736 0.4065703 0.2968111 -1.8513649
0.016639603 0.48486602 -1.816025 1.022926 -0.2697257 -0.1908002 1.0778358 -1.3707042
-0.10774354 -0.7018827 0.08970545 0.087929234 -0.21073528 0.25877425 0.5481144 -1.3224903
-0.025792776 1.0584812 -2.7098525 0.7947127 -0.06765515 -0.18619302 1.2117805 -1.506992
-0.27223215 -0.9805195 -0.23684867 0.15229954 0.03559559 0.41057068 0.7369051 -1.3919343
0.30482203 -1.0856577 0.65345126 1.910258 -0.26198363 -0.30227575 0.3859866 -0.934113
0.7178935 0.3836793 0.8788719 0.13410144 -0.9668141 0.19444934 -0.38454562 -1.6185864
-0.85223967 -1.0587448 -0.39068606 1.1660691 -1.2872919 0.29653907 0.76055455 -0.5922382
0.4033808 -0.42982167 -1.5285997 0.019888312 -1.251598 -0.47971252 0.30385667 0.09384975
0.44914263 -0.9750178 0.6944903 1.1827217 -0.009210371 -0.059559695 0.2550685 -0.8350014
0.31892914 0.61774296 0.4040889 0.054698665 -0.63810575 1.0571223 -0.692306 -1.4403273
0.30116338 -1.2156286 0.76750815 2.0801768 -0.44758457 -0.46263587 0.2495993 -0.89438176
0.7487892 0.45781532 0.8379923 0.012920185 -1.199886 0.17667902 -0.3139831 -1.6122417
0.025675638 -0.07030532 -0.012685346 0.007735007 -0.008176367 -0.05299292 0.010940216 -0.016714143
0.00741941 0.020772986 -0.0029555904 -0.0123765115 -0.009879191 -0.029775608 -0.045628294 -0.03516402
0.19225498 -1.9524919 -0.77267164 -0.21808751 0.26048827 -1.5250578 0.456882 -0.58608925
0.57567275 0.24363625 -0.29047808 -0.3856687 -0.05718613 -1.30502 -0.32515836 -0.33853605
-0.0061127194 0.0041704476 0.01449699 -0.008830768 -0.00072064705 -0.001745774 0.013745213 0.0012966626
-0.004511532 0.0043732384 -0.0057734074 -0.00020944577 0.0115538025 -0.0053047654 -0.0013437108 0.01553342
0.057865497 -0.12674269 -0.0755227 -0.11344165 -0.02865677 -0.13470869 0.0027672509 0.0034977817
0.018190932 0.08650169 -0.027082644 -0.021551989 0.02853173 -0.016959526 -0.031191494 -0.005671395
0.0067289495 -0.015491779 0.0115479175 -0.0077759353 -0.005563783 0.0018169794 -0.004767674 0.008766593
0.0085397 -0.0023359205 -0.004329011 -0.00096554897 0.007958582 -0.0042752055 0.0014004136 0.0013619898
0.0056462726 0.008328738 0.0026079125 -0.012358686 -0.011936906 -0.0064831153 0.0013100749 0.007578866
0.008522218 0.015228177 -0.00078194233 -0.0052152285 0.0032905715 -0.001998494 -0.0032858565 -0.00016584348
-0.0016630299 -0.0079671955 0.0074065723 -0.010704069 -0.003991926 0.011932441 -0.0048458176 -0.009376708
0.017089874 -0.005273563 0.00030441367 0.0051583797 -0.009579772 7.486675e-05 -0.0048647146 0.0005818918
00000000: 451f 91bf 1632 a6bf 195d dbbe 7863 4a3f
00000010: 1172 cf3f 23ae 283f b3c3 29bf 0419 50bf
00000020: 1675 39bf 66da abbf c3fc abbe 3634 fbbe
00000030: a298 db3d a764 303f db09 e93f 652f 17bf
00000040: b144 c6be ef5c 48bf 5d25 1abf 3ddf cbbe
00000050: 4d5d b9bd 36d4 c63e ce61 9e3f f043 9cbd
00000060: b33f c8bc 6054 04c0 a5be 0d3e d4ab cd3e
00000070: 5f19 45be c890 173f 2590 a93e ccde dcbf
00000080: 66ed 6bbf 78ad bfbf ffcd 573d 563a 67bf
00000090: 4a73 493d 0585 0d3f 7664 983f 45a4 3c3f
000000a0: ace7 5dbe 2990 2ac0 8e8a da3e efd7 0d3f
000000b0: d2fa cebe fb29 d03e a0f7 973e 86f9 ecbf
000000c0: c74f 883c 5c40 f83e 8273 e8bf 3def 823f
000000d0: 7d19 8abe 2161 43be 86f6 893f 3c73 afbf
000000e0: a5a8 dcbd 96ae 33bf 7eb7 b73d 3e14 b43d
000000f0: fdca 57be 0f7e 843e 3a51 0c3f 5d47 a9bf
00000100: 5f4b d3bc 507c 873f 396e 2dc0 4b72 4b3f
00000110: c98e 8abd 62a9 3ebe a01b 9b3f 1de5 c0bf
00000120: 0362 8bbe 5303 7bbf 7588 72be 69f4 1b3e
00000130: aecc 113d 5236 d23e d0a5 3c3f e72a b2bf
00000140: a211 9c3e d5f6 8abf 9548 273f 5683 f43f
00000150: b822 86be e3c3 9abe 09a0 c53e 0822 6fbf
00000160: dec7 373f 9d71 c43e c0fd 603f e351 093e
00000170: 2181 77bf ba1d 473e 2ae3 c4be d72d cfbf
00000180: 612c 5abf f384 87bf 0108 c8be c141 953f
00000190: fbc5 a4bf f8d3 973e b4b3 423f ec9c 17bf
000001a0: ee87 ce3e 9611 dcbe 28a9 c3bf d0ec a23c
000001b0: 5d34 a0bf e19c f5be 1a93 9b3e 4c34 c03d
000001c0: 06f6 e53e c49a 79bf 1eca 313f 6d63 973f
000001d0: 19e7 16bc def4 73bd 5798 823e a7c2 55bf
000001e0: ae4a a33e 6724 1e3f bee4 ce3e b50b 603d
000001f0: e65a 23bf c94f 873f f73a 31bf a55c b8bf
00000200: 1632 9a3e b899 9bbf 6a7b 443f 9e21 0540
00000210: ce29 e5be 9cde ecbe f596 7f3e 34f6 64bf
00000220: a6b0 3f3f c566 ea3e aa86 563f 2faf 533c
00000230: dd95 99bf 58eb 343e 65c2 a0be f05d cebf
00000240: b755 d23c 3cfc 8fbd 33d6 4fbc f175 fd3b
00000250: 2bf6 05bc 1b0f 59bd 973e 333c 19ec 88bc
00000260: 861e f33b 1c2c aa3c 94b2 41bb dac6 4abc
00000270: 55dc 21bc faeb f3bc bce4 3abd 2608 10bd
00000280: 7dde 443e 41eb f9bf cfcd 45bf 5552 5fbe
00000290: b85e 853e 1835 c3bf 70ec e93e f209 16bf
000002a0: 4a5f 133f c87b 793e 8bb9 94be 5e76 c5be
000002b0: 013c 6abd e50a a7bf 287b a6be 9954 adbe
000002c0: 354d c8bb 40a8 883b c884 6d3c edae 10bc
000002d0: cee9 3cba 74d2 e4ba 9a33 613c c7f4 a93a
000002e0: 79d5 93bb 624d 8f3b da2e bdbb ac9e 5bb9
000002f0: 294c 3d3c 99d3 adbb 741f b0ba e37f 7e3c
00000300: 5f04 6d3d d6c8 01be a5ab 9abd 1954 e8bd
00000310: 9ac1 eabc 13f1 09be c45a 353b 0a3b 653b
00000320: 2605 953c cc27 b13d 6cdc ddbc cc8d b0bc
00000330: 60bb e93c b4ee 8abc 4e85 ffbc 1cd7 b9bb
00000340: 857e dc3b 3bd1 7dbc 7a33 3d3c 46cd febb
00000350: 6550 b6bb b627 ee3a 263a 9cbb c2a1 0f3c
00000360: 19ea 0b3c 3e16 19bb 60da 8dbb e51c 7dba
00000370: b664 023c 0617 8cbb 158e b73a cb84 b23a
00000380: 5e04 b93b 4275 083c 83e9 2a3b 167c 4abc
00000390: 0393 43bc 5070 d4bb d2b6 ab3a 2358 f83b
000003a0: c6a0 0b3c 9b7f 793c 43fb 4cba 82e4 aabb
000003b0: a1a6 573b 2af9 02bb 8657 57bb 45e6 2db9
000003c0: 06fa d9ba d788 02bc d5b2 f23b 1f60 2fbc
000003d0: b4ce 82bb 4980 433c aac9 9ebb c4a0 19bc
000003e0: 1000 8c3c dacd acbb b699 9f39 a007 a93b
000003f0: 7af4 1cbc c801 9d38 2f68 9fbb 198a 183a

linear3.bias f4 [111]
2.9033234 1.2512424 1.7996643 0.7083786 0.45135954 1.3824679 0.6151263 1.0881033
0.7828333 -0.61066777 0.07524719 -0.80973643 1.9922935 -0.8932514 -0.45163983 -0.8702524
-0.9047376 3.0731525 1.0335548 1.8913486 0.7275269 0.9620911 1.3854411 0.1991419
1.6527892 0.39402062 0.5602463 1.6651042 -0.7019328 0.40159774 -0.96905863 -0.4756686
-1.0081512 -0.67049384 2.5908923 3.6709952 2.0434768 2.1552587 2.5833392 1.9575524
1.5382876 1.0649892 -0.52437353 -0.7435424 3.003884 -0.823743 -0.4936637 -0.86062235
-0.56781626 -0.9808592 -0.5916678 3.6731143 2.1600497 1.8001741 0.09921895 0.85252774
1.5261791 0.6628246 2.1948004 1.6519655 -0.65333074 1.5054617 -0.6651981 -0.31442475
-0.7753047 -0.36578107 -0.95514077 -0.8460167 3.312897 2.9635324 2.8483622 1.716917
0.86318433 1.5806552 1.2088245 1.3138118 0.9407234 -0.65529317 0.47364572 -0.6416305
3.9614463 -0.913053 -0.0134093575 -1.0085365 -0.595077 3.2433438 2.4716864 2.5643961
1.3991728 0.6509188 0.7576112 0.9503956 0.56407195 0.6934061 1.2494963 2.1611826
-0.6664979 4.406868 -0.86576587 0.051952157 -0.8760054 -0.80403465 2.7255669 0.8344426
2.0867991 1.0943152 -0.5655961 -0.82463175 -0.93709123 -0.97940123 -1.0168842
00000000: 0dd0 3940 b628 a03f 665b e63f 4d58 353f
00000010: 9918 e73e b5f4 b03f eb78 1d3f f846 8b3f
00000020: c367 483f b954 1cbf 331b 9a3d e34a 4fbf
00000030: 7903 ff3f 20ac 64bf 563d e7be dcc8 5ebf
00000040: e29c 67bf 88ae 4440 864b 843f b617 f23f
00000050: 343f 3a3f 9a4b 763f 2256 b13f dbeb 4b3e
00000060: 998e d33f 12bd c93e 4d6c 0f3f 2222 d53f
00000070: deb1 33bf 389e cd3e 3a14 78bf d68a f3be
00000080: 190b 81bf 7ca5 2bbf 2ed1 2540 96f1 6a40
00000090: 53c8 0240 c2ef 0940 6e55 2540 1491 fa3f
000000a0: 9ce6 c43f 9151 883f 583d 06bf cb58 3ebf
000000b0: a33f 4040 d2e0 52bf 7dc1 fcbe bf51 5cbf
000000c0: 685c 11bf 9719 7bbf 8a77 17bf 4e14 6b40
000000d0: 413e 0a40 1b6c e63f 4e33 cb3d 423f 5a3f
000000e0: d659 c33f dfae 293f 9c77 0c40 9b73 d33f
000000f0: af40 27bf f8b2 c03f 6c4a 2abf 48fc a0be
00000100: 5e7a 46bf a847 bbbe 1b84 74bf 8d94 58bf
00000110: 8106 5440 84aa 3d40 914b 3640 f0c3 db3f
00000120: a6f9 5c3f e952 ca3f c3ba 9a3f fc2a a83f
00000130: 40d3 703f 4bc1 27bf b181 f23e e541 24bf
00000140: 5688 7d40 d7bd 69bf ecb2 5bbc b917 81bf
00000150: f756 18bf f292 4f40 1c30 1e40 111f 2440
00000160: 1818 b33f 9da2 263f cff2 413f 204d 733f
00000170: 0567 103f 1083 313f 7fef 9f3f d150 0a40
00000180: 9b9f 2abf 1005 8d40 d5a2 5dbf c9cb 543d
00000190: e441 60bf 37d5 4dbf b06f 2e40 089e 553f
000001a0: 1e8e 0540 8512 8c3f e8ca 10bf 111b 53bf
000001b0: 36e5 6fbf 0aba 7abf 4329 82bf
