policy_net_move_select.pth (torch, 185999 bytes, 18 tensors)

conv1.weight f4 [16, 1, 3, 3]
0	0x3da22c7e	0.079186425
1	0xc082118e	-4.064643
2	0xc0840f52	-4.12687
3	0xbe76d9b0	-0.24106479
4	0x3b536110	0.0032253899
5	0xbe475f76	-0.19470009
6	0xc03db428	-2.9641209
7	0xbd1b1016	-0.037857138
8	0xbc14369d	-0.009046224
9	0xbf409250	-0.75223255
10	0x3dd377ae	0.103255615
11	0x3d621588	0.055196315
12	0xc07aa6c7	-3.9164293
13	0xbdb408bb	-0.08790728
14	0x3cc1106e	0.023567405
15	0x3f7e3515	0.99299747
16	0x3e35e5f0	0.17763495
17	0x3dbd57a1	0.092452295
18	0x3c2b9d33	0.010474491
19	0xbd3df783	-0.046378624
20	0xbd9477aa	-0.072493866
21	0xbe3ea6f2	-0.18618372
22	0x3e06e5d2	0.13173607
23	0xbe0b3266	-0.13593444
24	0xc0f53285	-7.662417
25	0xbe85ce3d	-0.2613391
26	0xc0fad860	-7.838913
27	0xc100d724	-8.052525
28	0xbe8d7033	-0.27624664
29	0xbe325adf	-0.17417477
30	0xbbfb679e	-0.0076722642
31	0xbeb76e8f	-0.35826537
32	0xbeb6166f	-0.3556399
33	0xbd039e78	-0.03213355
34	0xbec07e0b	-0.37596163
35	0xbf062cc3	-0.5241205
36	0xbfc21ab9	-1.5164405
37	0xbfa787dd	-1.3088337
38	0xbfa37a03	-1.277161
39	0x3d9daf97	0.07699507
40	0x3d5e8735	0.054328162
41	0xbb000409	-0.0019533655
42	0xbf30f1db	-0.6911904
43	0x3cab221b	0.020890286
44	0xbf6d226d	-0.92630655
45	0xbf0dba9b	-0.5536286
46	0xbbb30069	-0.0054626954
47	0xbe3a43ac	-0.18189877
48	0xbf27db27	-0.65568775
49	0xbe24b32e	-0.16083977
50	0xbf716a0b	-0.94302434
51	0xc0384017	-2.8789117
52	0xc0380952	-2.8755689
53	0xc01b3776	-2.42526
54	0x3e6f3571	0.2336023
55	0xbd0dfa64	-0.03466262
56	0xbdd02461	-0.10163189
57	0x3f0d4091	0.55176646
58	0xbe778458	-0.24171579
59	0xbe8e8195	-0.27833238
60	0xc0ce001c	-6.4375134
61	0x3dfcda82	0.123463646
62	0x3d96f0a9	0.07370121
63	0x3d1c697f	0.038186546
64	0xbd0a9cb3	-0.033840846
65	0xc11f8a70	-9.971298
66	0xbe191348	-0.14948761
67	0xbe0ca1bc	-0.13733572
68	0xbf3681d2	-0.7129184
69	0xbe18e27a	-0.14930144
70	0xbd6985f8	-0.05701253
71	0x3f3db6cd	0.74107057
72	0x3fb18ba6	1.3870742
73	0x3f6a734f	0.91582197
74	0xbef79e21	-0.4836283
75	0xbdff8b67	-0.12477761
76	0x3e29ce76	0.16582665
77	0xbf277f92	-0.6542903
78	0xbf8bace6	-1.091214
79	0xbcb84797	-0.022495074
80	0xbeb24734	-0.3481995
81	0xbd8db3b6	-0.06919043
82	0xbde7c61d	-0.11317084
83	0x3dabe3fc	0.08393094
84	0x3ec62d0f	0.38706252
85	0xbdf62947	-0.12019592
86	0xbcd8b1d7	-0.026451988
87	0x3e0e4182	0.13892177
88	0xbd15789d	-0.03649198
89	0xc0d7fdf4	-6.74975
90	0xbde39ec8	-0.111142695
91	0xbd9c8e49	-0.07644326
92	0x3e948da5	0.29014316
93	0xbf6870dd	-0.90797216
94	0xbe8c5b42	-0.27413374
95	0x3f1266a5	0.57187873
96	0x3cc994b9	0.02460705
97	0x3d1c8e7e	0.03822183
98	0xc0b2228e	-5.566718
99	0x3d84b228	0.06479293
100	0xc047377c	-3.1127615
101	0x3da56e7e	0.08077715
102	0xba6e8875	-0.0009099313
103	0xbe9bbcee	-0.3041758
104	0xbd0c3866	-0.034233473
105	0x3d5d36d4	0.054007366
106	0xc0426e65	-3.037988
107	0x3e0f37ad	0.13986082
108	0x3ef491f1	0.47767594
109	0xbeab1710	-0.33416033
110	0x3d6706c9	0.056402955
111	0x3da29c02	0.079399124
112	0xbc85c6d8	-0.016330168
113	0x3e46b534	0.19405061
114	0x3f133a09	0.5751043
115	0xbc0bf8bc	-0.00854319
116	0x3f4d36c5	0.80161697
117	0xbfa8e730	-1.3195553
118	0xbfd09828	-1.6296434
119	0x3fced946	1.6160057
120	0x3ec18de2	0.3780356
121	0x3f3a1670	0.72690487
122	0xbd94ae03	-0.072597526
123	0xbe8baef5	-0.2728192
124	0xbf70dacb	-0.9408385
125	0x3f1c82a4	0.6113684
126	0xbf80dedf	-1.0068015
127	0xbf581022	-0.84399617
128	0xbf42ec64	-0.76141953
129	0x3d752656	0.059851013
130	0x3d0e39cb	0.034723084
131	0x3dccfc87	0.10009103
132	0xbeba03e5	-0.36331096
133	0xbf06f3ff	-0.5271606
134	0xbf152b4c	-0.5826919
135	0xbda5cb24	-0.080953866
136	0x3dc4574e	0.095869645
137	0x3d01a8f0	0.031655252
138	0xc0ac6367	-5.387134
139	0x3e349b58	0.17637384
140	0x3e36a326	0.17835674
141	0xbdce5243	-0.10074284
142	0x3e89ba09	0.26899746
143	0x3e4cc33d	0.19996352

conv1.bias f4 [16]
0	0xbe18cd11	-0.14921977
1	0x3f8df6fa	1.1090996
2	0x3e9f641c	0.31131065
3	0x3eaf8b4e	0.3428597
4	0xbf861b09	-1.0477
5	0xbe9c9611	-0.30583242
6	0x3f004803	0.5010988
7	0xbeb49a11	-0.35273793
8	0x3eb24e2c	0.34825265
9	0xbea8d996	-0.32978505
10	0x3f9e7b23	1.2381328
11	0x3ef6b483	0.48184595
12	0xbdc07565	-0.09397391
13	0x3eb27b29	0.3485959
14	0xc00a6932	-2.1626706
15	0x3d5d50be	0.05403208

bn1.weight f4 [16]
0	0x3fafdb88	1.3738871
1	0x3eb0f939	0.34565142
2	0x3fca431c	1.580173
3	0x3fcfec1a	1.6243927
4	0x40181c7c	2.3767385
5	0x3f929236	1.145087
6	0x3f970ddc	1.1801105
7	0x3f9134c2	1.1344225
8	0x3e12294a	0.14273563
9	0x3f38e910	0.72230625
10	0x3faf9f57	1.3720502
11	0x3f7062a6	0.93900526
12	0xbcb41e80	-0.0219872
13	0x3daee17d	0.08539102
14	0x3f8aff21	1.0859109
15	0x3f35c6fe	0.71006763

bn1.bias f4 [16]
0	0xbf7f2d9d	-0.99678975
1	0xbe1418ad	-0.14462538
2	0xbf3160df	-0.6928844
3	0xbf316962	-0.69301426
4	0xbffc942e	-1.9732721
5	0xbf64044c	-0.89069057
6	0xbeedeb0d	-0.46468392
7	0xbed4efc6	-0.41589183
8	0xbe216a06	-0.15763101
9	0xbd825749	-0.063643046
10	0xbf3b5255	-0.73172504
11	0xbf011bc8	-0.50433016
12	0xbda3ac2d	-0.07991824
13	0xbd31ddf7	-0.043424573
14	0xbf60f828	-0.87878656
15	0xbe42968d	-0.19002743

bn1.running_mean f4 [16]
0	0xc1b0ebde	-22.11517
1	0xc0972e16	-4.7243757
2	0xc1ba4869	-23.285357
3	0xc19ee709	-19.86281
4	0xc13ac704	-11.673588
5	0xc186789c	-16.808891
6	0xc107fd5e	-8.499357
7	0xc1acc14e	-21.594387
8	0x3f834cfe	1.0257871
9	0xc11bcbc9	-9.737252
10	0xc0ef6741	-7.481354
11	0xc129c4e1	-10.610566
12	0x402e5c4f	2.724384
13	0xbfe136ff	-1.7594908
14	0xc1170f1a	-9.441187
15	0xc0ef801c	-7.4843884

bn1.running_var f4 [16]
0	0x43967f7f	300.99606
1	0x427f5294	63.830643
2	0x443174a1	709.8223
3	0x43ab9dda	343.23322
4	0x427894a3	62.145153
5	0x4364d901	228.84767
6	0x43213e46	161.24326
7	0x43f25f82	484.74615
8	0x417edb2b	15.928508
9	0x43352769	181.15395
10	0x43083512	136.2073
11	0x42d2c3a5	105.38212
12	0x41134c39	9.206109
13	0x41bb8f3a	23.444935
14	0x41e2623e	28.29797
15	0x42d9c135	108.87736

conv2.weight f4 [32, 16, 3, 3]
0	0xbe6e12d6	-0.23249373
1	0xbf37a1ca	-0.71731246
2	0x3e55280a	0.20816055
3	0x3ddf180d	0.10893259
4	0x3e8bfa43	0.27339372
5	0x3efb3a03	0.49067697
6	0x3f1f9e4a	0.62350905
7	0xbed7218d	-0.42017785
8	0xbe46a587	-0.19399081
9	0x3f6c6ebf	0.92356485
10	0x3e5081ba	0.20361987
11	0x3dc80a77	0.09767621
12	0xbf025b6e	-0.5092076
13	0x3f170677	0.5899424
14	0x3ee6fc1b	0.45114216
15	0x3e2734c8	0.16328728
16	0x3e3a7289	0.18207754
17	0xbe87a48e	-0.26492733
18	0xbf089d67	-0.53365177
19	0x3d420de4	0.04737653
20	0xbd864521	-0.06556154
21	0xbd5a784a	-0.053337373
22	0x3f303294	0.68827176
23	0x3f8efb14	1.1170373
24	0xbe113f32	-0.14184263
25	0x3f1a0bb5	0.60174114
26	0x3f869d31	1.0516721
27	0x3fbf72e6	1.4956939
28	0x3f47e996	0.780908
29	0xbfcb3569	-1.5875674
30	0x3edc4f42	0.4302922
31	0xbd92fe4d	-0.0717741
32	0x3e812fe8	0.25231862
33	0x3f832cdf	1.0248069
34	0xbe4210d4	-0.18951732
35	0xbea932a0	-0.33046436
36	0xbe55e2d1	-0.20887305
37	0x3f0dbd40	0.553669
38	0x3f002e0a	0.5007025
39	0x3f046ad8	0.5172553
40	0x3ec37e4d	0.38182297
41	0x3e8da66a	0.27666026
42	0xbed05d2d	-0.40696087
43	0x3e4b6505	0.19862755
44	0xbd5908e9	-0.052987013
45	0x3f945d97	1.1591061
46	0x3fdc06c0	1.718956
47	0x3ecca37b	0.39968476
48	0xbf108dd8	-0.56466436
49	0xbf4200cf	-0.75782484
50	0xbe6f26fe	-0.23354718
51	0x3ddc4c02	0.10756685
52	0xbe886b73	-0.26644477
53	0xbec9c01d	-0.39404383
54	0xbf0501b1	-0.51955706
55	0xbeae0adf	-0.3399267
56	0x3f4ec2d7	0.8076605
57	0x3efd1ac4	0.49434483
58	0x3ebb2219	0.36549452
59	0xbee45d17	-0.44602272
60	0xbf05108f	-0.5197839
61	0x3f5aa5fe	0.85409534
62	0x3f81e03a	1.0146554
63	0xbf993d3f	-1.1971816
64	0x3f55ce16	0.8351759
65	0x3f29e471	0.663642
66	0x3ea0d999	0.31416014
67	0x3e8da4e1	0.27664855
68	0x3fa8ccea	1.3187535
69	0xbefbad43	-0.49155626
70	0x3e01bf2d	0.12670584
71	0x3ebb4303	0.36574563
72	0x3f86f039	1.054206
73	0x3d4f1023	0.0505525
74	0xbecc8f6b	-0.3995317
75	0x3f4466db	0.76719445
76	0x3e117ac1	0.14206983
77	0x3de852dd	0.1134393
78	0x40055813	2.0835006
79	0xbef61486	-0.48062533
80	0xbe15911a	-0.14606133
81	0xbf2e2b14	-0.6803448
82	0xbf072dc1	-0.5280419
83	0xbeba65e8	-0.36405873
84	0x3e8dcffc	0.27697742
85	0xbf502f27	-0.8132195
86	0x3fa76f37	1.3080815
87	0x3fc63fa4	1.5488172
88	0xbe850ef5	-0.25987974
89	0xbf09d2e9	-0.5383745
90	0xbeea3a02	-0.4574738
91	0xbf680767	-0.90636295
92	0xbe6ec6e7	-0.23318063
93	0xbf165765	-0.58727103
94	0xbd7da692	-0.061926432
95	0x3e087a3e	0.13327882
96	0x3e07465c	0.13210434
97	0x3eda3dee	0.42625374
98	0xbe11f6c6	-0.14254293
99	0x3f8e8e79	1.1137229
100	0xbea8ef09	-0.3299487
101	0x3f630e59	0.8869377
102	0x3f31711e	0.6931323
103	0x3f0d02a1	0.55082136
104	0xbf2d6e5c	-0.6774652
105	0xbf6abaeb	-0.91691464
106	0x3e94fffa	0.29101545
107	0xbf81d33f	-1.0142592
108	0xbf43e005	-0.765137
109	0x3e90047b	0.28128418
110	0xbe040ef7	-0.12896334
111	0x3f1d51a5	0.61452705
112	0xbd2a5d61	-0.04159296
113	0xbce44b55	-0.027867952
114	0x3f69fd3a	0.9140202
115	0xbf1de7d4	-0.61681867
116	0x3dc68256	0.09692828
117	0x3f6dccb4	0.9289048
118	0x3f3fc0f4	0.749038
119	0x3f1ff5be	0.6248435
120	0xbee49989	-0.44648388
121	0x3f752723	0.9576284
122	0xbfd0997e	-1.6296842
123	0xbe82fc8f	-0.25583312
124	0xbf507133	-0.8142273
125	0x3ec4593e	0.38349336
126	0xbf722175	-0.945823
127	0x3f25d749	0.64781624
128	0xbf23ae0a	-0.6393744
129	0xbef47a31	-0.47749475
130	0x3e9cfa11	0.30659536
131	0x3df0c318	0.11755961
132	0xbee9209c	-0.4553269
133	0xbe4af9f2	-0.19821909
134	0x3eb83501	0.3597794
135	0x3ef39de3	0.47581396
136	0xbf630c41	-0.8869057
137	0xbece08d4	-0.4024111
138	0x3f2dce9b	0.6789338
139	0xbefa73a3	-0.4891635
140	0x3eacc619	0.33744887
141	0x3e17d3ac	0.1482684
142	0x3d0132aa	0.031542458
143	0xbf8aa121	-1.0830423
144	0x3ee8afbf	0.45446584
145	0x3f9bab3f	1.2161635
146	0x3f2418ff	0.6410064
147	0x3e3837b1	0.17989995
148	0xbf96c34f	-1.1778353
149	0x3f075e2a	0.5287806
150	0xbdf68d9a	-0.12038727
151	0x3ee02cf7	0.43784305
152	0xbea1491e	-0.31501096
153	0x3f8d166d	1.1022469
154	0xbe7a6eab	-0.24456279
155	0xbf61896b	-0.8810031
156	0x3ea7a828	0.3274548
157	0xbe385ae4	-0.18003422
158	0xbfe958bb	-1.8230203
159	0x3d8fb386	0.07016663
160	0xbec10348	-0.37697816
161	0xbeadb5f3	-0.3392788
162	0xbea21f37	-0.3166444
163	0x3da9cefd	0.08291433
164	0xbb9a816b	-0.004715135
165	0x3caf5d4e	0.021406796
166	0xbeaad553	-0.33365878
167	0xbe528d2f	-0.2056167
168	0x3f21680f	0.63049406
169	0x3e934426	0.2876293
170	0xbdf86e8a	-0.12130459
171	0xbecec337	-0.40383312
172	0xbe60840d	-0.21925373
173	0x3e7637b0	0.2404468
174	0x3eed7219	0.46376112
175	0x3eb52b22	0.3538447
176	0xbebff321	-0.3749018
177	0xbea0fe51	-0.31444028
178	0xbe2f7dcb	-0.1713783
179	0x3c000368	0.007813312
180	0xc0b8c4fe	-5.774047
181	0x3ff9c8d5	1.9514414
182	0x3feaf83d	1.8357006
183	0x4000e1fc	2.013793
184	0xbf025daa	-0.5092417
185	0x3f4d0087	0.8007893
186	0xbeab972b	-0.3351377
187	0xbf0af2e3	-0.54276866
188	0xbf28cef7	-0.65940803
189	0x3f41b0fd	0.7566069
190	0x3f512eb0	0.81711864
191	0xbf14bc08	-0.5809941
192	0x3f585b3a	0.845142
193	0xbf6eb948	-0.93251467
194	0x3f45f25b	0.7732293
195	0x3ea2b711	0.31780294
196	0xbf0df214	-0.55447507
197	0xbe5acb6b	-0.2136666
198	0x3e79fddf	0.2441325
199	0x3d8c350b	0.06846055
200	0xbd978006	-0.073974654
201	0xbe01bc67	-0.12669526
202	0x3e5548d1	0.20828559
203	0xbe05584c	-0.13021964
204	0x3d0e0dd7	0.034681167
205	0xbe3f853f	-0.18703173
206	0xbe8a3a1e	-0.26997465
207	0x3e0a8b85	0.13529785
208	0x3d765e88	0.060148746
209	0x3e9c82be	0.30568498
210	0xbd19992f	-0.037499603
211	0x3cb233e5	0.02175326
212	0x3dd5849f	0.10425686
213	0xbd7d727b	-0.061876755
214	0xbe4338ff	-0.19064711
215	0x3c70ae22	0.014689954
216	0xbe70b83c	-0.2350778
217	0x3e628b18	0.22123373
218	0xbc8d3848	-0.017238751
219	0x3daafc18	0.08348864
220	0xbd21853b	-0.0394337
221	0x3c4468d1	0.011987881
222	0xbe8dc301	-0.2768784
223	0xbde276a3	-0.110577844
224	0x3df57a01	0.11986161
225	0xbdad3a25	-0.08458356
226	0x3e8a72a7	0.27040598
227	0x3d284b84	0.041087642
228	0x3d96137e	0.073279366
229	0x3d74b357	0.059741344
230	0xbd71dae5	-0.059046645
231	0x3d353f56	0.044249855
232	0x3df29f93	0.118468426
233	0x3dc69249	0.096958704
234	0xbe0b59e1	-0.13608505
235	0xbc61236b	-0.013741354
236	0x3d44fefb	0.04809473
237	0x3dff7dbb	0.12475153
238	0xbd2e526b	-0.04255907
239	0xbc420110	-0.011841074
240	0xbe1d7fce	-0.15380785
241	0xbe553156	-0.20819601
242	0xbecf7ba9	-0.40524033
243	0x3ed773d2	0.4208055
244	0xbe670cf6	-0.22563538
245	0xbcc5b6a5	-0.024134943
246	0x3dbe1914	0.09282127
247	0xbdf211d1	-0.118198045
248	0xbdc8de05	-0.09807972
249	0x3eca07b8	0.39459014
250	0xbe1aea93	-0.15128545
251	0x3d25d6e2	0.04048813
252	0xbe941d2e	-0.28928512
253	0x3d252e9e	0.04032766
254	0xbe07248e	-0.13197538
255	0xbefb6e2c	-0.49107492

conv2.bias f4 [32]
0	0x3e7d4349	0.24732699
1	0xc02b5312	-2.6769452
2	0xc050e98a	-3.264254
3	0xbf8d91da	-1.1060135
4	0x3e4e70ab	0.20160167
5	0xbf161f60	-0.58641624
6	0x3f13a8aa	0.57679236
7	0x3cd3d87e	0.025860067
8	0x3e049292	0.12946537
9	0x3f01d448	0.5071454
10	0x3e7e9a5b	0.2486357
11	0x3fc5f95c	1.5466723
12	0xbfb3b508	-1.4039621
13	0xbedadfc5	-0.42748848
14	0x3fe68c49	1.8011562
15	0x3f80d98b	1.0066389
16	0x3ff503af	1.9141749
17	0x3f41d509	0.7571569
18	0xbfc028df	-1.5012473
19	0x3f4a55d8	0.7903724
20	0xbeb5f7f5	-0.3554074
21	0xc020c92f	-2.5122793
22	0xbf9e2c1e	-1.2357213
23	0xbf22dffb	-0.6362302
24	0x3e43f876	0.19137749
25	0x3f89c908	1.0764475
26	0xbf3561a7	-0.7085213
27	0x3f606f1e	0.8766955
28	0x401ad7f5	2.419431
29	0x3e345a43	0.17612557
30	0x3f99976f	1.1999339
31	0x3f436d86	0.76338995

bn2.weight f4 [32]
0	0x3eef2022	0.46704203
1	0x3d8005c1	0.062510975
2	0x3d8d3f01	0.06896783
3	0x3e91f5dd	0.2850789
4	0x3e859fe9	0.26098564
5	0x3e73420d	0.23755665
6	0x3cfc58b3	0.030804014
7	0x3dcf3c2c	0.10118899
8	0x3e43175c	0.1905188
9	0x3f170551	0.5899249
10	0x3ef1f645	0.472582
11	0x3e5305bd	0.20607658
12	0x3db0c40b	0.08631142
13	0x3e81de09	0.25364712
14	0x3df0fd9c	0.11767122
15	0x3e26b873	0.162813
16	0x3e0a9ead	0.13537093
17	0x3f78e726	0.97227705
18	0x3e9b2be0	0.3030691
19	0x3d9379b5	0.07200948
20	0x3e1e5e51	0.15465666
21	0x3d5c8c1d	0.05384456
22	0x3f317883	0.6932451
23	0x3ef5c5e3	0.48002538
24	0x3e0a5977	0.1351069
25	0x3f3ef641	0.74594504
26	0x3e1cdc09	0.15318312
27	0x3dcde305	0.10053066
28	0x3e2e184b	0.17001455
29	0x3eca521b	0.39515767
30	0x3dacff70	0.08447158
31	0x3d8e4c38	0.06948131

bn2.bias f4 [32]
0	0xbf29f5c8	-0.6639066
1	0xbdc581ba	-0.09643884
2	0xbe2c34cb	-0.16817014
3	0xbe99bc8b	-0.3002666
4	0xbe0d1419	-0.13777198
5	0xbddd76e4	-0.10813692
6	0x3c14a58f	0.009072675
7	0xbe0aa912	-0.13541058
8	0xbea4bfc5	-0.3217756
9	0xbf548f5b	-0.83031243
10	0xbf096bcd	-0.53680116
11	0xbec424f1	-0.38309434
12	0xbd8d4ce3	-0.068994306
13	0xbe660b99	-0.22465362
14	0xbe27720a	-0.16352096
15	0xbe079fdd	-0.13244577
16	0xbe1000e8	-0.14062846
17	0xbf721b5b	-0.9457299
18	0xbe62501a	-0.22100869
19	0xbd3fb2e9	-0.04680148
20	0xbe09cc92	-0.13456944
21	0xbd8b93ac	-0.068152755
22	0xbf367363	-0.71269816
23	0xbf93a46b	-1.1534551
24	0xbd6e8dfc	-0.058240876
25	0xbf4396e5	-0.7640212
26	0xbe26a872	-0.16275194
27	0x3d0f15b4	0.034932807
28	0xbe04858a	-0.12941566
29	0xbdb0648b	-0.08612927
30	0xbd854de8	-0.06509
31	0xbdc333ed	-0.095313884

bn2.running_mean f4 [32]
0	0x402289fb	2.5396717
1	0xc0317e84	-2.773347
2	0xc0481c9c	-3.1267462
3	0xbea8eb5c	-0.32992065
4	0x3ea3087d	0.31842414
5	0x40c72aaf	6.2239604
6	0xbfff875a	-1.9963181
7	0x3f4c271b	0.7974717
8	0xbd89a116	-0.06720178
9	0x40c0711e	6.0138083
10	0x40a06870	5.0127487
11	0x3f08fccb	0.5351073
12	0x3ff5cd69	1.9203311
13	0xc0455108	-3.0830708
14	0x3f59c6b1	0.85068804
15	0x3f3cf137	0.73805565
16	0x4032d562	2.7942739
17	0x410a2df9	8.636224
18	0x40a9b668	5.3035164
19	0x402ef99a	2.7339845
20	0x3fe3b84d	1.7790619
21	0xc030008a	-2.750033
22	0xbf9e6402	-1.237427
23	0xbfdfa6b1	-1.7472745
24	0x3ddcf6f5	0.10789291
25	0x3f929023	1.1450237
26	0x405c122f	3.4386098
27	0xc08e85b5	-4.4538217
28	0x400d0b8c	2.2038298
29	0x40ba9279	5.83038
30	0xbe495c46	-0.19664106
31	0xbf2d7508	-0.677567

bn2.running_var f4 [32]
0	0x407a849c	3.9143438
1	0x3ff663fa	1.924926
2	0x3f97b1b2	1.1851103
3	0x4081595c	4.042158
4	0x40c040b0	6.0078964
5	0x419ef314	19.86869
6	0x4118d5f2	9.552233
7	0x40745804	3.817872
8	0x40898ca5	4.2984185
9	0x42087d73	34.12251
10	0x41bc9d63	23.576849
11	0x403b6b03	2.9284065
12	0x40a5ae54	5.1775303
13	0x413a32c4	11.637394
14	0x4030e258	2.763815
15	0x40087f84	2.132783
16	0x4047dca4	3.1228418
17	0x420e3fa5	35.562153
18	0x41ce5970	25.79367
19	0x40961515	4.6900735
20	0x405a4e64	3.4110346
21	0x400de064	2.2168207
22	0x412a3e2d	10.64018
23	0x408dee81	4.4353642
24	0x411dd266	9.863867
25	0x40b5d772	5.6825495
26	0x4140e657	12.056235
27	0x41a9e4c6	21.236706
28	0x40482cc1	3.1277316
29	0x41ad42af	21.65756
30	0x4053e769	3.3109992
31	0x4036e24b	2.8575618

linear1.weight f4 [64, 576]
0	0xc013caec	-2.3092604
1	0xbec36300	-0.38161469
2	0xbf993dda	-1.1972001
3	0xbe23d614	-0.15999633
4	0xbfb555eb	-1.4166845
5	0x3e34f8eb	0.1767308
6	0x3ec7910e	0.38977855
7	0x3f101d4a	0.5629469
8	0x3d69b8e4	0.05706109
9	0x3e65a46e	0.22426006
10	0xbf067589	-0.52523094
11	0x3cd43565	0.025904367
12	0xbe7c7d0c	-0.24657077
13	0xbf8cb318	-1.0992155
14	0x3dfc4730	0.123182654
15	0x3ef078f5	0.46967283
16	0x3dec2d37	0.115320615
17	0x3e492c5b	0.19645827
18	0x3fed20b2	1.8525603
19	0x3f5766ae	0.8414105
20	0x3f626640	0.8843727
21	0xbf0d835f	-0.5527858
22	0x3f6f774f	0.93541425
23	0xbfbb937e	-1.4654386
24	0x3e2cb023	0.16864066
25	0xbfe98998	-1.8245115
26	0xbf757231	-0.9587737
27	0x3ea0e119	0.31421736
28	0x3f10f1d0	0.56618977
29	0xbca2fa2e	-0.019894686
30	0x3e21ba6e	0.15793774
31	0xbe2eaa8d	-0.17057247
32	0x3decf73e	0.11570595
33	0x3e88fa30	0.26753378
34	0x3e6be3b3	0.23036079
35	0x3e7d99ff	0.24765776
36	0xbff11d16	-1.8837001
37	0xbfddf4d4	-1.7340341
38	0xc051dabc	-3.2789755
39	0xc0844569	-4.133473
40	0xc09c3ce3	-4.8824325
41	0xc047cb89	-3.1217978
42	0xbf3aa004	-0.72900414
43	0x3f28148d	0.6565636
44	0x3fb47889	1.4099284
45	0x3f2cc1d1	0.6748324
46	0x3f2b4bb9	0.6691242
47	0x3e55bbda	0.20872441
48	0x3f5a275a	0.85216296
49	0x3fb09f94	1.3798699
50	0x3b96f157	0.0046064067
51	0x3ebb0871	0.36529878
52	0x3f501485	0.8128131
53	0x3f162bf8	0.5866084
54	0xbfd78e7c	-1.6840358
55	0x3df6babd	0.12047336
56	0x3e612e27	0.21990262
57	0x3f8b62b7	1.08895
58	0x3f8ef0e8	1.1167269
59	0x3fe628e4	1.7981229
60	0xbf1b95d8	-0.6077552
61	0x3d974f3f	0.07388162
62	0xbfe08793	-1.7541374
63	0xbdbc3c6a	-0.091912106
64	0x3d46dbba	0.04854939
65	0xbe9bbf39	-0.3041933
66	0xbece49d4	-0.402907
67	0x3f3f78dd	0.747938
68	0xbdfa5739	-0.12223668
69	0xbe89d037	-0.26916668
70	0xbec09b41	-0.3761845
71	0xbf6d63ad	-0.9273022
72	0x3f82b20c	1.0210586
73	0x3f142662	0.5787107
74	0x3fe5c4d4	1.7950692
75	0xbedde9d9	-0.43342474
76	0xbf27faed	-0.6561726
77	0xc0159933	-2.3374755
78	0x3e1f6f68	0.15569842
79	0x3d3b78d5	0.04576953
80	0x3ede1376	0.43374223
81	0x3f5ce639	0.8628879
82	0x3e6c03ce	0.23048326
83	0x3e8ed72d	0.2789854
84	0x3ec3aa62	0.3821593
85	0x3e7174e5	0.23579748
86	0x3e6d5838	0.23178184
87	0xbca46a87	-0.020070327
88	0x3d6c3198	0.057664484
89	0xbdbbad9b	-0.09163972
90	0xbdae914a	-0.085238054
91	0xc010f555	-2.2649739
92	0xc0094459	-2.1447966
93	0xbf994411	-1.1973897
94	0xbf268f55	-0.6506246
95	0xbf005696	-0.5013212
96	0xbef189f1	-0.47175553
97	0xbf156dfd	-0.58370954
98	0xbf0cfeb1	-0.5507613
99	0xbf0dd4d6	-0.55402887
100	0xbe796954	-0.24356586
101	0xbeba911c	-0.36438835
102	0xbe5533d9	-0.2082056
103	0xbec1df7b	-0.37865815
104	0xbe70883d	-0.23489471
105	0xbefea5b7	-0.49735805
106	0xbdb965e1	-0.09052635
107	0x3d87ce96	0.066312
108	0x3f76ab0f	0.96354765
109	0x3ed0aaf9	0.40755442
110	0x3ece5964	0.40302575
111	0xbf1bee14	-0.60910153
112	0x3e8bae50	0.27281427
113	0xbd7d3329	-0.06181637
114	0xbaf904aa	-0.0018998582
115	0xbef490e8	-0.47766805
116	0xbeb11e90	-0.3459363
117	0x3f222ef2	0.6335288
118	0x3ec45bf2	0.383514
119	0xbe7f1404	-0.24909979
120	0xbdbac682	-0.091198936
121	0xbd7f9e68	-0.062406927
122	0xbeaba340	-0.33522987
123	0xbf2025d4	-0.6255772
124	0xbe9aaec2	-0.30211455
125	0xbf823232	-1.0171568
126	0xbe32a990	-0.17447495
127	0xbf688b52	-0.90837586
128	0xbe3b86b3	-0.18313102
129	0xbf9067ff	-1.1281737
130	0x3f8ceb51	1.1009313
131	0xbf4e2491	-0.80524546
132	0xbe5fc1c1	-0.21851255
133	0xbecf6a2d	-0.40510693
134	0x3e513fe9	0.20434536
135	0xbe14ead2	-0.14542702
136	0xbe3a104a	-0.18170276
137	0x3e412d77	0.18865
138	0xbe1ed645	-0.15511425
139	0xbf5cefdc	-0.86303496
140	0x3e86a464	0.26297295
141	0xbd77bae7	-0.06048098
142	0xbc4bbfe7	-0.01243589
143	0xbd1f9ee9	-0.038969908
144	0xbf277cdb	-0.6542489
145	0xbfd85792	-1.6901724
146	0x3f761b1d	0.9613512
147	0x3ef891e8	0.48548818
148	0xc062779d	-3.5385506
149	0x3ed2e43f	0.41189763
150	0x3eea8b89	0.45809582
151	0x3fdf9a34	1.7468934
152	0xbce45e5a	-0.027877022
153	0x3f805a53	1.0027565
154	0x3da4c4da	0.08045359
155	0xbe077d68	-0.13231432
156	0x3f17d1a6	0.59304273
157	0x3dbf9153	0.0935389
158	0x3f25fafd	0.648361
159	0xbe4bb491	-0.198931
160	0x3dfb10f9	0.12259097
161	0xbef0694a	-0.4695533
162	0xbf793ba4	-0.9735663
163	0xbf62706b	-0.88452786
164	0xbf0ef526	-0.55842817
165	0x3f17af92	0.59252274
166	0xbeebf47f	-0.46084973
167	0xbc9d230f	-0.019181756
168	0x3edb65e5	0.42851177
169	0xbe0632be	-0.13105294
170	0xbe9ce9f3	-0.3064724
171	0x3ec45d20	0.383523
172	0x3e84cc95	0.25937334
173	0x3e436818	0.19082677
174	0xbe9e9669	-0.3097413
175	0x3e7f8921	0.24954654
176	0x3eeb0080	0.4589882
177	0x3e798eff	0.24370955
178	0x3fab3d68	1.3378115
179	0x3eeda262	0.4641295
180	0xbfa59e7b	-1.2938989
181	0xbf70fc7a	-0.9413525
182	0x400c91c2	2.1963964
183	0x3edda454	0.43289435
184	0x3d4ab4c1	0.049488787
185	0x3eb55080	0.3541298
186	0x3f722731	0.9459105
187	0xbfea0efe	-1.8285825
188	0x3e449827	0.19198667
189	0x3b03b544	0.0020097056
190	0x3e5b9af2	0.21445826
191	0xbf109e7a	-0.56491816
192	0xbfb86839	-1.4406806
193	0xbf13e808	-0.57775927
194	0x3e279d9d	0.16368718
195	0x3edb729c	0.42860878
196	0xbb117b22	-0.0022198637
197	0x3f53c938	0.8272891
198	0xbefb3c4f	-0.4906945
199	0xc01c15bd	-2.4388268
200	0xc06537f5	-3.5815403
201	0xc0160cc4	-2.3445292
202	0xc034e8ce	-2.8267093
203	0xc0271179	-2.6104414
204	0xc0218f5b	-2.5243747
205	0xbe385e02	-0.18004611
206	0x3f60fb3b	0.8788335
207	0x3ed311d0	0.41224527
208	0x3ec2dd3f	0.38059422
209	0x3e9dea14	0.3084265
210	0xbe85d221	-0.26136878
211	0xbf122541	-0.57088095
212	0xbeb45097	-0.35217735
213	0x3e4dfb6f	0.20115446
214	0x3f49181c	0.78552413
215	0x3e8aeb54	0.27132666
216	0x3f1daad4	0.6158879
217	0x3fa5725f	1.2925528
218	0x3f80ed7f	1.0072478
219	0xbfae66c6	-1.3625114
220	0x3e86060e	0.26176494
221	0xbc0ee4e9	-0.008721569
222	0xbf311c47	-0.6918377
223	0xbedca6a8	-0.430959
224	0xbf04fc9e	-0.51947963
225	0xbf361d3f	-0.71138376
226	0xbf2c79f7	-0.67373604
227	0x3f9e01db	1.2344316
228	0xbee15c9a	-0.44015962
229	0xbeef157a	-0.46696073
230	0x3f195956	0.5990194
231	0xbed12513	-0.40848598
232	0xbe67688c	-0.22598475
233	0xbd1fb1b2	-0.038987823
234	0xbeb13a3c	-0.34614742
235	0x3efa836c	0.48928392
236	0xbf14bf56	-0.58104455
237	0x3e888767	0.26665804
238	0x3e71184f	0.23544429
239	0x3e638f14	0.22222549
240	0xbd872cb3	-0.066003226
241	0x3e828980	0.2549553
242	0x3e5daa02	0.21646884
243	0x3e831b05	0.25606552
244	0xbed9fbde	-0.42574972
245	0x3ec56280	0.38551712
246	0x3ed8ffc3	0.4238263
247	0x3e8c8e3e	0.27452272
248	0xbe985484	-0.2975198
249	0x3ed14f29	0.40880707
250	0x3f1bc7ef	0.6085195
251	0xbea902f5	-0.3301007
252	0x3f731131	0.94948107
253	0x3ddc9240	0.107700825
254	0xbf6935c0	-0.9109764
255	0xbf8b67b6	-1.0891025

linear1.bias f4 [64]
0	0xbf07aa8b	-0.529946
1	0xbed77e1d	-0.42088404
2	0x3f346f0c	0.70481944
3	0x3f23aa4b	0.6393172
4	0x3f82e7b6	1.0226963
5	0xbfb7207a	-1.4306786
6	0xbfa3cf22	-1.2797587
7	0x3f5c47da	0.86047137
8	0xbe4e0e42	-0.20122626
9	0xbf81031b	-1.0079073
10	0xbf96dacb	-1.178552
11	0x3f82841e	1.0196569
12	0xbedd2ae5	-0.43196788
13	0x3f842c5f	1.0326041
14	0xbf89d6bf	-1.076866
15	0x3f7bba69	0.98331314
16	0x3fc050b5	1.502463
17	0xbf0da499	-0.5532928
18	0x3f69bbbd	0.9130209
19	0xbf7acb67	-0.9796662
20	0xbf19a6fd	-0.6002043
21	0xbf92f450	-1.1480808
22	0xbf6fae3b	-0.9362523
23	0x3e6ce0fd	0.23132701
24	0xbf60ab5a	-0.8776146
25	0xbf2413d3	-0.6409275
26	0x3e975b3b	0.2956179
27	0xbf733fd6	-0.9501928
28	0xbeae0313	-0.3398672
29	0xbf08f3b0	-0.5349684
30	0xbf525f46	-0.82176626
31	0x3f826d59	1.018962
32	0xbf566cf1	-0.8375998
33	0xbe1c315a	-0.15253201
34	0x3fe8ac69	1.8177615
35	0xbfaa64ec	-1.3312049
36	0xbf1dd61c	-0.6165483
37	0xbf8c6296	-1.0967586
38	0x3f800300	1.0000916
39	0xbf972eac	-1.1811118
40	0x3e78b4a5	0.2428766
41	0x3f1bf688	0.6092305
42	0xbf9c49f1	-1.2210065
43	0x3f824065	1.0175902
44	0x3ec218c3	0.37909517
45	0xbf0817b4	-0.5316117
46	0xbebcb61d	-0.3685769
47	0x3f8a5dbb	1.0809854
48	0xbf98d245	-1.1939169
49	0xbf83fe83	-1.0312046
50	0x3edd64c1	0.43240932
51	0xbfad4eb3	-1.3539642
52	0xbf57d4c5	-0.84309036
53	0xbf2855f6	-0.65756166
54	0xbf7c07f4	-0.98449636
55	0xbe7cf13f	-0.24701403
56	0xbf785c33	-0.97015685
57	0xbf6ed274	-0.93289876
58	0xbf340dd1	-0.7033358
59	0x3f8c77fc	1.0974116
60	0xbf1f5bf4	-0.62249684
61	0xbf0a7594	-0.5408566
62	0x3fb6ee29	1.4291431
63	0xbf4398b6	-0.76404893

linear2.weight f4 [16, 64]
0	0x3caf2eb9	0.021384584
1	0x3e7077cb	0.23483197
2	0x3ec6a365	0.38796535
3	0xbee5b8c4	-0.44867527
4	0x3e2fcd4b	0.17168157
5	0x3f25fdd9	0.64840466
6	0xbf2d3aaa	-0.6766764
7	0xbe6cb896	-0.23117289
8	0x3ee1dd25	0.44114032
9	0x3f33b545	0.7019847
10	0x3ed8b708	0.42327142
11	0x3e14895e	0.14505526
12	0xbf141fc4	-0.5786097
13	0x3d9312b0	0.07181299
14	0xbeb5c9fe	-0.3550567
15	0xbec9e316	-0.39431065
16	0x3f29cbe6	0.6632675
17	0xbd379bb3	-0.04482622
18	0xbe2e3dae	-0.17015716
19	0x3e7c3d33	0.2463272
20	0xbc8eda83	-0.017438179
21	0xbe98ed9e	-0.29868788
22	0xbd1326d4	-0.0359257
23	0xbeb02fe3	-0.34411535
24	0x3ea7c341	0.32766154
25	0xbeacece5	-0.33774486
26	0x3f485ebe	0.78269565
27	0x3ecf1d86	0.40452212
28	0xbf0460f5	-0.51710445
29	0xbc9b6a8e	-0.018971708
30	0x3f385fc5	0.7202113
31	0x3ee1b20d	0.44081154
32	0x3e64030f	0.22266792
33	0x3e563140	0.20917225
34	0x3e2884a8	0.16456854
35	0xbbea1487	-0.0071435603
36	0x3e087ed8	0.13329637
37	0xbe401de5	-0.18761404
38	0xbe028626	-0.12746486
39	0xbcaa3fce	-0.020782378
40	0x3ef9d89b	0.4879807
41	0x3eece0d7	0.4626529
42	0x3e865ad6	0.26241177
43	0xbf0943d7	-0.5361914
44	0x3ea7c0c6	0.32764262
45	0xbf3725a7	-0.7154183
46	0x3e55066a	0.20803228
47	0xbea7cf79	-0.32775477
48	0xbd179db4	-0.03701563
49	0xbea365ae	-0.31913513
50	0x3e31d555	0.17366536
51	0xbe8f3c62	-0.27975756
52	0xbe259952	-0.16171768
53	0xbd2ec7d0	-0.042671025
54	0xbda153e2	-0.078773275
55	0x3d943db3	0.07238331
56	0x3f612c20	0.87957954
57	0xbf416b56	-0.75554407
58	0x3e329a83	0.17441754
59	0xbc9c1447	-0.019052638
60	0xbe850acb	-0.25984797
61	0x3f1092cb	0.5647399
62	0x3a9e7a0c	0.0012090816
63	0x3e8a6941	0.27033427
64	0x3eb2cf5c	0.34923828
65	0xbde190df	-0.1101396
66	0x3eb0d79c	0.34539497
67	0xbeb38ffc	-0.3507079
68	0xbc30c996	-0.010790249
69	0x3f405ad0	0.7513857
70	0x3ee46d25	0.4461452
71	0xbee08d4d	-0.43857804
72	0xbee05e7f	-0.43822095
73	0x3eba2b8d	0.36361352
74	0xbdd1ef05	-0.102506675
75	0xbeac3d36	-0.3364045
76	0x3df646a0	0.120251894
77	0x3efb7451	0.4911218
78	0xbaa641f5	-0.0012684452
79	0xbe571dee	-0.21007511
80	0x3e7560d7	0.23962723
81	0xbf087561	-0.53304106
82	0xbdc10d05	-0.094263114
83	0xbdbaddb7	-0.0912432
84	0x3ecdd17c	0.40198886
85	0x3d2b1cbc	0.04177545
86	0xbef86c64	-0.48520195
87	0x3f28dab6	0.65958726
88	0xbdde0b8a	-0.10842045
89	0xbe32d5e4	-0.17464405
90	0x3e29da59	0.165872
91	0x3e8ff874	0.28119242
92	0x3e061159	0.13092555
93	0x3d5a8a2d	0.05335443
94	0x3f1b4b33	0.6066162
95	0xbeaf749f	-0.34268662
96	0xbf337e0e	-0.7011422
97	0xbe96a838	-0.29425216
98	0xbccfb17a	-0.025353182
99	0xbe5cf2e3	-0.21577029
100	0x3e9deec5	0.3084623
101	0x3de45bdd	0.11150334
102	0x3e9a824a	0.30177528
103	0xbdb70f6b	-0.089384876
104	0xbf0163bd	-0.50542814
105	0x3df427a2	0.11921622
106	0x3ebe379b	0.371518
107	0xbdf28ee8	-0.118436635
108	0xbd07fe04	-0.033201233
109	0x3f130702	0.5743257
110	0xbe5aa0cb	-0.213504
111	0xbd970355	-0.073736824
112	0x3da0f5a0	0.07859349
113	0xbf62e6c5	-0.88633376
114	0xbf21df42	-0.6323129
115	0x3e9f5f0f	0.3112721
116	0xbe2762c8	-0.16346276
117	0xbf3144f1	-0.6924582
118	0x3d00ee80	0.03147745
119	0x3eb88dfa	0.3604582
120	0xbee47a70	-0.44624662
121	0xbca33b68	-0.019925788
122	0x3e8e35be	0.27775377
123	0xbead0810	-0.33795214
124	0x3ef60568	0.48051
125	0xbe0eb42d	-0.13935919
126	0xbe230369	-0.1591927
127	0x3efb4b58	0.4908092
128	0x3dcd138f	0.10013496
129	0x3e83dc4a	0.25754005
130	0xbe84b576	-0.25919694
131	0x3c5799cd	0.013159228
132	0xbea072d0	-0.31337595
133	0x3e167f4f	0.14697002
134	0xbe30d930	-0.1727035
135	0xbf10cf8b	-0.56566685
136	0xbeeb6174	-0.45972788
137	0xbd985ff6	-0.07440178
138	0xbda1ee2b	-0.07906755
139	0x3f584834	0.84485173
140	0xbf07647e	-0.52887714
141	0x3ee977f1	0.4559932
142	0xbc9b5f3c	-0.01896631
143	0x3f3ba6b0	0.7330122
144	0x3e5740d0	0.21020818
145	0xbe3a2c7e	-0.18181035
146	0xbf0afcc1	-0.5429192
147	0x3f3a7943	0.7284128
148	0x3ef9a5b7	0.48759243
149	0x3e9a8fea	0.30187923
150	0x3eba979b	0.3644379
151	0xbefe6b6c	-0.4969133
152	0xbea1baf4	-0.31587946
153	0xbe3f1f13	-0.18664198
154	0xbe91c58b	-0.28471026
155	0xbdeb7027	-0.11496001
156	0x3e19cf71	0.15020539
157	0xbe0d70dc	-0.13812584
158	0xbf17445c	-0.59088683
159	0xbf1daafb	-0.6158902
160	0x3f2322a2	0.6372472
161	0x3b083e15	0.0020788957
162	0x3ec754e3	0.3893195
163	0xbf1e2aa5	-0.6178382
164	0x3e8be4c4	0.27322972
165	0x3eb2c555	0.34916177
166	0xbe07b961	-0.1325431
167	0xbcec36cb	-0.028834721
168	0x3e813a96	0.2524001
169	0xbeae55f5	-0.34049955
170	0x3d92511c	0.07144377
171	0x3e0f6fea	0.14007536
172	0x3f21e312	0.63237107
173	0xbf622519	-0.88337857
174	0x3ed99df1	0.42503312
175	0xbe65b7b6	-0.22433361
176	0xbeeca79a	-0.4622162
177	0x3dcbd55e	0.09952806
178	0xbde9bcc8	-0.1141296
179	0xbdc60d36	-0.096704885
180	0xbcf10c5a	-0.029424835
181	0x3dc31059	0.095246024
182	0xbe9bbe6c	-0.30418718
183	0x3e981d34	0.2970978
184	0xbf290394	-0.66021085
185	0xbe02b968	-0.1276604
186	0xbc741eb3	-0.014899897
187	0x3e2c368f	0.16817687
188	0xbe9db159	-0.30799368
189	0x3e40acb0	0.18815875
190	0xbda01110	-0.078157544
191	0x3e8a35b3	0.26994094
192	0xbe5e4524	-0.21706063
193	0xbe84260b	-0.25810274
194	0x3e3de6ca	0.1854507
195	0xbdf7ab1c	-0.120931834
196	0xbe9c948d	-0.30582085
197	0xbe3e0888	-0.18557942
198	0x3cbb5926	0.022869658
199	0x3dae4243	0.08508732
200	0x3f386363	0.7202665
201	0x3e749d6e	0.2388818
202	0xbd0f2187	-0.034944084
203	0x3d665eb1	0.05624265
204	0x3db1768d	0.0866519
205	0xbe37fb78	-0.17967021
206	0x3e1dcad7	0.15409409
207	0xbf083894	-0.5321133
208	0x3dbf7114	0.0934774
209	0xbe91a804	-0.28448498
210	0xbecc9182	-0.39954764
211	0x3f305e42	0.68893826
212	0xbeb7f505	-0.35929123
213	0x3d8e3cf0	0.06945217
214	0xbf31b26d	-0.6941288
215	0xbea372e9	-0.31923607
216	0xbbd61ff3	-0.0065345704
217	0xbd90c19f	-0.0706818
218	0xbeb323c9	-0.3498824
219	0xbe5fbfdd	-0.21850534
220	0x3dc33f21	0.09533525
221	0xbf00e485	-0.50348693
222	0xbf209caf	-0.6273908
223	0xbe31adf5	-0.17351516
224	0xbee55644	-0.44792378
225	0x3ea31290	0.318501
226	0x3e80231a	0.2502678
227	0xbebdf86d	-0.37103596
228	0xbd09c85a	-0.033638336
229	0x3eed6a39	0.46370104
230	0xbed3ea2a	-0.4138959
231	0xbe7a83b2	-0.244643
232	0x3eb5b806	0.3549196
233	0xbe45c92d	-0.19315024
234	0xbf05a67d	-0.52207166
235	0xbe98efd8	-0.29870486
236	0xbe26db5e	-0.1629462
237	0x3eb95d5b	0.36204037
238	0x3e89e939	0.26935747
239	0xbe90923d	-0.2823657
240	0xbecb0120	-0.39649296
241	0xbe9342cb	-0.28761896
242	0xbc331f0e	-0.010932697
243	0xbee26e86	-0.44224948
244	0xbcd58eed	-0.026069129
245	0x3e6e456a	0.23268667
246	0x3e284fae	0.16436645
247	0xbdc70b07	-0.097189
248	0xbed88fcb	-0.42297205
249	0x3ebcdafa	0.36885816
250	0x3d93c46d	0.072151996
251	0x3cdbf099	0.026848124
252	0xbf57ed44	-0.84346414
253	0x3ebd1b2a	0.36934787
254	0xbea17c2f	-0.31540057
255	0x3cbde1da	0.023178983

linear2.bias f4 [16]
0	0xbff6c7cc	-1.9279723
1	0xc053b1c4	-3.307725
2	0xc027abed	-2.6198685
3	0x402c3b39	2.6911147
4	0x40207360	2.507042
5	0x4032568c	2.7865324
6	0x4046af6c	3.104457
7	0xc0503671	-3.2533228
8	0xc02c9c6d	-2.6970475
9	0xc05f5078	-3.4892864
10	0xbfac66fc	-1.3468928
11	0x40340579	2.812834
12	0xc01860cb	-2.3809078
13	0xbd8f5e5e	-0.07000421
14	0x406f7cdb	3.7419956
15	0xc0248126	-2.5703826

linear3.weight f4 [111, 16]
0	0xbf2dc17d	-0.67873365
1	0xbf39f0ca	-0.7263304
2	0xbf1ff62b	-0.62485
3	0x3e95b28b	0.2923778
4	0x3f66df5b	0.90184563
5	0x3ea02f3e	0.31286043
6	0xbdbf2d0e	-0.093347654
7	0xbf4fc849	-0.81164986
8	0xbf11012d	-0.5664242
9	0xbf666767	-0.9000153
10	0x3e8b7e21	0.27244666
11	0x3ddad300	0.10684776
12	0xbd4ea85f	-0.05045354
13	0x3eaab90e	0.3334431
14	0x3fa1d4d2	1.2643073
15	0xbf491f6e	-0.7856358
16	0xbf145c27	-0.57953113
17	0xbf7c7d0f	-0.98628324
18	0xbe95e583	-0.29276666
19	0xbe3aecd0	-0.182544
20	0x3d061725	0.032736916
21	0x3eb37454	0.3504969
22	0x3f56c737	0.8389773
23	0xbe6326f1	-0.22182824
24	0xbe44e6ef	-0.19228719
25	0xbfc05ebd	-1.5028912
26	0xbdc63516	-0.09678094
27	0x3eb4f5d6	0.35343808
28	0xbea67819	-0.32513502
29	0x3df30664	0.11866453
30	0x3e295f1e	0.1654019
31	0xbf85bf02	-1.0448916
32	0xbef87413	-0.48526058
33	0xbf81cafa	-1.0140069
34	0xbec3da12	-0.38252312
35	0xbec0fd07	-0.37693045
36	0xbe87c636	-0.2651841
37	0x3eabd4bf	0.3356075
38	0x3f8ba00e	1.090822
39	0xbd2a3038	-0.04154989
40	0x3bd5f773	0.0065297424
41	0xbfd3720d	-1.651918
42	0x3ba22f24	0.0049494673
43	0x3f121ef2	0.5707847
44	0xbea62774	-0.32451975
45	0xbdf13f04	-0.117795974
46	0xbdc9591f	-0.098314516
47	0xbf9dd1fe	-1.232971
48	0xbd9d9584	-0.076945335
49	0x3f0fc3f3	0.5615837
50	0xbf8dff39	-1.1093513
51	0x3f3d2cb1	0.7389632
52	0xbdca8752	-0.098890916
53	0xbeace8c3	-0.33771333
54	0x3f6918dc	0.9105356
55	0xbf9bd08e	-1.2173021
56	0xbd5a9b7f	-0.05337095
57	0xbeb17405	-0.34658828
58	0xbec5ace4	-0.38608468
59	0xbe84be1f	-0.259263
60	0xbe091a35	-0.13388903
61	0x3e09287e	0.13394353
62	0x3e1f9280	0.15583229
63	0xbf4192b0	-0.7561445
64	0xbdeba1d6	-0.11505477
65	0x3f1161a6	0.56789625
66	0xbfb936d7	-1.4469861
67	0x3f3e0df7	0.7424006
68	0xbdb19e34	-0.08672753
69	0xbedd236b	-0.43191084
70	0x3f3772d4	0.7165959
71	0xbf9ddfb2	-1.2333891
72	0xbd0ccb16	-0.034373365
73	0xbedeb787	-0.43499395
74	0xbede4b78	-0.43416953
75	0xbdd36531	-0.10322035
76	0xbd1dd63b	-0.038534384
77	0x3da24387	0.07923036
78	0x3e407881	0.18795969
79	0xbf2c39cb	-0.67275685
80	0x3e774315	0.24146684
81	0xbe96196c	-0.2931627
82	0x3ee2a67f	0.4426765
83	0x3ffa7609	1.9567271
84	0xbe88632d	-0.26638165
85	0x3ecf6b8c	0.4051174
86	0xbdfb8473	-0.12281122
87	0xbeb1ab95	-0.3470122
88	0xbe48f9a0	-0.19626474
89	0x3eb32e1c	0.34996116
90	0x3e93f3c3	0.28896913
91	0x3e845142	0.25843245
92	0xbf6fcc14	-0.93670774
93	0xbda06a78	-0.07832807
94	0xbdf38cae	-0.11892067
95	0xbfb8466d	-1.4396492
96	0xbf159ac2	-0.58439267
97	0xbee60021	-0.44921973
98	0xbf771513	-0.9651653
99	0x3fb45d3e	1.4090955
100	0xbe0d0148	-0.1377002
101	0x3e2b6c7e	0.16740605
102	0xbe364dec	-0.17803162
103	0xbf23e259	-0.64017254
104	0x3ed20c5e	0.4102506
105	0xbf5f19eb	-0.8714892
106	0xbee3632f	-0.4441161
107	0x3ee6c3c7	0.4507124
108	0xbd0abb5c	-0.033870086
109	0xbe9d1c3e	-0.3068561
110	0x3ee2be09	0.4428561
111	0xbdf5d744	-0.12003949
112	0xbe14467f	-0.14480017
113	0xbf715d6b	-0.9428317
114	0x3e809ff1	0.25122026
115	0x3f4ae3b5	0.79253703
116	0x3d89f033	0.067352675
117	0xbe6cb724	-0.23116738
118	0x3e8a799d	0.2704591
119	0xbf465cbd	-0.7748526
120	0x3f24f303	0.64433306
121	0x3dba9a75	0.091114916
122	0xbccbacdf	-0.024862705
123	0xbe8916dd	-0.26775256
124	0xbe938404	-0.28811657
125	0x3e9006f3	0.28130302
126	0xbf37fcf8	-0.71870375
127	0xbf867dda	-1.0507157
128	0xbf044509	-0.5166784
129	0xbf954bd6	-1.1663768
130	0x3b3fcfc8	0.0029268134
131	0x3ed60871	0.41803315
132	0x3edc646d	0.4304537
133	0xbf380046	-0.7187542
134	0xbecef40c	-0.40420568
135	0xbf64c479	-0.89362293
136	0x3f24a5f5	0.6431573
137	0xbef7879f	-0.48345658
138	0xbec9ec47	-0.39438078
139	0x3f0240f6	0.5088037
140	0xbebad076	-0.36487168
141	0xbe00b063	-0.12567286
142	0xbe91e2aa	-0.28493243
143	0xbf1653d9	-0.5872169
144	0xbeac446f	-0.3364596
145	0xbfc79525	-1.559239
146	0x3e2fa734	0.17153627
147	0xbc8f6466	-0.017503928
148	0x3f1c9677	0.6116709
149	0xbf22fcaf	-0.63666815
150	0x3f207119	0.62672573
151	0xbf826e52	-1.0189917
152	0x3f6cf4a8	0.92560816
153	0x3f463743	0.7742807
154	0xbde6028b	-0.11230954
155	0xbf55b407	-0.83477825
156	0xbe9ad920	-0.30243778
157	0x3e923efe	0.28563684
158	0xbf243ab6	-0.64152086
159	0xbf384319	-0.7197738
160	0xbe856426	-0.2605297
161	0xbfb3f6df	-1.4059714
162	0xbd5649c6	-0.05231645
163	0x3ddb2de9	0.10702116
164	0x3ecd3138	0.40076613
165	0xbf59476c	-0.84874606
166	0xbe300d2d	-0.17192526
167	0xbf8bedb1	-1.0931913
168	0x3f4d0169	0.80080277
169	0x3db023e0	0.086005926
170	0xbec27b25	-0.37984577
171	0x3d3037a5	0.043021817
172	0xbe646bc6	-0.22306737
173	0xbec6cd02	-0.38828284
174	0xbf27cac1	-0.6554375
175	0xbf295755	-0.66148883
176	0x3dfe9f47	0.124327235
177	0xbf907e41	-1.128853
178	0x3f01121c	0.5041826
179	0xbecb5b8e	-0.39718288
180	0x3fb27761	1.3942682
181	0xbf927712	-1.1442587
182	0x3f8df5a5	1.109059
183	0xbe8aabb8	-0.27084136
184	0xbf4bcaa8	-0.79606104
185	0x3cfb6a52	0.030690346
186	0xbf91a373	-1.1378006
187	0xbf3471bb	-0.7048604
188	0xbeedcdd4	-0.46446097
189	0x3cb39c3c	0.021925084
190	0xbe0490e0	-0.1294589
191	0xbf66ec76	-0.9020456
192	0x3ef1c773	0.4722248
193	0xbf8f0cb0	-1.1175747
194	0xbf4a0f01	-0.78929144
195	0x3e9a6991	0.30158666
196	0x3e94f16d	0.29090443
197	0xbed7930f	-0.42104384
198	0x3f5f5c21	0.8724995
199	0xbd9c3532	-0.07627334
200	0xbdceab37	-0.100912504
201	0x3dbcf318	0.09226054
202	0xbea44607	-0.32084677
203	0xbeacbbd4	-0.3373705
204	0xbf4f2110	-0.80909824
205	0xbfadede5	-1.3588225
206	0x3e33794f	0.17526744
207	0xbd964fd8	-0.07339448
208	0x3f87dd5f	1.0614432
209	0xbf7d5d2c	-0.98970294
210	0xbe99b88b	-0.30023608
211	0xbeaedf14	-0.3415457
212	0x3e90ac2a	0.2825635
213	0xbf054237	-0.5205416
214	0x3ef51816	0.4786994
215	0x3de06072	0.109558955
216	0xbfb11161	-1.3833429
217	0xbd10c931	-0.03534812
218	0x3f13610e	0.5756997
219	0xbf81de0d	-1.014589
220	0xbf5e9a0a	-0.86953795
221	0x3ec8c6b1	0.3921409
222	0x3d9f1198	0.077670276
223	0x3f11d9d6	0.56973016
224	0x3f2fd7fe	0.6868895
225	0xbf8b1ecc	-1.0868773
226	0xbeb2da39	-0.34932116
227	0xbe981f19	-0.29711226
228	0x3dfc84e5	0.12330035
229	0xbe38edb2	-0.18059424
230	0x3f981575	1.1881548
231	0x3e2b633c	0.16737074
232	0xbf2be91b	-0.67152566
233	0x3e7378f7	0.23776613
234	0xbf52feaf	-0.82419866
235	0xbeb58d61	-0.35459426
236	0xbec40ed6	-0.3829257
237	0xbf380a52	-0.7189075
238	0x3eb6f7d8	0.35735965
239	0xbf2ab1e3	-0.66677684
240	0x3efeeb44	0.49788868
241	0xbeb6a39f	-0.35671708
242	0x3ca6f33c	0.020379655
243	0xbe6c0461	-0.23048545
244	0x3e25dc50	0.16197324
245	0x3c5888a4	0.013216171
246	0x3eb1c58e	0.34721035
247	0x3e86caca	0.2632659
248	0xbf18c4c2	-0.5967523
249	0x3df31452	0.1186911
250	0xbec2ab16	-0.38021153
251	0xbe590b68	-0.21195757
252	0x3d18aa82	0.037271984
253	0x3e279974	0.16367131
254	0x3e505086	0.20343217
255	0xbdbd6ff4	-0.09249869

linear3.bias f4 [111]
0	0x3ff36a84	1.9016881
1	0x3faa2173	1.3291458
2	0x3f46790f	0.7752847
3	0x3e09d2fe	0.13459393
4	0x3ea45ff2	0.3210445
5	0x3ec5ea2a	0.38655216
6	0x3f82da22	1.0222819
7	0x3f2824f7	0.65681404
8	0x3fdb9ce0	1.715725
9	0x3fffcf1e	1.9985082
10	0x4003ab42	2.0573277
11	0x3ed18367	0.40920565
12	0x3ff096eb	1.8796057
13	0x3edeb345	0.43496147
14	0x3ffa3779	1.9548179
15	0xbfcfcd09	-1.6234447
16	0x3fbb11ef	1.4614848
17	0x4005d2cf	2.0909917
18	0x3f9a5bed	1.2059304
19	0x3fec7ae1	1.8475
20	0x3f842b21	1.0325662
21	0x3f0f023f	0.558628
22	0x3f8e9237	1.1138371
23	0x3f63384c	0.8875778
24	0x3f62d26a	0.88602316
25	0x3f83b9a3	1.0291027
26	0x3f4dcf21	0.8039418
27	0x3f97962f	1.1842707
28	0x3e3ae4b3	0.18251304
29	0x3fdf5f50	1.7450962
30	0x3e81feea	0.25389796
31	0x40111f10	2.267521
32	0xbf7bb7b0	-0.9832716
33	0x3fa1f4b3	1.2652801
34	0x40069ccb	2.10332
35	0x4007521a	2.114386
36	0x40012eb0	2.0184746
37	0x3f8a1806	1.0788581
38	0x3fb02e83	1.3764194
39	0x3f34d008	0.7062993
40	0x3eee7b02	0.46578223
41	0x3f2b219e	0.6684817
42	0x3f817f6e	1.0117013
43	0x3e63b8a2	0.222384
44	0x3fe91159	1.8208419
45	0x3f6acf2d	0.91722375
46	0x4006807a	2.1015916
47	0xbf0557cc	-0.5208709
48	0x3fbdd6a6	1.483113
49	0xbf776c2b	-0.96649426
50	0x402cfcf0	2.702938
51	0x3ffa10df	1.9536399
52	0x3f85a279	1.0440208
53	0x3fedcfca	1.8579037
54	0x3f8c5679	1.0963889
55	0x3fc05e1c	1.502872
56	0xbd1ec960	-0.038766265
57	0x3f4ef749	0.8084608
58	0x3fd3c2d5	1.6543833
59	0x3f8194de	1.0123556
60	0x3f0bb0ab	0.5456645
61	0x3f20424b	0.62601155
62	0xbf8a1511	-1.0787679
63	0x3fe04ed0	1.7524052
64	0x3e65e10e	0.22449133
65	0x40010472	2.0158963
66	0xbec05a11	-0.37568715
67	0x3f9c113e	1.2192762
68	0x400bd438	2.1848278
69	0x3fd4e64d	1.6632782
70	0x401cb4e6	2.4485412
71	0x40240713	2.5629318
72	0x3f8d0367	1.1016663
73	0x3fc68e48	1.5512171
74	0x3f930f1a	1.1488984
75	0x3f999dc9	1.2001277
76	0x3f94ada4	1.1615491
77	0x3fa53ab5	1.2908541
78	0x3f90ec0a	1.1322033
79	0x3fdcf7f6	1.7263172
80	0x40313f22	2.7694783
81	0xbd84081a	-0.06446858
82	0x40b16849	5.54398
83	0xbdfb2551	-0.12262977
84	0x408ac491	4.336495
85	0x40250f5c	2.5790625
86	0x401a478e	2.4106174
87	0x4004cd46	2.075029
88	0x3f0d94bb	0.5530507
89	0x3f48038e	0.78130424
90	0x3f8b6c1b	1.0892366
91	0x3f0f72af	0.5603437
92	0x3fa77d4c	1.3085113
93	0x3f8262d3	1.0186409
94	0xbf3a482c	-0.72766376
95	0x3f8e4428	1.111455
96	0x3f570046	0.8398479
97	0x402d20c6	2.7051253
98	0x3ea0681e	0.31329435
99	0x409630b5	4.6934457
100	0xbe7658e7	-0.24057351
101	0x4092e815	4.5908303
102	0x3ffae313	1.9600548
103	0x3f633f8a	0.8876883
104	0x3f4b8cd3	0.79511756
105	0x3ee7d5c2	0.45280272
106	0xbd133686	-0.03594067
107	0x3fbd65ad	1.4796654
108	0x3e6d9b5d	0.23203798
109	0xbf0a6e8e	-0.54074943
110	0xbbe67308	-0.0070327558
